#executable_target_rocm_hsaco_fb = #hal.executable.target<"rocm", "rocm-hsaco-fb", {target_arch = "gfx942"}>
#pipeline_layout = #hal.pipeline.layout<push_constants = 1, sets = [<0, bindings = [<0, storage_buffer>, <1, storage_buffer>, <2, storage_buffer, ReadOnly>, <3, storage_buffer, ReadOnly>]>]>
module @compiled_scheduled_unet {
  util.global private @_params.unet.conv_in.weight {noinline} = #stream.parameter.named<"model"::"unet.conv_in.weight"> : tensor<320x4x3x3xf16>
  util.global private @_params.unet.conv_in.bias {noinline} = #stream.parameter.named<"model"::"unet.conv_in.bias"> : tensor<320xf16>
  util.global private @_params.unet.time_embedding.linear_1.weight {noinline} = #stream.parameter.named<"model"::"unet.time_embedding.linear_1.weight"> : tensor<1280x320xf16>
  util.global private @_params.unet.time_embedding.linear_1.bias {noinline} = #stream.parameter.named<"model"::"unet.time_embedding.linear_1.bias"> : tensor<1280xf16>
  util.global private @_params.unet.time_embedding.linear_2.weight {noinline} = #stream.parameter.named<"model"::"unet.time_embedding.linear_2.weight"> : tensor<1280x1280xf16>
  util.global private @_params.unet.time_embedding.linear_2.bias {noinline} = #stream.parameter.named<"model"::"unet.time_embedding.linear_2.bias"> : tensor<1280xf16>
  util.global private @_params.unet.add_embedding.linear_1.weight {noinline} = #stream.parameter.named<"model"::"unet.add_embedding.linear_1.weight"> : tensor<1280x2816xf16>
  util.global private @_params.unet.add_embedding.linear_1.bias {noinline} = #stream.parameter.named<"model"::"unet.add_embedding.linear_1.bias"> : tensor<1280xf16>
  util.global private @_params.unet.add_embedding.linear_2.weight {noinline} = #stream.parameter.named<"model"::"unet.add_embedding.linear_2.weight"> : tensor<1280x1280xf16>
  util.global private @_params.unet.add_embedding.linear_2.bias {noinline} = #stream.parameter.named<"model"::"unet.add_embedding.linear_2.bias"> : tensor<1280xf16>
  util.global private @_params.unet.down_blocks.0.resnets.0.norm1.weight {noinline} = #stream.parameter.named<"model"::"unet.down_blocks.0.resnets.0.norm1.weight"> : tensor<320xf16>
  util.global private @_params.unet.down_blocks.0.resnets.0.norm1.bias {noinline} = #stream.parameter.named<"model"::"unet.down_blocks.0.resnets.0.norm1.bias"> : tensor<320xf16>
  util.global private @_params.unet.down_blocks.0.resnets.0.conv1.weight {noinline} = #stream.parameter.named<"model"::"unet.down_blocks.0.resnets.0.conv1.weight"> : tensor<320x320x3x3xf16>
  util.global private @_params.unet.down_blocks.0.resnets.0.conv1.bias {noinline} = #stream.parameter.named<"model"::"unet.down_blocks.0.resnets.0.conv1.bias"> : tensor<320xf16>
  util.global private @_params.unet.down_blocks.0.resnets.0.time_emb_proj.weight {noinline} = #stream.parameter.named<"model"::"unet.down_blocks.0.resnets.0.time_emb_proj.weight"> : tensor<320x1280xf16>
  util.global private @_params.unet.down_blocks.0.resnets.0.time_emb_proj.bias {noinline} = #stream.parameter.named<"model"::"unet.down_blocks.0.resnets.0.time_emb_proj.bias"> : tensor<320xf16>
  util.global private @_params.unet.down_blocks.0.resnets.0.norm2.weight {noinline} = #stream.parameter.named<"model"::"unet.down_blocks.0.resnets.0.norm2.weight"> : tensor<320xf16>
  util.global private @_params.unet.down_blocks.0.resnets.0.norm2.bias {noinline} = #stream.parameter.named<"model"::"unet.down_blocks.0.resnets.0.norm2.bias"> : tensor<320xf16>
  util.global private @_params.unet.down_blocks.0.resnets.0.conv2.weight {noinline} = #stream.parameter.named<"model"::"unet.down_blocks.0.resnets.0.conv2.weight"> : tensor<320x320x3x3xf16>
  util.global private @_params.unet.down_blocks.0.resnets.0.conv2.bias {noinline} = #stream.parameter.named<"model"::"unet.down_blocks.0.resnets.0.conv2.bias"> : tensor<320xf16>
  util.global private @_params.unet.down_blocks.0.resnets.1.norm1.weight {noinline} = #stream.parameter.named<"model"::"unet.down_blocks.0.resnets.1.norm1.weight"> : tensor<320xf16>
  util.global private @_params.unet.down_blocks.0.resnets.1.norm1.bias {noinline} = #stream.parameter.named<"model"::"unet.down_blocks.0.resnets.1.norm1.bias"> : tensor<320xf16>
  util.global private @_params.unet.down_blocks.0.resnets.1.conv1.weight {noinline} = #stream.parameter.named<"model"::"unet.down_blocks.0.resnets.1.conv1.weight"> : tensor<320x320x3x3xf16>
  util.global private @_params.unet.down_blocks.0.resnets.1.conv1.bias {noinline} = #stream.parameter.named<"model"::"unet.down_blocks.0.resnets.1.conv1.bias"> : tensor<320xf16>
  util.global private @_params.unet.down_blocks.0.resnets.1.time_emb_proj.weight {noinline} = #stream.parameter.named<"model"::"unet.down_blocks.0.resnets.1.time_emb_proj.weight"> : tensor<320x1280xf16>
  util.global private @_params.unet.down_blocks.0.resnets.1.time_emb_proj.bias {noinline} = #stream.parameter.named<"model"::"unet.down_blocks.0.resnets.1.time_emb_proj.bias"> : tensor<320xf16>
  util.global private @_params.unet.down_blocks.0.resnets.1.norm2.weight {noinline} = #stream.parameter.named<"model"::"unet.down_blocks.0.resnets.1.norm2.weight"> : tensor<320xf16>
  util.global private @_params.unet.down_blocks.0.resnets.1.norm2.bias {noinline} = #stream.parameter.named<"model"::"unet.down_blocks.0.resnets.1.norm2.bias"> : tensor<320xf16>
  util.global private @_params.unet.down_blocks.0.resnets.1.conv2.weight {noinline} = #stream.parameter.named<"model"::"unet.down_blocks.0.resnets.1.conv2.weight"> : tensor<320x320x3x3xf16>
  util.global private @_params.unet.down_blocks.0.resnets.1.conv2.bias {noinline} = #stream.parameter.named<"model"::"unet.down_blocks.0.resnets.1.conv2.bias"> : tensor<320xf16>
  util.global private @_params.unet.down_blocks.0.downsamplers.0.conv.weight {noinline} = #stream.parameter.named<"model"::"unet.down_blocks.0.downsamplers.0.conv.weight"> : tensor<320x320x3x3xf16>
  util.global private @_params.unet.down_blocks.0.downsamplers.0.conv.bias {noinline} = #stream.parameter.named<"model"::"unet.down_blocks.0.downsamplers.0.conv.bias"> : tensor<320xf16>
  util.global private @_params.unet.down_blocks.1.attentions.0.norm.weight {noinline} = #stream.parameter.named<"model"::"unet.down_blocks.1.attentions.0.norm.weight"> : tensor<640xf16>
  util.global private @_params.unet.down_blocks.1.attentions.0.norm.bias {noinline} = #stream.parameter.named<"model"::"unet.down_blocks.1.attentions.0.norm.bias"> : tensor<640xf16>
  util.global private @_params.unet.down_blocks.1.attentions.0.proj_in.weight {noinline} = #stream.parameter.named<"model"::"unet.down_blocks.1.attentions.0.proj_in.weight"> : tensor<640x640xf16>
  util.global private @_params.unet.down_blocks.1.attentions.0.proj_in.bias {noinline} = #stream.parameter.named<"model"::"unet.down_blocks.1.attentions.0.proj_in.bias"> : tensor<640xf16>
  util.global private @_params.unet.down_blocks.1.attentions.0.transformer_blocks.0.norm1.weight {noinline} = #stream.parameter.named<"model"::"unet.down_blocks.1.attentions.0.transformer_blocks.0.norm1.weight"> : tensor<640xf16>
  util.global private @_params.unet.down_blocks.1.attentions.0.transformer_blocks.0.norm1.bias {noinline} = #stream.parameter.named<"model"::"unet.down_blocks.1.attentions.0.transformer_blocks.0.norm1.bias"> : tensor<640xf16>
  util.global private @_params.unet.down_blocks.1.attentions.0.transformer_blocks.0.attn1.to_q.weight {noinline} = #stream.parameter.named<"model"::"unet.down_blocks.1.attentions.0.transformer_blocks.0.attn1.to_q.weight"> : tensor<640x640xf16>
  util.global private @_params.unet.down_blocks.1.attentions.0.transformer_blocks.0.attn1.to_k.weight {noinline} = #stream.parameter.named<"model"::"unet.down_blocks.1.attentions.0.transformer_blocks.0.attn1.to_k.weight"> : tensor<640x640xf16>
  util.global private @_params.unet.down_blocks.1.attentions.0.transformer_blocks.0.attn1.to_v.weight {noinline} = #stream.parameter.named<"model"::"unet.down_blocks.1.attentions.0.transformer_blocks.0.attn1.to_v.weight"> : tensor<640x640xf16>
  util.global private @_params.unet.down_blocks.1.attentions.0.transformer_blocks.0.attn1.to_out.0.weight {noinline} = #stream.parameter.named<"model"::"unet.down_blocks.1.attentions.0.transformer_blocks.0.attn1.to_out.0.weight"> : tensor<640x640xf16>
  util.global private @_params.unet.down_blocks.1.attentions.0.transformer_blocks.0.attn1.to_out.0.bias {noinline} = #stream.parameter.named<"model"::"unet.down_blocks.1.attentions.0.transformer_blocks.0.attn1.to_out.0.bias"> : tensor<640xf16>
  util.global private @_params.unet.down_blocks.1.attentions.0.transformer_blocks.0.norm2.weight {noinline} = #stream.parameter.named<"model"::"unet.down_blocks.1.attentions.0.transformer_blocks.0.norm2.weight"> : tensor<640xf16>
  util.global private @_params.unet.down_blocks.1.attentions.0.transformer_blocks.0.norm2.bias {noinline} = #stream.parameter.named<"model"::"unet.down_blocks.1.attentions.0.transformer_blocks.0.norm2.bias"> : tensor<640xf16>
  util.global private @_params.unet.down_blocks.1.attentions.0.transformer_blocks.0.attn2.to_q.weight {noinline} = #stream.parameter.named<"model"::"unet.down_blocks.1.attentions.0.transformer_blocks.0.attn2.to_q.weight"> : tensor<640x640xf16>
  util.global private @_params.unet.down_blocks.1.attentions.0.transformer_blocks.0.attn2.to_k.weight {noinline} = #stream.parameter.named<"model"::"unet.down_blocks.1.attentions.0.transformer_blocks.0.attn2.to_k.weight"> : tensor<640x2048xf16>
  util.global private @_params.unet.down_blocks.1.attentions.0.transformer_blocks.0.attn2.to_v.weight {noinline} = #stream.parameter.named<"model"::"unet.down_blocks.1.attentions.0.transformer_blocks.0.attn2.to_v.weight"> : tensor<640x2048xf16>
  util.global private @_params.unet.down_blocks.1.attentions.0.transformer_blocks.0.attn2.to_out.0.weight {noinline} = #stream.parameter.named<"model"::"unet.down_blocks.1.attentions.0.transformer_blocks.0.attn2.to_out.0.weight"> : tensor<640x640xf16>
  util.global private @_params.unet.down_blocks.1.attentions.0.transformer_blocks.0.attn2.to_out.0.bias {noinline} = #stream.parameter.named<"model"::"unet.down_blocks.1.attentions.0.transformer_blocks.0.attn2.to_out.0.bias"> : tensor<640xf16>
  util.global private @_params.unet.down_blocks.1.attentions.0.transformer_blocks.0.norm3.weight {noinline} = #stream.parameter.named<"model"::"unet.down_blocks.1.attentions.0.transformer_blocks.0.norm3.weight"> : tensor<640xf16>
  util.global private @_params.unet.down_blocks.1.attentions.0.transformer_blocks.0.norm3.bias {noinline} = #stream.parameter.named<"model"::"unet.down_blocks.1.attentions.0.transformer_blocks.0.norm3.bias"> : tensor<640xf16>
  util.global private @_params.unet.down_blocks.1.attentions.0.transformer_blocks.0.ff.net.0.proj.weight {noinline} = #stream.parameter.named<"model"::"unet.down_blocks.1.attentions.0.transformer_blocks.0.ff.net.0.proj.weight"> : tensor<5120x640xf16>
  util.global private @_params.unet.down_blocks.1.attentions.0.transformer_blocks.0.ff.net.0.proj.bias {noinline} = #stream.parameter.named<"model"::"unet.down_blocks.1.attentions.0.transformer_blocks.0.ff.net.0.proj.bias"> : tensor<5120xf16>
  util.global private @_params.unet.down_blocks.1.attentions.0.transformer_blocks.0.ff.net.2.weight {noinline} = #stream.parameter.named<"model"::"unet.down_blocks.1.attentions.0.transformer_blocks.0.ff.net.2.weight"> : tensor<640x2560xf16>
  util.global private @_params.unet.down_blocks.1.attentions.0.transformer_blocks.0.ff.net.2.bias {noinline} = #stream.parameter.named<"model"::"unet.down_blocks.1.attentions.0.transformer_blocks.0.ff.net.2.bias"> : tensor<640xf16>
  util.global private @_params.unet.down_blocks.1.attentions.0.transformer_blocks.1.norm1.weight {noinline} = #stream.parameter.named<"model"::"unet.down_blocks.1.attentions.0.transformer_blocks.1.norm1.weight"> : tensor<640xf16>
  util.global private @_params.unet.down_blocks.1.attentions.0.transformer_blocks.1.norm1.bias {noinline} = #stream.parameter.named<"model"::"unet.down_blocks.1.attentions.0.transformer_blocks.1.norm1.bias"> : tensor<640xf16>
  util.global private @_params.unet.down_blocks.1.attentions.0.transformer_blocks.1.attn1.to_q.weight {noinline} = #stream.parameter.named<"model"::"unet.down_blocks.1.attentions.0.transformer_blocks.1.attn1.to_q.weight"> : tensor<640x640xf16>
  util.global private @_params.unet.down_blocks.1.attentions.0.transformer_blocks.1.attn1.to_k.weight {noinline} = #stream.parameter.named<"model"::"unet.down_blocks.1.attentions.0.transformer_blocks.1.attn1.to_k.weight"> : tensor<640x640xf16>
  util.global private @_params.unet.down_blocks.1.attentions.0.transformer_blocks.1.attn1.to_v.weight {noinline} = #stream.parameter.named<"model"::"unet.down_blocks.1.attentions.0.transformer_blocks.1.attn1.to_v.weight"> : tensor<640x640xf16>
  util.global private @_params.unet.down_blocks.1.attentions.0.transformer_blocks.1.attn1.to_out.0.weight {noinline} = #stream.parameter.named<"model"::"unet.down_blocks.1.attentions.0.transformer_blocks.1.attn1.to_out.0.weight"> : tensor<640x640xf16>
  util.global private @_params.unet.down_blocks.1.attentions.0.transformer_blocks.1.attn1.to_out.0.bias {noinline} = #stream.parameter.named<"model"::"unet.down_blocks.1.attentions.0.transformer_blocks.1.attn1.to_out.0.bias"> : tensor<640xf16>
  util.global private @_params.unet.down_blocks.1.attentions.0.transformer_blocks.1.norm2.weight {noinline} = #stream.parameter.named<"model"::"unet.down_blocks.1.attentions.0.transformer_blocks.1.norm2.weight"> : tensor<640xf16>
  util.global private @_params.unet.down_blocks.1.attentions.0.transformer_blocks.1.norm2.bias {noinline} = #stream.parameter.named<"model"::"unet.down_blocks.1.attentions.0.transformer_blocks.1.norm2.bias"> : tensor<640xf16>
  util.global private @_params.unet.down_blocks.1.attentions.0.transformer_blocks.1.attn2.to_q.weight {noinline} = #stream.parameter.named<"model"::"unet.down_blocks.1.attentions.0.transformer_blocks.1.attn2.to_q.weight"> : tensor<640x640xf16>
  util.global private @_params.unet.down_blocks.1.attentions.0.transformer_blocks.1.attn2.to_k.weight {noinline} = #stream.parameter.named<"model"::"unet.down_blocks.1.attentions.0.transformer_blocks.1.attn2.to_k.weight"> : tensor<640x2048xf16>
  util.global private @_params.unet.down_blocks.1.attentions.0.transformer_blocks.1.attn2.to_v.weight {noinline} = #stream.parameter.named<"model"::"unet.down_blocks.1.attentions.0.transformer_blocks.1.attn2.to_v.weight"> : tensor<640x2048xf16>
  util.global private @_params.unet.down_blocks.1.attentions.0.transformer_blocks.1.attn2.to_out.0.weight {noinline} = #stream.parameter.named<"model"::"unet.down_blocks.1.attentions.0.transformer_blocks.1.attn2.to_out.0.weight"> : tensor<640x640xf16>
  util.global private @_params.unet.down_blocks.1.attentions.0.transformer_blocks.1.attn2.to_out.0.bias {noinline} = #stream.parameter.named<"model"::"unet.down_blocks.1.attentions.0.transformer_blocks.1.attn2.to_out.0.bias"> : tensor<640xf16>
  util.global private @_params.unet.down_blocks.1.attentions.0.transformer_blocks.1.norm3.weight {noinline} = #stream.parameter.named<"model"::"unet.down_blocks.1.attentions.0.transformer_blocks.1.norm3.weight"> : tensor<640xf16>
  util.global private @_params.unet.down_blocks.1.attentions.0.transformer_blocks.1.norm3.bias {noinline} = #stream.parameter.named<"model"::"unet.down_blocks.1.attentions.0.transformer_blocks.1.norm3.bias"> : tensor<640xf16>
  util.global private @_params.unet.down_blocks.1.attentions.0.transformer_blocks.1.ff.net.0.proj.weight {noinline} = #stream.parameter.named<"model"::"unet.down_blocks.1.attentions.0.transformer_blocks.1.ff.net.0.proj.weight"> : tensor<5120x640xf16>
  util.global private @_params.unet.down_blocks.1.attentions.0.transformer_blocks.1.ff.net.0.proj.bias {noinline} = #stream.parameter.named<"model"::"unet.down_blocks.1.attentions.0.transformer_blocks.1.ff.net.0.proj.bias"> : tensor<5120xf16>
  util.global private @_params.unet.down_blocks.1.attentions.0.transformer_blocks.1.ff.net.2.weight {noinline} = #stream.parameter.named<"model"::"unet.down_blocks.1.attentions.0.transformer_blocks.1.ff.net.2.weight"> : tensor<640x2560xf16>
  util.global private @_params.unet.down_blocks.1.attentions.0.transformer_blocks.1.ff.net.2.bias {noinline} = #stream.parameter.named<"model"::"unet.down_blocks.1.attentions.0.transformer_blocks.1.ff.net.2.bias"> : tensor<640xf16>
  util.global private @_params.unet.down_blocks.1.attentions.0.proj_out.weight {noinline} = #stream.parameter.named<"model"::"unet.down_blocks.1.attentions.0.proj_out.weight"> : tensor<640x640xf16>
  util.global private @_params.unet.down_blocks.1.attentions.0.proj_out.bias {noinline} = #stream.parameter.named<"model"::"unet.down_blocks.1.attentions.0.proj_out.bias"> : tensor<640xf16>
  util.global private @_params.unet.down_blocks.1.attentions.1.norm.weight {noinline} = #stream.parameter.named<"model"::"unet.down_blocks.1.attentions.1.norm.weight"> : tensor<640xf16>
  util.global private @_params.unet.down_blocks.1.attentions.1.norm.bias {noinline} = #stream.parameter.named<"model"::"unet.down_blocks.1.attentions.1.norm.bias"> : tensor<640xf16>
  util.global private @_params.unet.down_blocks.1.attentions.1.proj_in.weight {noinline} = #stream.parameter.named<"model"::"unet.down_blocks.1.attentions.1.proj_in.weight"> : tensor<640x640xf16>
  util.global private @_params.unet.down_blocks.1.attentions.1.proj_in.bias {noinline} = #stream.parameter.named<"model"::"unet.down_blocks.1.attentions.1.proj_in.bias"> : tensor<640xf16>
  util.global private @_params.unet.down_blocks.1.attentions.1.transformer_blocks.0.norm1.weight {noinline} = #stream.parameter.named<"model"::"unet.down_blocks.1.attentions.1.transformer_blocks.0.norm1.weight"> : tensor<640xf16>
  util.global private @_params.unet.down_blocks.1.attentions.1.transformer_blocks.0.norm1.bias {noinline} = #stream.parameter.named<"model"::"unet.down_blocks.1.attentions.1.transformer_blocks.0.norm1.bias"> : tensor<640xf16>
  util.global private @_params.unet.down_blocks.1.attentions.1.transformer_blocks.0.attn1.to_q.weight {noinline} = #stream.parameter.named<"model"::"unet.down_blocks.1.attentions.1.transformer_blocks.0.attn1.to_q.weight"> : tensor<640x640xf16>
  util.global private @_params.unet.down_blocks.1.attentions.1.transformer_blocks.0.attn1.to_k.weight {noinline} = #stream.parameter.named<"model"::"unet.down_blocks.1.attentions.1.transformer_blocks.0.attn1.to_k.weight"> : tensor<640x640xf16>
  util.global private @_params.unet.down_blocks.1.attentions.1.transformer_blocks.0.attn1.to_v.weight {noinline} = #stream.parameter.named<"model"::"unet.down_blocks.1.attentions.1.transformer_blocks.0.attn1.to_v.weight"> : tensor<640x640xf16>
  util.global private @_params.unet.down_blocks.1.attentions.1.transformer_blocks.0.attn1.to_out.0.weight {noinline} = #stream.parameter.named<"model"::"unet.down_blocks.1.attentions.1.transformer_blocks.0.attn1.to_out.0.weight"> : tensor<640x640xf16>
  util.global private @_params.unet.down_blocks.1.attentions.1.transformer_blocks.0.attn1.to_out.0.bias {noinline} = #stream.parameter.named<"model"::"unet.down_blocks.1.attentions.1.transformer_blocks.0.attn1.to_out.0.bias"> : tensor<640xf16>
  util.global private @_params.unet.down_blocks.1.attentions.1.transformer_blocks.0.norm2.weight {noinline} = #stream.parameter.named<"model"::"unet.down_blocks.1.attentions.1.transformer_blocks.0.norm2.weight"> : tensor<640xf16>
  util.global private @_params.unet.down_blocks.1.attentions.1.transformer_blocks.0.norm2.bias {noinline} = #stream.parameter.named<"model"::"unet.down_blocks.1.attentions.1.transformer_blocks.0.norm2.bias"> : tensor<640xf16>
  util.global private @_params.unet.down_blocks.1.attentions.1.transformer_blocks.0.attn2.to_q.weight {noinline} = #stream.parameter.named<"model"::"unet.down_blocks.1.attentions.1.transformer_blocks.0.attn2.to_q.weight"> : tensor<640x640xf16>
  util.global private @_params.unet.down_blocks.1.attentions.1.transformer_blocks.0.attn2.to_k.weight {noinline} = #stream.parameter.named<"model"::"unet.down_blocks.1.attentions.1.transformer_blocks.0.attn2.to_k.weight"> : tensor<640x2048xf16>
  util.global private @_params.unet.down_blocks.1.attentions.1.transformer_blocks.0.attn2.to_v.weight {noinline} = #stream.parameter.named<"model"::"unet.down_blocks.1.attentions.1.transformer_blocks.0.attn2.to_v.weight"> : tensor<640x2048xf16>
  util.global private @_params.unet.down_blocks.1.attentions.1.transformer_blocks.0.attn2.to_out.0.weight {noinline} = #stream.parameter.named<"model"::"unet.down_blocks.1.attentions.1.transformer_blocks.0.attn2.to_out.0.weight"> : tensor<640x640xf16>
  util.global private @_params.unet.down_blocks.1.attentions.1.transformer_blocks.0.attn2.to_out.0.bias {noinline} = #stream.parameter.named<"model"::"unet.down_blocks.1.attentions.1.transformer_blocks.0.attn2.to_out.0.bias"> : tensor<640xf16>
  util.global private @_params.unet.down_blocks.1.attentions.1.transformer_blocks.0.norm3.weight {noinline} = #stream.parameter.named<"model"::"unet.down_blocks.1.attentions.1.transformer_blocks.0.norm3.weight"> : tensor<640xf16>
  util.global private @_params.unet.down_blocks.1.attentions.1.transformer_blocks.0.norm3.bias {noinline} = #stream.parameter.named<"model"::"unet.down_blocks.1.attentions.1.transformer_blocks.0.norm3.bias"> : tensor<640xf16>
  util.global private @_params.unet.down_blocks.1.attentions.1.transformer_blocks.0.ff.net.0.proj.weight {noinline} = #stream.parameter.named<"model"::"unet.down_blocks.1.attentions.1.transformer_blocks.0.ff.net.0.proj.weight"> : tensor<5120x640xf16>
  util.global private @_params.unet.down_blocks.1.attentions.1.transformer_blocks.0.ff.net.0.proj.bias {noinline} = #stream.parameter.named<"model"::"unet.down_blocks.1.attentions.1.transformer_blocks.0.ff.net.0.proj.bias"> : tensor<5120xf16>
  util.global private @_params.unet.down_blocks.1.attentions.1.transformer_blocks.0.ff.net.2.weight {noinline} = #stream.parameter.named<"model"::"unet.down_blocks.1.attentions.1.transformer_blocks.0.ff.net.2.weight"> : tensor<640x2560xf16>
  util.global private @_params.unet.down_blocks.1.attentions.1.transformer_blocks.0.ff.net.2.bias {noinline} = #stream.parameter.named<"model"::"unet.down_blocks.1.attentions.1.transformer_blocks.0.ff.net.2.bias"> : tensor<640xf16>
  util.global private @_params.unet.down_blocks.1.attentions.1.transformer_blocks.1.norm1.weight {noinline} = #stream.parameter.named<"model"::"unet.down_blocks.1.attentions.1.transformer_blocks.1.norm1.weight"> : tensor<640xf16>
  util.global private @_params.unet.down_blocks.1.attentions.1.transformer_blocks.1.norm1.bias {noinline} = #stream.parameter.named<"model"::"unet.down_blocks.1.attentions.1.transformer_blocks.1.norm1.bias"> : tensor<640xf16>
  util.global private @_params.unet.down_blocks.1.attentions.1.transformer_blocks.1.attn1.to_q.weight {noinline} = #stream.parameter.named<"model"::"unet.down_blocks.1.attentions.1.transformer_blocks.1.attn1.to_q.weight"> : tensor<640x640xf16>
  util.global private @_params.unet.down_blocks.1.attentions.1.transformer_blocks.1.attn1.to_k.weight {noinline} = #stream.parameter.named<"model"::"unet.down_blocks.1.attentions.1.transformer_blocks.1.attn1.to_k.weight"> : tensor<640x640xf16>
  util.global private @_params.unet.down_blocks.1.attentions.1.transformer_blocks.1.attn1.to_v.weight {noinline} = #stream.parameter.named<"model"::"unet.down_blocks.1.attentions.1.transformer_blocks.1.attn1.to_v.weight"> : tensor<640x640xf16>
  util.global private @_params.unet.down_blocks.1.attentions.1.transformer_blocks.1.attn1.to_out.0.weight {noinline} = #stream.parameter.named<"model"::"unet.down_blocks.1.attentions.1.transformer_blocks.1.attn1.to_out.0.weight"> : tensor<640x640xf16>
  util.global private @_params.unet.down_blocks.1.attentions.1.transformer_blocks.1.attn1.to_out.0.bias {noinline} = #stream.parameter.named<"model"::"unet.down_blocks.1.attentions.1.transformer_blocks.1.attn1.to_out.0.bias"> : tensor<640xf16>
  util.global private @_params.unet.down_blocks.1.attentions.1.transformer_blocks.1.norm2.weight {noinline} = #stream.parameter.named<"model"::"unet.down_blocks.1.attentions.1.transformer_blocks.1.norm2.weight"> : tensor<640xf16>
  util.global private @_params.unet.down_blocks.1.attentions.1.transformer_blocks.1.norm2.bias {noinline} = #stream.parameter.named<"model"::"unet.down_blocks.1.attentions.1.transformer_blocks.1.norm2.bias"> : tensor<640xf16>
  util.global private @_params.unet.down_blocks.1.attentions.1.transformer_blocks.1.attn2.to_q.weight {noinline} = #stream.parameter.named<"model"::"unet.down_blocks.1.attentions.1.transformer_blocks.1.attn2.to_q.weight"> : tensor<640x640xf16>
  util.global private @_params.unet.down_blocks.1.attentions.1.transformer_blocks.1.attn2.to_k.weight {noinline} = #stream.parameter.named<"model"::"unet.down_blocks.1.attentions.1.transformer_blocks.1.attn2.to_k.weight"> : tensor<640x2048xf16>
  util.global private @_params.unet.down_blocks.1.attentions.1.transformer_blocks.1.attn2.to_v.weight {noinline} = #stream.parameter.named<"model"::"unet.down_blocks.1.attentions.1.transformer_blocks.1.attn2.to_v.weight"> : tensor<640x2048xf16>
  util.global private @_params.unet.down_blocks.1.attentions.1.transformer_blocks.1.attn2.to_out.0.weight {noinline} = #stream.parameter.named<"model"::"unet.down_blocks.1.attentions.1.transformer_blocks.1.attn2.to_out.0.weight"> : tensor<640x640xf16>
  util.global private @_params.unet.down_blocks.1.attentions.1.transformer_blocks.1.attn2.to_out.0.bias {noinline} = #stream.parameter.named<"model"::"unet.down_blocks.1.attentions.1.transformer_blocks.1.attn2.to_out.0.bias"> : tensor<640xf16>
  util.global private @_params.unet.down_blocks.1.attentions.1.transformer_blocks.1.norm3.weight {noinline} = #stream.parameter.named<"model"::"unet.down_blocks.1.attentions.1.transformer_blocks.1.norm3.weight"> : tensor<640xf16>
  util.global private @_params.unet.down_blocks.1.attentions.1.transformer_blocks.1.norm3.bias {noinline} = #stream.parameter.named<"model"::"unet.down_blocks.1.attentions.1.transformer_blocks.1.norm3.bias"> : tensor<640xf16>
  util.global private @_params.unet.down_blocks.1.attentions.1.transformer_blocks.1.ff.net.0.proj.weight {noinline} = #stream.parameter.named<"model"::"unet.down_blocks.1.attentions.1.transformer_blocks.1.ff.net.0.proj.weight"> : tensor<5120x640xf16>
  util.global private @_params.unet.down_blocks.1.attentions.1.transformer_blocks.1.ff.net.0.proj.bias {noinline} = #stream.parameter.named<"model"::"unet.down_blocks.1.attentions.1.transformer_blocks.1.ff.net.0.proj.bias"> : tensor<5120xf16>
  util.global private @_params.unet.down_blocks.1.attentions.1.transformer_blocks.1.ff.net.2.weight {noinline} = #stream.parameter.named<"model"::"unet.down_blocks.1.attentions.1.transformer_blocks.1.ff.net.2.weight"> : tensor<640x2560xf16>
  util.global private @_params.unet.down_blocks.1.attentions.1.transformer_blocks.1.ff.net.2.bias {noinline} = #stream.parameter.named<"model"::"unet.down_blocks.1.attentions.1.transformer_blocks.1.ff.net.2.bias"> : tensor<640xf16>
  util.global private @_params.unet.down_blocks.1.attentions.1.proj_out.weight {noinline} = #stream.parameter.named<"model"::"unet.down_blocks.1.attentions.1.proj_out.weight"> : tensor<640x640xf16>
  util.global private @_params.unet.down_blocks.1.attentions.1.proj_out.bias {noinline} = #stream.parameter.named<"model"::"unet.down_blocks.1.attentions.1.proj_out.bias"> : tensor<640xf16>
  util.global private @_params.unet.down_blocks.1.resnets.0.norm1.weight {noinline} = #stream.parameter.named<"model"::"unet.down_blocks.1.resnets.0.norm1.weight"> : tensor<320xf16>
  util.global private @_params.unet.down_blocks.1.resnets.0.norm1.bias {noinline} = #stream.parameter.named<"model"::"unet.down_blocks.1.resnets.0.norm1.bias"> : tensor<320xf16>
  util.global private @_params.unet.down_blocks.1.resnets.0.conv1.weight {noinline} = #stream.parameter.named<"model"::"unet.down_blocks.1.resnets.0.conv1.weight"> : tensor<640x320x3x3xf16>
  util.global private @_params.unet.down_blocks.1.resnets.0.conv1.bias {noinline} = #stream.parameter.named<"model"::"unet.down_blocks.1.resnets.0.conv1.bias"> : tensor<640xf16>
  util.global private @_params.unet.down_blocks.1.resnets.0.time_emb_proj.weight {noinline} = #stream.parameter.named<"model"::"unet.down_blocks.1.resnets.0.time_emb_proj.weight"> : tensor<640x1280xf16>
  util.global private @_params.unet.down_blocks.1.resnets.0.time_emb_proj.bias {noinline} = #stream.parameter.named<"model"::"unet.down_blocks.1.resnets.0.time_emb_proj.bias"> : tensor<640xf16>
  util.global private @_params.unet.down_blocks.1.resnets.0.norm2.weight {noinline} = #stream.parameter.named<"model"::"unet.down_blocks.1.resnets.0.norm2.weight"> : tensor<640xf16>
  util.global private @_params.unet.down_blocks.1.resnets.0.norm2.bias {noinline} = #stream.parameter.named<"model"::"unet.down_blocks.1.resnets.0.norm2.bias"> : tensor<640xf16>
  util.global private @_params.unet.down_blocks.1.resnets.0.conv2.weight {noinline} = #stream.parameter.named<"model"::"unet.down_blocks.1.resnets.0.conv2.weight"> : tensor<640x640x3x3xf16>
  util.global private @_params.unet.down_blocks.1.resnets.0.conv2.bias {noinline} = #stream.parameter.named<"model"::"unet.down_blocks.1.resnets.0.conv2.bias"> : tensor<640xf16>
  util.global private @_params.unet.down_blocks.1.resnets.0.conv_shortcut.weight {noinline} = #stream.parameter.named<"model"::"unet.down_blocks.1.resnets.0.conv_shortcut.weight"> : tensor<640x320x1x1xf16>
  util.global private @_params.unet.down_blocks.1.resnets.0.conv_shortcut.bias {noinline} = #stream.parameter.named<"model"::"unet.down_blocks.1.resnets.0.conv_shortcut.bias"> : tensor<640xf16>
  util.global private @_params.unet.down_blocks.1.resnets.1.norm1.weight {noinline} = #stream.parameter.named<"model"::"unet.down_blocks.1.resnets.1.norm1.weight"> : tensor<640xf16>
  util.global private @_params.unet.down_blocks.1.resnets.1.norm1.bias {noinline} = #stream.parameter.named<"model"::"unet.down_blocks.1.resnets.1.norm1.bias"> : tensor<640xf16>
  util.global private @_params.unet.down_blocks.1.resnets.1.conv1.weight {noinline} = #stream.parameter.named<"model"::"unet.down_blocks.1.resnets.1.conv1.weight"> : tensor<640x640x3x3xf16>
  util.global private @_params.unet.down_blocks.1.resnets.1.conv1.bias {noinline} = #stream.parameter.named<"model"::"unet.down_blocks.1.resnets.1.conv1.bias"> : tensor<640xf16>
  util.global private @_params.unet.down_blocks.1.resnets.1.time_emb_proj.weight {noinline} = #stream.parameter.named<"model"::"unet.down_blocks.1.resnets.1.time_emb_proj.weight"> : tensor<640x1280xf16>
  util.global private @_params.unet.down_blocks.1.resnets.1.time_emb_proj.bias {noinline} = #stream.parameter.named<"model"::"unet.down_blocks.1.resnets.1.time_emb_proj.bias"> : tensor<640xf16>
  util.global private @_params.unet.down_blocks.1.resnets.1.norm2.weight {noinline} = #stream.parameter.named<"model"::"unet.down_blocks.1.resnets.1.norm2.weight"> : tensor<640xf16>
  util.global private @_params.unet.down_blocks.1.resnets.1.norm2.bias {noinline} = #stream.parameter.named<"model"::"unet.down_blocks.1.resnets.1.norm2.bias"> : tensor<640xf16>
  util.global private @_params.unet.down_blocks.1.resnets.1.conv2.weight {noinline} = #stream.parameter.named<"model"::"unet.down_blocks.1.resnets.1.conv2.weight"> : tensor<640x640x3x3xf16>
  util.global private @_params.unet.down_blocks.1.resnets.1.conv2.bias {noinline} = #stream.parameter.named<"model"::"unet.down_blocks.1.resnets.1.conv2.bias"> : tensor<640xf16>
  util.global private @_params.unet.down_blocks.1.downsamplers.0.conv.weight {noinline} = #stream.parameter.named<"model"::"unet.down_blocks.1.downsamplers.0.conv.weight"> : tensor<640x640x3x3xf16>
  util.global private @_params.unet.down_blocks.1.downsamplers.0.conv.bias {noinline} = #stream.parameter.named<"model"::"unet.down_blocks.1.downsamplers.0.conv.bias"> : tensor<640xf16>
  util.global private @_params.unet.down_blocks.2.attentions.0.norm.weight {noinline} = #stream.parameter.named<"model"::"unet.down_blocks.2.attentions.0.norm.weight"> : tensor<1280xf16>
  util.global private @_params.unet.down_blocks.2.attentions.0.norm.bias {noinline} = #stream.parameter.named<"model"::"unet.down_blocks.2.attentions.0.norm.bias"> : tensor<1280xf16>
  util.global private @_params.unet.down_blocks.2.attentions.0.proj_in.weight {noinline} = #stream.parameter.named<"model"::"unet.down_blocks.2.attentions.0.proj_in.weight"> : tensor<1280x1280xf16>
  util.global private @_params.unet.down_blocks.2.attentions.0.proj_in.bias {noinline} = #stream.parameter.named<"model"::"unet.down_blocks.2.attentions.0.proj_in.bias"> : tensor<1280xf16>
  util.global private @_params.unet.down_blocks.2.attentions.0.transformer_blocks.0.norm1.weight {noinline} = #stream.parameter.named<"model"::"unet.down_blocks.2.attentions.0.transformer_blocks.0.norm1.weight"> : tensor<1280xf16>
  util.global private @_params.unet.down_blocks.2.attentions.0.transformer_blocks.0.norm1.bias {noinline} = #stream.parameter.named<"model"::"unet.down_blocks.2.attentions.0.transformer_blocks.0.norm1.bias"> : tensor<1280xf16>
  util.global private @_params.unet.down_blocks.2.attentions.0.transformer_blocks.0.attn1.to_q.weight {noinline} = #stream.parameter.named<"model"::"unet.down_blocks.2.attentions.0.transformer_blocks.0.attn1.to_q.weight"> : tensor<1280x1280xf16>
  util.global private @_params.unet.down_blocks.2.attentions.0.transformer_blocks.0.attn1.to_k.weight {noinline} = #stream.parameter.named<"model"::"unet.down_blocks.2.attentions.0.transformer_blocks.0.attn1.to_k.weight"> : tensor<1280x1280xf16>
  util.global private @_params.unet.down_blocks.2.attentions.0.transformer_blocks.0.attn1.to_v.weight {noinline} = #stream.parameter.named<"model"::"unet.down_blocks.2.attentions.0.transformer_blocks.0.attn1.to_v.weight"> : tensor<1280x1280xf16>
  util.global private @_params.unet.down_blocks.2.attentions.0.transformer_blocks.0.attn1.to_out.0.weight {noinline} = #stream.parameter.named<"model"::"unet.down_blocks.2.attentions.0.transformer_blocks.0.attn1.to_out.0.weight"> : tensor<1280x1280xf16>
  util.global private @_params.unet.down_blocks.2.attentions.0.transformer_blocks.0.attn1.to_out.0.bias {noinline} = #stream.parameter.named<"model"::"unet.down_blocks.2.attentions.0.transformer_blocks.0.attn1.to_out.0.bias"> : tensor<1280xf16>
  util.global private @_params.unet.down_blocks.2.attentions.0.transformer_blocks.0.norm2.weight {noinline} = #stream.parameter.named<"model"::"unet.down_blocks.2.attentions.0.transformer_blocks.0.norm2.weight"> : tensor<1280xf16>
  util.global private @_params.unet.down_blocks.2.attentions.0.transformer_blocks.0.norm2.bias {noinline} = #stream.parameter.named<"model"::"unet.down_blocks.2.attentions.0.transformer_blocks.0.norm2.bias"> : tensor<1280xf16>
  util.global private @_params.unet.down_blocks.2.attentions.0.transformer_blocks.0.attn2.to_q.weight {noinline} = #stream.parameter.named<"model"::"unet.down_blocks.2.attentions.0.transformer_blocks.0.attn2.to_q.weight"> : tensor<1280x1280xf16>
  util.global private @_params.unet.down_blocks.2.attentions.0.transformer_blocks.0.attn2.to_k.weight {noinline} = #stream.parameter.named<"model"::"unet.down_blocks.2.attentions.0.transformer_blocks.0.attn2.to_k.weight"> : tensor<1280x2048xf16>
  util.global private @_params.unet.down_blocks.2.attentions.0.transformer_blocks.0.attn2.to_v.weight {noinline} = #stream.parameter.named<"model"::"unet.down_blocks.2.attentions.0.transformer_blocks.0.attn2.to_v.weight"> : tensor<1280x2048xf16>
  util.global private @_params.unet.down_blocks.2.attentions.0.transformer_blocks.0.attn2.to_out.0.weight {noinline} = #stream.parameter.named<"model"::"unet.down_blocks.2.attentions.0.transformer_blocks.0.attn2.to_out.0.weight"> : tensor<1280x1280xf16>
  util.global private @_params.unet.down_blocks.2.attentions.0.transformer_blocks.0.attn2.to_out.0.bias {noinline} = #stream.parameter.named<"model"::"unet.down_blocks.2.attentions.0.transformer_blocks.0.attn2.to_out.0.bias"> : tensor<1280xf16>
  util.global private @_params.unet.down_blocks.2.attentions.0.transformer_blocks.0.norm3.weight {noinline} = #stream.parameter.named<"model"::"unet.down_blocks.2.attentions.0.transformer_blocks.0.norm3.weight"> : tensor<1280xf16>
  util.global private @_params.unet.down_blocks.2.attentions.0.transformer_blocks.0.norm3.bias {noinline} = #stream.parameter.named<"model"::"unet.down_blocks.2.attentions.0.transformer_blocks.0.norm3.bias"> : tensor<1280xf16>
  util.global private @_params.unet.down_blocks.2.attentions.0.transformer_blocks.0.ff.net.0.proj.weight {noinline} = #stream.parameter.named<"model"::"unet.down_blocks.2.attentions.0.transformer_blocks.0.ff.net.0.proj.weight"> : tensor<10240x1280xf16>
  util.global private @_params.unet.down_blocks.2.attentions.0.transformer_blocks.0.ff.net.0.proj.bias {noinline} = #stream.parameter.named<"model"::"unet.down_blocks.2.attentions.0.transformer_blocks.0.ff.net.0.proj.bias"> : tensor<10240xf16>
  util.global private @_params.unet.down_blocks.2.attentions.0.transformer_blocks.0.ff.net.2.weight {noinline} = #stream.parameter.named<"model"::"unet.down_blocks.2.attentions.0.transformer_blocks.0.ff.net.2.weight"> : tensor<1280x5120xf16>
  util.global private @_params.unet.down_blocks.2.attentions.0.transformer_blocks.0.ff.net.2.bias {noinline} = #stream.parameter.named<"model"::"unet.down_blocks.2.attentions.0.transformer_blocks.0.ff.net.2.bias"> : tensor<1280xf16>
  util.global private @_params.unet.down_blocks.2.attentions.0.transformer_blocks.1.norm1.weight {noinline} = #stream.parameter.named<"model"::"unet.down_blocks.2.attentions.0.transformer_blocks.1.norm1.weight"> : tensor<1280xf16>
  util.global private @_params.unet.down_blocks.2.attentions.0.transformer_blocks.1.norm1.bias {noinline} = #stream.parameter.named<"model"::"unet.down_blocks.2.attentions.0.transformer_blocks.1.norm1.bias"> : tensor<1280xf16>
  util.global private @_params.unet.down_blocks.2.attentions.0.transformer_blocks.1.attn1.to_q.weight {noinline} = #stream.parameter.named<"model"::"unet.down_blocks.2.attentions.0.transformer_blocks.1.attn1.to_q.weight"> : tensor<1280x1280xf16>
  util.global private @_params.unet.down_blocks.2.attentions.0.transformer_blocks.1.attn1.to_k.weight {noinline} = #stream.parameter.named<"model"::"unet.down_blocks.2.attentions.0.transformer_blocks.1.attn1.to_k.weight"> : tensor<1280x1280xf16>
  util.global private @_params.unet.down_blocks.2.attentions.0.transformer_blocks.1.attn1.to_v.weight {noinline} = #stream.parameter.named<"model"::"unet.down_blocks.2.attentions.0.transformer_blocks.1.attn1.to_v.weight"> : tensor<1280x1280xf16>
  util.global private @_params.unet.down_blocks.2.attentions.0.transformer_blocks.1.attn1.to_out.0.weight {noinline} = #stream.parameter.named<"model"::"unet.down_blocks.2.attentions.0.transformer_blocks.1.attn1.to_out.0.weight"> : tensor<1280x1280xf16>
  util.global private @_params.unet.down_blocks.2.attentions.0.transformer_blocks.1.attn1.to_out.0.bias {noinline} = #stream.parameter.named<"model"::"unet.down_blocks.2.attentions.0.transformer_blocks.1.attn1.to_out.0.bias"> : tensor<1280xf16>
  util.global private @_params.unet.down_blocks.2.attentions.0.transformer_blocks.1.norm2.weight {noinline} = #stream.parameter.named<"model"::"unet.down_blocks.2.attentions.0.transformer_blocks.1.norm2.weight"> : tensor<1280xf16>
  util.global private @_params.unet.down_blocks.2.attentions.0.transformer_blocks.1.norm2.bias {noinline} = #stream.parameter.named<"model"::"unet.down_blocks.2.attentions.0.transformer_blocks.1.norm2.bias"> : tensor<1280xf16>
  util.global private @_params.unet.down_blocks.2.attentions.0.transformer_blocks.1.attn2.to_q.weight {noinline} = #stream.parameter.named<"model"::"unet.down_blocks.2.attentions.0.transformer_blocks.1.attn2.to_q.weight"> : tensor<1280x1280xf16>
  util.global private @_params.unet.down_blocks.2.attentions.0.transformer_blocks.1.attn2.to_k.weight {noinline} = #stream.parameter.named<"model"::"unet.down_blocks.2.attentions.0.transformer_blocks.1.attn2.to_k.weight"> : tensor<1280x2048xf16>
  util.global private @_params.unet.down_blocks.2.attentions.0.transformer_blocks.1.attn2.to_v.weight {noinline} = #stream.parameter.named<"model"::"unet.down_blocks.2.attentions.0.transformer_blocks.1.attn2.to_v.weight"> : tensor<1280x2048xf16>
  util.global private @_params.unet.down_blocks.2.attentions.0.transformer_blocks.1.attn2.to_out.0.weight {noinline} = #stream.parameter.named<"model"::"unet.down_blocks.2.attentions.0.transformer_blocks.1.attn2.to_out.0.weight"> : tensor<1280x1280xf16>
  util.global private @_params.unet.down_blocks.2.attentions.0.transformer_blocks.1.attn2.to_out.0.bias {noinline} = #stream.parameter.named<"model"::"unet.down_blocks.2.attentions.0.transformer_blocks.1.attn2.to_out.0.bias"> : tensor<1280xf16>
  util.global private @_params.unet.down_blocks.2.attentions.0.transformer_blocks.1.norm3.weight {noinline} = #stream.parameter.named<"model"::"unet.down_blocks.2.attentions.0.transformer_blocks.1.norm3.weight"> : tensor<1280xf16>
  util.global private @_params.unet.down_blocks.2.attentions.0.transformer_blocks.1.norm3.bias {noinline} = #stream.parameter.named<"model"::"unet.down_blocks.2.attentions.0.transformer_blocks.1.norm3.bias"> : tensor<1280xf16>
  util.global private @_params.unet.down_blocks.2.attentions.0.transformer_blocks.1.ff.net.0.proj.weight {noinline} = #stream.parameter.named<"model"::"unet.down_blocks.2.attentions.0.transformer_blocks.1.ff.net.0.proj.weight"> : tensor<10240x1280xf16>
  util.global private @_params.unet.down_blocks.2.attentions.0.transformer_blocks.1.ff.net.0.proj.bias {noinline} = #stream.parameter.named<"model"::"unet.down_blocks.2.attentions.0.transformer_blocks.1.ff.net.0.proj.bias"> : tensor<10240xf16>
  util.global private @_params.unet.down_blocks.2.attentions.0.transformer_blocks.1.ff.net.2.weight {noinline} = #stream.parameter.named<"model"::"unet.down_blocks.2.attentions.0.transformer_blocks.1.ff.net.2.weight"> : tensor<1280x5120xf16>
  util.global private @_params.unet.down_blocks.2.attentions.0.transformer_blocks.1.ff.net.2.bias {noinline} = #stream.parameter.named<"model"::"unet.down_blocks.2.attentions.0.transformer_blocks.1.ff.net.2.bias"> : tensor<1280xf16>
  util.global private @_params.unet.down_blocks.2.attentions.0.transformer_blocks.2.norm1.weight {noinline} = #stream.parameter.named<"model"::"unet.down_blocks.2.attentions.0.transformer_blocks.2.norm1.weight"> : tensor<1280xf16>
  util.global private @_params.unet.down_blocks.2.attentions.0.transformer_blocks.2.norm1.bias {noinline} = #stream.parameter.named<"model"::"unet.down_blocks.2.attentions.0.transformer_blocks.2.norm1.bias"> : tensor<1280xf16>
  util.global private @_params.unet.down_blocks.2.attentions.0.transformer_blocks.2.attn1.to_q.weight {noinline} = #stream.parameter.named<"model"::"unet.down_blocks.2.attentions.0.transformer_blocks.2.attn1.to_q.weight"> : tensor<1280x1280xf16>
  util.global private @_params.unet.down_blocks.2.attentions.0.transformer_blocks.2.attn1.to_k.weight {noinline} = #stream.parameter.named<"model"::"unet.down_blocks.2.attentions.0.transformer_blocks.2.attn1.to_k.weight"> : tensor<1280x1280xf16>
  util.global private @_params.unet.down_blocks.2.attentions.0.transformer_blocks.2.attn1.to_v.weight {noinline} = #stream.parameter.named<"model"::"unet.down_blocks.2.attentions.0.transformer_blocks.2.attn1.to_v.weight"> : tensor<1280x1280xf16>
  util.global private @_params.unet.down_blocks.2.attentions.0.transformer_blocks.2.attn1.to_out.0.weight {noinline} = #stream.parameter.named<"model"::"unet.down_blocks.2.attentions.0.transformer_blocks.2.attn1.to_out.0.weight"> : tensor<1280x1280xf16>
  util.global private @_params.unet.down_blocks.2.attentions.0.transformer_blocks.2.attn1.to_out.0.bias {noinline} = #stream.parameter.named<"model"::"unet.down_blocks.2.attentions.0.transformer_blocks.2.attn1.to_out.0.bias"> : tensor<1280xf16>
  util.global private @_params.unet.down_blocks.2.attentions.0.transformer_blocks.2.norm2.weight {noinline} = #stream.parameter.named<"model"::"unet.down_blocks.2.attentions.0.transformer_blocks.2.norm2.weight"> : tensor<1280xf16>
  util.global private @_params.unet.down_blocks.2.attentions.0.transformer_blocks.2.norm2.bias {noinline} = #stream.parameter.named<"model"::"unet.down_blocks.2.attentions.0.transformer_blocks.2.norm2.bias"> : tensor<1280xf16>
  util.global private @_params.unet.down_blocks.2.attentions.0.transformer_blocks.2.attn2.to_q.weight {noinline} = #stream.parameter.named<"model"::"unet.down_blocks.2.attentions.0.transformer_blocks.2.attn2.to_q.weight"> : tensor<1280x1280xf16>
  util.global private @_params.unet.down_blocks.2.attentions.0.transformer_blocks.2.attn2.to_k.weight {noinline} = #stream.parameter.named<"model"::"unet.down_blocks.2.attentions.0.transformer_blocks.2.attn2.to_k.weight"> : tensor<1280x2048xf16>
  util.global private @_params.unet.down_blocks.2.attentions.0.transformer_blocks.2.attn2.to_v.weight {noinline} = #stream.parameter.named<"model"::"unet.down_blocks.2.attentions.0.transformer_blocks.2.attn2.to_v.weight"> : tensor<1280x2048xf16>
  util.global private @_params.unet.down_blocks.2.attentions.0.transformer_blocks.2.attn2.to_out.0.weight {noinline} = #stream.parameter.named<"model"::"unet.down_blocks.2.attentions.0.transformer_blocks.2.attn2.to_out.0.weight"> : tensor<1280x1280xf16>
  util.global private @_params.unet.down_blocks.2.attentions.0.transformer_blocks.2.attn2.to_out.0.bias {noinline} = #stream.parameter.named<"model"::"unet.down_blocks.2.attentions.0.transformer_blocks.2.attn2.to_out.0.bias"> : tensor<1280xf16>
  util.global private @_params.unet.down_blocks.2.attentions.0.transformer_blocks.2.norm3.weight {noinline} = #stream.parameter.named<"model"::"unet.down_blocks.2.attentions.0.transformer_blocks.2.norm3.weight"> : tensor<1280xf16>
  util.global private @_params.unet.down_blocks.2.attentions.0.transformer_blocks.2.norm3.bias {noinline} = #stream.parameter.named<"model"::"unet.down_blocks.2.attentions.0.transformer_blocks.2.norm3.bias"> : tensor<1280xf16>
  util.global private @_params.unet.down_blocks.2.attentions.0.transformer_blocks.2.ff.net.0.proj.weight {noinline} = #stream.parameter.named<"model"::"unet.down_blocks.2.attentions.0.transformer_blocks.2.ff.net.0.proj.weight"> : tensor<10240x1280xf16>
  util.global private @_params.unet.down_blocks.2.attentions.0.transformer_blocks.2.ff.net.0.proj.bias {noinline} = #stream.parameter.named<"model"::"unet.down_blocks.2.attentions.0.transformer_blocks.2.ff.net.0.proj.bias"> : tensor<10240xf16>
  util.global private @_params.unet.down_blocks.2.attentions.0.transformer_blocks.2.ff.net.2.weight {noinline} = #stream.parameter.named<"model"::"unet.down_blocks.2.attentions.0.transformer_blocks.2.ff.net.2.weight"> : tensor<1280x5120xf16>
  util.global private @_params.unet.down_blocks.2.attentions.0.transformer_blocks.2.ff.net.2.bias {noinline} = #stream.parameter.named<"model"::"unet.down_blocks.2.attentions.0.transformer_blocks.2.ff.net.2.bias"> : tensor<1280xf16>
  util.global private @_params.unet.down_blocks.2.attentions.0.transformer_blocks.3.norm1.weight {noinline} = #stream.parameter.named<"model"::"unet.down_blocks.2.attentions.0.transformer_blocks.3.norm1.weight"> : tensor<1280xf16>
  util.global private @_params.unet.down_blocks.2.attentions.0.transformer_blocks.3.norm1.bias {noinline} = #stream.parameter.named<"model"::"unet.down_blocks.2.attentions.0.transformer_blocks.3.norm1.bias"> : tensor<1280xf16>
  util.global private @_params.unet.down_blocks.2.attentions.0.transformer_blocks.3.attn1.to_q.weight {noinline} = #stream.parameter.named<"model"::"unet.down_blocks.2.attentions.0.transformer_blocks.3.attn1.to_q.weight"> : tensor<1280x1280xf16>
  util.global private @_params.unet.down_blocks.2.attentions.0.transformer_blocks.3.attn1.to_k.weight {noinline} = #stream.parameter.named<"model"::"unet.down_blocks.2.attentions.0.transformer_blocks.3.attn1.to_k.weight"> : tensor<1280x1280xf16>
  util.global private @_params.unet.down_blocks.2.attentions.0.transformer_blocks.3.attn1.to_v.weight {noinline} = #stream.parameter.named<"model"::"unet.down_blocks.2.attentions.0.transformer_blocks.3.attn1.to_v.weight"> : tensor<1280x1280xf16>
  util.global private @_params.unet.down_blocks.2.attentions.0.transformer_blocks.3.attn1.to_out.0.weight {noinline} = #stream.parameter.named<"model"::"unet.down_blocks.2.attentions.0.transformer_blocks.3.attn1.to_out.0.weight"> : tensor<1280x1280xf16>
  util.global private @_params.unet.down_blocks.2.attentions.0.transformer_blocks.3.attn1.to_out.0.bias {noinline} = #stream.parameter.named<"model"::"unet.down_blocks.2.attentions.0.transformer_blocks.3.attn1.to_out.0.bias"> : tensor<1280xf16>
  util.global private @_params.unet.down_blocks.2.attentions.0.transformer_blocks.3.norm2.weight {noinline} = #stream.parameter.named<"model"::"unet.down_blocks.2.attentions.0.transformer_blocks.3.norm2.weight"> : tensor<1280xf16>
  util.global private @_params.unet.down_blocks.2.attentions.0.transformer_blocks.3.norm2.bias {noinline} = #stream.parameter.named<"model"::"unet.down_blocks.2.attentions.0.transformer_blocks.3.norm2.bias"> : tensor<1280xf16>
  util.global private @_params.unet.down_blocks.2.attentions.0.transformer_blocks.3.attn2.to_q.weight {noinline} = #stream.parameter.named<"model"::"unet.down_blocks.2.attentions.0.transformer_blocks.3.attn2.to_q.weight"> : tensor<1280x1280xf16>
  util.global private @_params.unet.down_blocks.2.attentions.0.transformer_blocks.3.attn2.to_k.weight {noinline} = #stream.parameter.named<"model"::"unet.down_blocks.2.attentions.0.transformer_blocks.3.attn2.to_k.weight"> : tensor<1280x2048xf16>
  util.global private @_params.unet.down_blocks.2.attentions.0.transformer_blocks.3.attn2.to_v.weight {noinline} = #stream.parameter.named<"model"::"unet.down_blocks.2.attentions.0.transformer_blocks.3.attn2.to_v.weight"> : tensor<1280x2048xf16>
  util.global private @_params.unet.down_blocks.2.attentions.0.transformer_blocks.3.attn2.to_out.0.weight {noinline} = #stream.parameter.named<"model"::"unet.down_blocks.2.attentions.0.transformer_blocks.3.attn2.to_out.0.weight"> : tensor<1280x1280xf16>
  util.global private @_params.unet.down_blocks.2.attentions.0.transformer_blocks.3.attn2.to_out.0.bias {noinline} = #stream.parameter.named<"model"::"unet.down_blocks.2.attentions.0.transformer_blocks.3.attn2.to_out.0.bias"> : tensor<1280xf16>
  util.global private @_params.unet.down_blocks.2.attentions.0.transformer_blocks.3.norm3.weight {noinline} = #stream.parameter.named<"model"::"unet.down_blocks.2.attentions.0.transformer_blocks.3.norm3.weight"> : tensor<1280xf16>
  util.global private @_params.unet.down_blocks.2.attentions.0.transformer_blocks.3.norm3.bias {noinline} = #stream.parameter.named<"model"::"unet.down_blocks.2.attentions.0.transformer_blocks.3.norm3.bias"> : tensor<1280xf16>
  util.global private @_params.unet.down_blocks.2.attentions.0.transformer_blocks.3.ff.net.0.proj.weight {noinline} = #stream.parameter.named<"model"::"unet.down_blocks.2.attentions.0.transformer_blocks.3.ff.net.0.proj.weight"> : tensor<10240x1280xf16>
  util.global private @_params.unet.down_blocks.2.attentions.0.transformer_blocks.3.ff.net.0.proj.bias {noinline} = #stream.parameter.named<"model"::"unet.down_blocks.2.attentions.0.transformer_blocks.3.ff.net.0.proj.bias"> : tensor<10240xf16>
  util.global private @_params.unet.down_blocks.2.attentions.0.transformer_blocks.3.ff.net.2.weight {noinline} = #stream.parameter.named<"model"::"unet.down_blocks.2.attentions.0.transformer_blocks.3.ff.net.2.weight"> : tensor<1280x5120xf16>
  util.global private @_params.unet.down_blocks.2.attentions.0.transformer_blocks.3.ff.net.2.bias {noinline} = #stream.parameter.named<"model"::"unet.down_blocks.2.attentions.0.transformer_blocks.3.ff.net.2.bias"> : tensor<1280xf16>
  util.global private @_params.unet.down_blocks.2.attentions.0.transformer_blocks.4.norm1.weight {noinline} = #stream.parameter.named<"model"::"unet.down_blocks.2.attentions.0.transformer_blocks.4.norm1.weight"> : tensor<1280xf16>
  util.global private @_params.unet.down_blocks.2.attentions.0.transformer_blocks.4.norm1.bias {noinline} = #stream.parameter.named<"model"::"unet.down_blocks.2.attentions.0.transformer_blocks.4.norm1.bias"> : tensor<1280xf16>
  util.global private @_params.unet.down_blocks.2.attentions.0.transformer_blocks.4.attn1.to_q.weight {noinline} = #stream.parameter.named<"model"::"unet.down_blocks.2.attentions.0.transformer_blocks.4.attn1.to_q.weight"> : tensor<1280x1280xf16>
  util.global private @_params.unet.down_blocks.2.attentions.0.transformer_blocks.4.attn1.to_k.weight {noinline} = #stream.parameter.named<"model"::"unet.down_blocks.2.attentions.0.transformer_blocks.4.attn1.to_k.weight"> : tensor<1280x1280xf16>
  util.global private @_params.unet.down_blocks.2.attentions.0.transformer_blocks.4.attn1.to_v.weight {noinline} = #stream.parameter.named<"model"::"unet.down_blocks.2.attentions.0.transformer_blocks.4.attn1.to_v.weight"> : tensor<1280x1280xf16>
  util.global private @_params.unet.down_blocks.2.attentions.0.transformer_blocks.4.attn1.to_out.0.weight {noinline} = #stream.parameter.named<"model"::"unet.down_blocks.2.attentions.0.transformer_blocks.4.attn1.to_out.0.weight"> : tensor<1280x1280xf16>
  util.global private @_params.unet.down_blocks.2.attentions.0.transformer_blocks.4.attn1.to_out.0.bias {noinline} = #stream.parameter.named<"model"::"unet.down_blocks.2.attentions.0.transformer_blocks.4.attn1.to_out.0.bias"> : tensor<1280xf16>
  util.global private @_params.unet.down_blocks.2.attentions.0.transformer_blocks.4.norm2.weight {noinline} = #stream.parameter.named<"model"::"unet.down_blocks.2.attentions.0.transformer_blocks.4.norm2.weight"> : tensor<1280xf16>
  util.global private @_params.unet.down_blocks.2.attentions.0.transformer_blocks.4.norm2.bias {noinline} = #stream.parameter.named<"model"::"unet.down_blocks.2.attentions.0.transformer_blocks.4.norm2.bias"> : tensor<1280xf16>
  util.global private @_params.unet.down_blocks.2.attentions.0.transformer_blocks.4.attn2.to_q.weight {noinline} = #stream.parameter.named<"model"::"unet.down_blocks.2.attentions.0.transformer_blocks.4.attn2.to_q.weight"> : tensor<1280x1280xf16>
  util.global private @_params.unet.down_blocks.2.attentions.0.transformer_blocks.4.attn2.to_k.weight {noinline} = #stream.parameter.named<"model"::"unet.down_blocks.2.attentions.0.transformer_blocks.4.attn2.to_k.weight"> : tensor<1280x2048xf16>
  util.global private @_params.unet.down_blocks.2.attentions.0.transformer_blocks.4.attn2.to_v.weight {noinline} = #stream.parameter.named<"model"::"unet.down_blocks.2.attentions.0.transformer_blocks.4.attn2.to_v.weight"> : tensor<1280x2048xf16>
  util.global private @_params.unet.down_blocks.2.attentions.0.transformer_blocks.4.attn2.to_out.0.weight {noinline} = #stream.parameter.named<"model"::"unet.down_blocks.2.attentions.0.transformer_blocks.4.attn2.to_out.0.weight"> : tensor<1280x1280xf16>
  util.global private @_params.unet.down_blocks.2.attentions.0.transformer_blocks.4.attn2.to_out.0.bias {noinline} = #stream.parameter.named<"model"::"unet.down_blocks.2.attentions.0.transformer_blocks.4.attn2.to_out.0.bias"> : tensor<1280xf16>
  util.global private @_params.unet.down_blocks.2.attentions.0.transformer_blocks.4.norm3.weight {noinline} = #stream.parameter.named<"model"::"unet.down_blocks.2.attentions.0.transformer_blocks.4.norm3.weight"> : tensor<1280xf16>
  util.global private @_params.unet.down_blocks.2.attentions.0.transformer_blocks.4.norm3.bias {noinline} = #stream.parameter.named<"model"::"unet.down_blocks.2.attentions.0.transformer_blocks.4.norm3.bias"> : tensor<1280xf16>
  util.global private @_params.unet.down_blocks.2.attentions.0.transformer_blocks.4.ff.net.0.proj.weight {noinline} = #stream.parameter.named<"model"::"unet.down_blocks.2.attentions.0.transformer_blocks.4.ff.net.0.proj.weight"> : tensor<10240x1280xf16>
  util.global private @_params.unet.down_blocks.2.attentions.0.transformer_blocks.4.ff.net.0.proj.bias {noinline} = #stream.parameter.named<"model"::"unet.down_blocks.2.attentions.0.transformer_blocks.4.ff.net.0.proj.bias"> : tensor<10240xf16>
  util.global private @_params.unet.down_blocks.2.attentions.0.transformer_blocks.4.ff.net.2.weight {noinline} = #stream.parameter.named<"model"::"unet.down_blocks.2.attentions.0.transformer_blocks.4.ff.net.2.weight"> : tensor<1280x5120xf16>
  util.global private @_params.unet.down_blocks.2.attentions.0.transformer_blocks.4.ff.net.2.bias {noinline} = #stream.parameter.named<"model"::"unet.down_blocks.2.attentions.0.transformer_blocks.4.ff.net.2.bias"> : tensor<1280xf16>
  util.global private @_params.unet.down_blocks.2.attentions.0.transformer_blocks.5.norm1.weight {noinline} = #stream.parameter.named<"model"::"unet.down_blocks.2.attentions.0.transformer_blocks.5.norm1.weight"> : tensor<1280xf16>
  util.global private @_params.unet.down_blocks.2.attentions.0.transformer_blocks.5.norm1.bias {noinline} = #stream.parameter.named<"model"::"unet.down_blocks.2.attentions.0.transformer_blocks.5.norm1.bias"> : tensor<1280xf16>
  util.global private @_params.unet.down_blocks.2.attentions.0.transformer_blocks.5.attn1.to_q.weight {noinline} = #stream.parameter.named<"model"::"unet.down_blocks.2.attentions.0.transformer_blocks.5.attn1.to_q.weight"> : tensor<1280x1280xf16>
  util.global private @_params.unet.down_blocks.2.attentions.0.transformer_blocks.5.attn1.to_k.weight {noinline} = #stream.parameter.named<"model"::"unet.down_blocks.2.attentions.0.transformer_blocks.5.attn1.to_k.weight"> : tensor<1280x1280xf16>
  util.global private @_params.unet.down_blocks.2.attentions.0.transformer_blocks.5.attn1.to_v.weight {noinline} = #stream.parameter.named<"model"::"unet.down_blocks.2.attentions.0.transformer_blocks.5.attn1.to_v.weight"> : tensor<1280x1280xf16>
  util.global private @_params.unet.down_blocks.2.attentions.0.transformer_blocks.5.attn1.to_out.0.weight {noinline} = #stream.parameter.named<"model"::"unet.down_blocks.2.attentions.0.transformer_blocks.5.attn1.to_out.0.weight"> : tensor<1280x1280xf16>
  util.global private @_params.unet.down_blocks.2.attentions.0.transformer_blocks.5.attn1.to_out.0.bias {noinline} = #stream.parameter.named<"model"::"unet.down_blocks.2.attentions.0.transformer_blocks.5.attn1.to_out.0.bias"> : tensor<1280xf16>
  util.global private @_params.unet.down_blocks.2.attentions.0.transformer_blocks.5.norm2.weight {noinline} = #stream.parameter.named<"model"::"unet.down_blocks.2.attentions.0.transformer_blocks.5.norm2.weight"> : tensor<1280xf16>
  util.global private @_params.unet.down_blocks.2.attentions.0.transformer_blocks.5.norm2.bias {noinline} = #stream.parameter.named<"model"::"unet.down_blocks.2.attentions.0.transformer_blocks.5.norm2.bias"> : tensor<1280xf16>
  util.global private @_params.unet.down_blocks.2.attentions.0.transformer_blocks.5.attn2.to_q.weight {noinline} = #stream.parameter.named<"model"::"unet.down_blocks.2.attentions.0.transformer_blocks.5.attn2.to_q.weight"> : tensor<1280x1280xf16>
  util.global private @_params.unet.down_blocks.2.attentions.0.transformer_blocks.5.attn2.to_k.weight {noinline} = #stream.parameter.named<"model"::"unet.down_blocks.2.attentions.0.transformer_blocks.5.attn2.to_k.weight"> : tensor<1280x2048xf16>
  util.global private @_params.unet.down_blocks.2.attentions.0.transformer_blocks.5.attn2.to_v.weight {noinline} = #stream.parameter.named<"model"::"unet.down_blocks.2.attentions.0.transformer_blocks.5.attn2.to_v.weight"> : tensor<1280x2048xf16>
  util.global private @_params.unet.down_blocks.2.attentions.0.transformer_blocks.5.attn2.to_out.0.weight {noinline} = #stream.parameter.named<"model"::"unet.down_blocks.2.attentions.0.transformer_blocks.5.attn2.to_out.0.weight"> : tensor<1280x1280xf16>
  util.global private @_params.unet.down_blocks.2.attentions.0.transformer_blocks.5.attn2.to_out.0.bias {noinline} = #stream.parameter.named<"model"::"unet.down_blocks.2.attentions.0.transformer_blocks.5.attn2.to_out.0.bias"> : tensor<1280xf16>
  util.global private @_params.unet.down_blocks.2.attentions.0.transformer_blocks.5.norm3.weight {noinline} = #stream.parameter.named<"model"::"unet.down_blocks.2.attentions.0.transformer_blocks.5.norm3.weight"> : tensor<1280xf16>
  util.global private @_params.unet.down_blocks.2.attentions.0.transformer_blocks.5.norm3.bias {noinline} = #stream.parameter.named<"model"::"unet.down_blocks.2.attentions.0.transformer_blocks.5.norm3.bias"> : tensor<1280xf16>
  util.global private @_params.unet.down_blocks.2.attentions.0.transformer_blocks.5.ff.net.0.proj.weight {noinline} = #stream.parameter.named<"model"::"unet.down_blocks.2.attentions.0.transformer_blocks.5.ff.net.0.proj.weight"> : tensor<10240x1280xf16>
  util.global private @_params.unet.down_blocks.2.attentions.0.transformer_blocks.5.ff.net.0.proj.bias {noinline} = #stream.parameter.named<"model"::"unet.down_blocks.2.attentions.0.transformer_blocks.5.ff.net.0.proj.bias"> : tensor<10240xf16>
  util.global private @_params.unet.down_blocks.2.attentions.0.transformer_blocks.5.ff.net.2.weight {noinline} = #stream.parameter.named<"model"::"unet.down_blocks.2.attentions.0.transformer_blocks.5.ff.net.2.weight"> : tensor<1280x5120xf16>
  util.global private @_params.unet.down_blocks.2.attentions.0.transformer_blocks.5.ff.net.2.bias {noinline} = #stream.parameter.named<"model"::"unet.down_blocks.2.attentions.0.transformer_blocks.5.ff.net.2.bias"> : tensor<1280xf16>
  util.global private @_params.unet.down_blocks.2.attentions.0.transformer_blocks.6.norm1.weight {noinline} = #stream.parameter.named<"model"::"unet.down_blocks.2.attentions.0.transformer_blocks.6.norm1.weight"> : tensor<1280xf16>
  util.global private @_params.unet.down_blocks.2.attentions.0.transformer_blocks.6.norm1.bias {noinline} = #stream.parameter.named<"model"::"unet.down_blocks.2.attentions.0.transformer_blocks.6.norm1.bias"> : tensor<1280xf16>
  util.global private @_params.unet.down_blocks.2.attentions.0.transformer_blocks.6.attn1.to_q.weight {noinline} = #stream.parameter.named<"model"::"unet.down_blocks.2.attentions.0.transformer_blocks.6.attn1.to_q.weight"> : tensor<1280x1280xf16>
  util.global private @_params.unet.down_blocks.2.attentions.0.transformer_blocks.6.attn1.to_k.weight {noinline} = #stream.parameter.named<"model"::"unet.down_blocks.2.attentions.0.transformer_blocks.6.attn1.to_k.weight"> : tensor<1280x1280xf16>
  util.global private @_params.unet.down_blocks.2.attentions.0.transformer_blocks.6.attn1.to_v.weight {noinline} = #stream.parameter.named<"model"::"unet.down_blocks.2.attentions.0.transformer_blocks.6.attn1.to_v.weight"> : tensor<1280x1280xf16>
  util.global private @_params.unet.down_blocks.2.attentions.0.transformer_blocks.6.attn1.to_out.0.weight {noinline} = #stream.parameter.named<"model"::"unet.down_blocks.2.attentions.0.transformer_blocks.6.attn1.to_out.0.weight"> : tensor<1280x1280xf16>
  util.global private @_params.unet.down_blocks.2.attentions.0.transformer_blocks.6.attn1.to_out.0.bias {noinline} = #stream.parameter.named<"model"::"unet.down_blocks.2.attentions.0.transformer_blocks.6.attn1.to_out.0.bias"> : tensor<1280xf16>
  util.global private @_params.unet.down_blocks.2.attentions.0.transformer_blocks.6.norm2.weight {noinline} = #stream.parameter.named<"model"::"unet.down_blocks.2.attentions.0.transformer_blocks.6.norm2.weight"> : tensor<1280xf16>
  util.global private @_params.unet.down_blocks.2.attentions.0.transformer_blocks.6.norm2.bias {noinline} = #stream.parameter.named<"model"::"unet.down_blocks.2.attentions.0.transformer_blocks.6.norm2.bias"> : tensor<1280xf16>
  util.global private @_params.unet.down_blocks.2.attentions.0.transformer_blocks.6.attn2.to_q.weight {noinline} = #stream.parameter.named<"model"::"unet.down_blocks.2.attentions.0.transformer_blocks.6.attn2.to_q.weight"> : tensor<1280x1280xf16>
  util.global private @_params.unet.down_blocks.2.attentions.0.transformer_blocks.6.attn2.to_k.weight {noinline} = #stream.parameter.named<"model"::"unet.down_blocks.2.attentions.0.transformer_blocks.6.attn2.to_k.weight"> : tensor<1280x2048xf16>
  util.global private @_params.unet.down_blocks.2.attentions.0.transformer_blocks.6.attn2.to_v.weight {noinline} = #stream.parameter.named<"model"::"unet.down_blocks.2.attentions.0.transformer_blocks.6.attn2.to_v.weight"> : tensor<1280x2048xf16>
  util.global private @_params.unet.down_blocks.2.attentions.0.transformer_blocks.6.attn2.to_out.0.weight {noinline} = #stream.parameter.named<"model"::"unet.down_blocks.2.attentions.0.transformer_blocks.6.attn2.to_out.0.weight"> : tensor<1280x1280xf16>
  util.global private @_params.unet.down_blocks.2.attentions.0.transformer_blocks.6.attn2.to_out.0.bias {noinline} = #stream.parameter.named<"model"::"unet.down_blocks.2.attentions.0.transformer_blocks.6.attn2.to_out.0.bias"> : tensor<1280xf16>
  util.global private @_params.unet.down_blocks.2.attentions.0.transformer_blocks.6.norm3.weight {noinline} = #stream.parameter.named<"model"::"unet.down_blocks.2.attentions.0.transformer_blocks.6.norm3.weight"> : tensor<1280xf16>
  util.global private @_params.unet.down_blocks.2.attentions.0.transformer_blocks.6.norm3.bias {noinline} = #stream.parameter.named<"model"::"unet.down_blocks.2.attentions.0.transformer_blocks.6.norm3.bias"> : tensor<1280xf16>
  util.global private @_params.unet.down_blocks.2.attentions.0.transformer_blocks.6.ff.net.0.proj.weight {noinline} = #stream.parameter.named<"model"::"unet.down_blocks.2.attentions.0.transformer_blocks.6.ff.net.0.proj.weight"> : tensor<10240x1280xf16>
  util.global private @_params.unet.down_blocks.2.attentions.0.transformer_blocks.6.ff.net.0.proj.bias {noinline} = #stream.parameter.named<"model"::"unet.down_blocks.2.attentions.0.transformer_blocks.6.ff.net.0.proj.bias"> : tensor<10240xf16>
  util.global private @_params.unet.down_blocks.2.attentions.0.transformer_blocks.6.ff.net.2.weight {noinline} = #stream.parameter.named<"model"::"unet.down_blocks.2.attentions.0.transformer_blocks.6.ff.net.2.weight"> : tensor<1280x5120xf16>
  util.global private @_params.unet.down_blocks.2.attentions.0.transformer_blocks.6.ff.net.2.bias {noinline} = #stream.parameter.named<"model"::"unet.down_blocks.2.attentions.0.transformer_blocks.6.ff.net.2.bias"> : tensor<1280xf16>
  util.global private @_params.unet.down_blocks.2.attentions.0.transformer_blocks.7.norm1.weight {noinline} = #stream.parameter.named<"model"::"unet.down_blocks.2.attentions.0.transformer_blocks.7.norm1.weight"> : tensor<1280xf16>
  util.global private @_params.unet.down_blocks.2.attentions.0.transformer_blocks.7.norm1.bias {noinline} = #stream.parameter.named<"model"::"unet.down_blocks.2.attentions.0.transformer_blocks.7.norm1.bias"> : tensor<1280xf16>
  util.global private @_params.unet.down_blocks.2.attentions.0.transformer_blocks.7.attn1.to_q.weight {noinline} = #stream.parameter.named<"model"::"unet.down_blocks.2.attentions.0.transformer_blocks.7.attn1.to_q.weight"> : tensor<1280x1280xf16>
  util.global private @_params.unet.down_blocks.2.attentions.0.transformer_blocks.7.attn1.to_k.weight {noinline} = #stream.parameter.named<"model"::"unet.down_blocks.2.attentions.0.transformer_blocks.7.attn1.to_k.weight"> : tensor<1280x1280xf16>
  util.global private @_params.unet.down_blocks.2.attentions.0.transformer_blocks.7.attn1.to_v.weight {noinline} = #stream.parameter.named<"model"::"unet.down_blocks.2.attentions.0.transformer_blocks.7.attn1.to_v.weight"> : tensor<1280x1280xf16>
  util.global private @_params.unet.down_blocks.2.attentions.0.transformer_blocks.7.attn1.to_out.0.weight {noinline} = #stream.parameter.named<"model"::"unet.down_blocks.2.attentions.0.transformer_blocks.7.attn1.to_out.0.weight"> : tensor<1280x1280xf16>
  util.global private @_params.unet.down_blocks.2.attentions.0.transformer_blocks.7.attn1.to_out.0.bias {noinline} = #stream.parameter.named<"model"::"unet.down_blocks.2.attentions.0.transformer_blocks.7.attn1.to_out.0.bias"> : tensor<1280xf16>
  util.global private @_params.unet.down_blocks.2.attentions.0.transformer_blocks.7.norm2.weight {noinline} = #stream.parameter.named<"model"::"unet.down_blocks.2.attentions.0.transformer_blocks.7.norm2.weight"> : tensor<1280xf16>
  util.global private @_params.unet.down_blocks.2.attentions.0.transformer_blocks.7.norm2.bias {noinline} = #stream.parameter.named<"model"::"unet.down_blocks.2.attentions.0.transformer_blocks.7.norm2.bias"> : tensor<1280xf16>
  util.global private @_params.unet.down_blocks.2.attentions.0.transformer_blocks.7.attn2.to_q.weight {noinline} = #stream.parameter.named<"model"::"unet.down_blocks.2.attentions.0.transformer_blocks.7.attn2.to_q.weight"> : tensor<1280x1280xf16>
  util.global private @_params.unet.down_blocks.2.attentions.0.transformer_blocks.7.attn2.to_k.weight {noinline} = #stream.parameter.named<"model"::"unet.down_blocks.2.attentions.0.transformer_blocks.7.attn2.to_k.weight"> : tensor<1280x2048xf16>
  util.global private @_params.unet.down_blocks.2.attentions.0.transformer_blocks.7.attn2.to_v.weight {noinline} = #stream.parameter.named<"model"::"unet.down_blocks.2.attentions.0.transformer_blocks.7.attn2.to_v.weight"> : tensor<1280x2048xf16>
  util.global private @_params.unet.down_blocks.2.attentions.0.transformer_blocks.7.attn2.to_out.0.weight {noinline} = #stream.parameter.named<"model"::"unet.down_blocks.2.attentions.0.transformer_blocks.7.attn2.to_out.0.weight"> : tensor<1280x1280xf16>
  util.global private @_params.unet.down_blocks.2.attentions.0.transformer_blocks.7.attn2.to_out.0.bias {noinline} = #stream.parameter.named<"model"::"unet.down_blocks.2.attentions.0.transformer_blocks.7.attn2.to_out.0.bias"> : tensor<1280xf16>
  util.global private @_params.unet.down_blocks.2.attentions.0.transformer_blocks.7.norm3.weight {noinline} = #stream.parameter.named<"model"::"unet.down_blocks.2.attentions.0.transformer_blocks.7.norm3.weight"> : tensor<1280xf16>
  util.global private @_params.unet.down_blocks.2.attentions.0.transformer_blocks.7.norm3.bias {noinline} = #stream.parameter.named<"model"::"unet.down_blocks.2.attentions.0.transformer_blocks.7.norm3.bias"> : tensor<1280xf16>
  util.global private @_params.unet.down_blocks.2.attentions.0.transformer_blocks.7.ff.net.0.proj.weight {noinline} = #stream.parameter.named<"model"::"unet.down_blocks.2.attentions.0.transformer_blocks.7.ff.net.0.proj.weight"> : tensor<10240x1280xf16>
  util.global private @_params.unet.down_blocks.2.attentions.0.transformer_blocks.7.ff.net.0.proj.bias {noinline} = #stream.parameter.named<"model"::"unet.down_blocks.2.attentions.0.transformer_blocks.7.ff.net.0.proj.bias"> : tensor<10240xf16>
  util.global private @_params.unet.down_blocks.2.attentions.0.transformer_blocks.7.ff.net.2.weight {noinline} = #stream.parameter.named<"model"::"unet.down_blocks.2.attentions.0.transformer_blocks.7.ff.net.2.weight"> : tensor<1280x5120xf16>
  util.global private @_params.unet.down_blocks.2.attentions.0.transformer_blocks.7.ff.net.2.bias {noinline} = #stream.parameter.named<"model"::"unet.down_blocks.2.attentions.0.transformer_blocks.7.ff.net.2.bias"> : tensor<1280xf16>
  util.global private @_params.unet.down_blocks.2.attentions.0.transformer_blocks.8.norm1.weight {noinline} = #stream.parameter.named<"model"::"unet.down_blocks.2.attentions.0.transformer_blocks.8.norm1.weight"> : tensor<1280xf16>
  util.global private @_params.unet.down_blocks.2.attentions.0.transformer_blocks.8.norm1.bias {noinline} = #stream.parameter.named<"model"::"unet.down_blocks.2.attentions.0.transformer_blocks.8.norm1.bias"> : tensor<1280xf16>
  util.global private @_params.unet.down_blocks.2.attentions.0.transformer_blocks.8.attn1.to_q.weight {noinline} = #stream.parameter.named<"model"::"unet.down_blocks.2.attentions.0.transformer_blocks.8.attn1.to_q.weight"> : tensor<1280x1280xf16>
  util.global private @_params.unet.down_blocks.2.attentions.0.transformer_blocks.8.attn1.to_k.weight {noinline} = #stream.parameter.named<"model"::"unet.down_blocks.2.attentions.0.transformer_blocks.8.attn1.to_k.weight"> : tensor<1280x1280xf16>
  util.global private @_params.unet.down_blocks.2.attentions.0.transformer_blocks.8.attn1.to_v.weight {noinline} = #stream.parameter.named<"model"::"unet.down_blocks.2.attentions.0.transformer_blocks.8.attn1.to_v.weight"> : tensor<1280x1280xf16>
  util.global private @_params.unet.down_blocks.2.attentions.0.transformer_blocks.8.attn1.to_out.0.weight {noinline} = #stream.parameter.named<"model"::"unet.down_blocks.2.attentions.0.transformer_blocks.8.attn1.to_out.0.weight"> : tensor<1280x1280xf16>
  util.global private @_params.unet.down_blocks.2.attentions.0.transformer_blocks.8.attn1.to_out.0.bias {noinline} = #stream.parameter.named<"model"::"unet.down_blocks.2.attentions.0.transformer_blocks.8.attn1.to_out.0.bias"> : tensor<1280xf16>
  util.global private @_params.unet.down_blocks.2.attentions.0.transformer_blocks.8.norm2.weight {noinline} = #stream.parameter.named<"model"::"unet.down_blocks.2.attentions.0.transformer_blocks.8.norm2.weight"> : tensor<1280xf16>
  util.global private @_params.unet.down_blocks.2.attentions.0.transformer_blocks.8.norm2.bias {noinline} = #stream.parameter.named<"model"::"unet.down_blocks.2.attentions.0.transformer_blocks.8.norm2.bias"> : tensor<1280xf16>
  util.global private @_params.unet.down_blocks.2.attentions.0.transformer_blocks.8.attn2.to_q.weight {noinline} = #stream.parameter.named<"model"::"unet.down_blocks.2.attentions.0.transformer_blocks.8.attn2.to_q.weight"> : tensor<1280x1280xf16>
  util.global private @_params.unet.down_blocks.2.attentions.0.transformer_blocks.8.attn2.to_k.weight {noinline} = #stream.parameter.named<"model"::"unet.down_blocks.2.attentions.0.transformer_blocks.8.attn2.to_k.weight"> : tensor<1280x2048xf16>
  util.global private @_params.unet.down_blocks.2.attentions.0.transformer_blocks.8.attn2.to_v.weight {noinline} = #stream.parameter.named<"model"::"unet.down_blocks.2.attentions.0.transformer_blocks.8.attn2.to_v.weight"> : tensor<1280x2048xf16>
  util.global private @_params.unet.down_blocks.2.attentions.0.transformer_blocks.8.attn2.to_out.0.weight {noinline} = #stream.parameter.named<"model"::"unet.down_blocks.2.attentions.0.transformer_blocks.8.attn2.to_out.0.weight"> : tensor<1280x1280xf16>
  util.global private @_params.unet.down_blocks.2.attentions.0.transformer_blocks.8.attn2.to_out.0.bias {noinline} = #stream.parameter.named<"model"::"unet.down_blocks.2.attentions.0.transformer_blocks.8.attn2.to_out.0.bias"> : tensor<1280xf16>
  util.global private @_params.unet.down_blocks.2.attentions.0.transformer_blocks.8.norm3.weight {noinline} = #stream.parameter.named<"model"::"unet.down_blocks.2.attentions.0.transformer_blocks.8.norm3.weight"> : tensor<1280xf16>
  util.global private @_params.unet.down_blocks.2.attentions.0.transformer_blocks.8.norm3.bias {noinline} = #stream.parameter.named<"model"::"unet.down_blocks.2.attentions.0.transformer_blocks.8.norm3.bias"> : tensor<1280xf16>
  util.global private @_params.unet.down_blocks.2.attentions.0.transformer_blocks.8.ff.net.0.proj.weight {noinline} = #stream.parameter.named<"model"::"unet.down_blocks.2.attentions.0.transformer_blocks.8.ff.net.0.proj.weight"> : tensor<10240x1280xf16>
  util.global private @_params.unet.down_blocks.2.attentions.0.transformer_blocks.8.ff.net.0.proj.bias {noinline} = #stream.parameter.named<"model"::"unet.down_blocks.2.attentions.0.transformer_blocks.8.ff.net.0.proj.bias"> : tensor<10240xf16>
  util.global private @_params.unet.down_blocks.2.attentions.0.transformer_blocks.8.ff.net.2.weight {noinline} = #stream.parameter.named<"model"::"unet.down_blocks.2.attentions.0.transformer_blocks.8.ff.net.2.weight"> : tensor<1280x5120xf16>
  util.global private @_params.unet.down_blocks.2.attentions.0.transformer_blocks.8.ff.net.2.bias {noinline} = #stream.parameter.named<"model"::"unet.down_blocks.2.attentions.0.transformer_blocks.8.ff.net.2.bias"> : tensor<1280xf16>
  util.global private @_params.unet.down_blocks.2.attentions.0.transformer_blocks.9.norm1.weight {noinline} = #stream.parameter.named<"model"::"unet.down_blocks.2.attentions.0.transformer_blocks.9.norm1.weight"> : tensor<1280xf16>
  util.global private @_params.unet.down_blocks.2.attentions.0.transformer_blocks.9.norm1.bias {noinline} = #stream.parameter.named<"model"::"unet.down_blocks.2.attentions.0.transformer_blocks.9.norm1.bias"> : tensor<1280xf16>
  util.global private @_params.unet.down_blocks.2.attentions.0.transformer_blocks.9.attn1.to_q.weight {noinline} = #stream.parameter.named<"model"::"unet.down_blocks.2.attentions.0.transformer_blocks.9.attn1.to_q.weight"> : tensor<1280x1280xf16>
  util.global private @_params.unet.down_blocks.2.attentions.0.transformer_blocks.9.attn1.to_k.weight {noinline} = #stream.parameter.named<"model"::"unet.down_blocks.2.attentions.0.transformer_blocks.9.attn1.to_k.weight"> : tensor<1280x1280xf16>
  util.global private @_params.unet.down_blocks.2.attentions.0.transformer_blocks.9.attn1.to_v.weight {noinline} = #stream.parameter.named<"model"::"unet.down_blocks.2.attentions.0.transformer_blocks.9.attn1.to_v.weight"> : tensor<1280x1280xf16>
  util.global private @_params.unet.down_blocks.2.attentions.0.transformer_blocks.9.attn1.to_out.0.weight {noinline} = #stream.parameter.named<"model"::"unet.down_blocks.2.attentions.0.transformer_blocks.9.attn1.to_out.0.weight"> : tensor<1280x1280xf16>
  util.global private @_params.unet.down_blocks.2.attentions.0.transformer_blocks.9.attn1.to_out.0.bias {noinline} = #stream.parameter.named<"model"::"unet.down_blocks.2.attentions.0.transformer_blocks.9.attn1.to_out.0.bias"> : tensor<1280xf16>
  util.global private @_params.unet.down_blocks.2.attentions.0.transformer_blocks.9.norm2.weight {noinline} = #stream.parameter.named<"model"::"unet.down_blocks.2.attentions.0.transformer_blocks.9.norm2.weight"> : tensor<1280xf16>
  util.global private @_params.unet.down_blocks.2.attentions.0.transformer_blocks.9.norm2.bias {noinline} = #stream.parameter.named<"model"::"unet.down_blocks.2.attentions.0.transformer_blocks.9.norm2.bias"> : tensor<1280xf16>
  util.global private @_params.unet.down_blocks.2.attentions.0.transformer_blocks.9.attn2.to_q.weight {noinline} = #stream.parameter.named<"model"::"unet.down_blocks.2.attentions.0.transformer_blocks.9.attn2.to_q.weight"> : tensor<1280x1280xf16>
  util.global private @_params.unet.down_blocks.2.attentions.0.transformer_blocks.9.attn2.to_k.weight {noinline} = #stream.parameter.named<"model"::"unet.down_blocks.2.attentions.0.transformer_blocks.9.attn2.to_k.weight"> : tensor<1280x2048xf16>
  util.global private @_params.unet.down_blocks.2.attentions.0.transformer_blocks.9.attn2.to_v.weight {noinline} = #stream.parameter.named<"model"::"unet.down_blocks.2.attentions.0.transformer_blocks.9.attn2.to_v.weight"> : tensor<1280x2048xf16>
  util.global private @_params.unet.down_blocks.2.attentions.0.transformer_blocks.9.attn2.to_out.0.weight {noinline} = #stream.parameter.named<"model"::"unet.down_blocks.2.attentions.0.transformer_blocks.9.attn2.to_out.0.weight"> : tensor<1280x1280xf16>
  util.global private @_params.unet.down_blocks.2.attentions.0.transformer_blocks.9.attn2.to_out.0.bias {noinline} = #stream.parameter.named<"model"::"unet.down_blocks.2.attentions.0.transformer_blocks.9.attn2.to_out.0.bias"> : tensor<1280xf16>
  util.global private @_params.unet.down_blocks.2.attentions.0.transformer_blocks.9.norm3.weight {noinline} = #stream.parameter.named<"model"::"unet.down_blocks.2.attentions.0.transformer_blocks.9.norm3.weight"> : tensor<1280xf16>
  util.global private @_params.unet.down_blocks.2.attentions.0.transformer_blocks.9.norm3.bias {noinline} = #stream.parameter.named<"model"::"unet.down_blocks.2.attentions.0.transformer_blocks.9.norm3.bias"> : tensor<1280xf16>
  util.global private @_params.unet.down_blocks.2.attentions.0.transformer_blocks.9.ff.net.0.proj.weight {noinline} = #stream.parameter.named<"model"::"unet.down_blocks.2.attentions.0.transformer_blocks.9.ff.net.0.proj.weight"> : tensor<10240x1280xf16>
  util.global private @_params.unet.down_blocks.2.attentions.0.transformer_blocks.9.ff.net.0.proj.bias {noinline} = #stream.parameter.named<"model"::"unet.down_blocks.2.attentions.0.transformer_blocks.9.ff.net.0.proj.bias"> : tensor<10240xf16>
  util.global private @_params.unet.down_blocks.2.attentions.0.transformer_blocks.9.ff.net.2.weight {noinline} = #stream.parameter.named<"model"::"unet.down_blocks.2.attentions.0.transformer_blocks.9.ff.net.2.weight"> : tensor<1280x5120xf16>
  util.global private @_params.unet.down_blocks.2.attentions.0.transformer_blocks.9.ff.net.2.bias {noinline} = #stream.parameter.named<"model"::"unet.down_blocks.2.attentions.0.transformer_blocks.9.ff.net.2.bias"> : tensor<1280xf16>
  util.global private @_params.unet.down_blocks.2.attentions.0.proj_out.weight {noinline} = #stream.parameter.named<"model"::"unet.down_blocks.2.attentions.0.proj_out.weight"> : tensor<1280x1280xf16>
  util.global private @_params.unet.down_blocks.2.attentions.0.proj_out.bias {noinline} = #stream.parameter.named<"model"::"unet.down_blocks.2.attentions.0.proj_out.bias"> : tensor<1280xf16>
  util.global private @_params.unet.down_blocks.2.attentions.1.norm.weight {noinline} = #stream.parameter.named<"model"::"unet.down_blocks.2.attentions.1.norm.weight"> : tensor<1280xf16>
  util.global private @_params.unet.down_blocks.2.attentions.1.norm.bias {noinline} = #stream.parameter.named<"model"::"unet.down_blocks.2.attentions.1.norm.bias"> : tensor<1280xf16>
  util.global private @_params.unet.down_blocks.2.attentions.1.proj_in.weight {noinline} = #stream.parameter.named<"model"::"unet.down_blocks.2.attentions.1.proj_in.weight"> : tensor<1280x1280xf16>
  util.global private @_params.unet.down_blocks.2.attentions.1.proj_in.bias {noinline} = #stream.parameter.named<"model"::"unet.down_blocks.2.attentions.1.proj_in.bias"> : tensor<1280xf16>
  util.global private @_params.unet.down_blocks.2.attentions.1.transformer_blocks.0.norm1.weight {noinline} = #stream.parameter.named<"model"::"unet.down_blocks.2.attentions.1.transformer_blocks.0.norm1.weight"> : tensor<1280xf16>
  util.global private @_params.unet.down_blocks.2.attentions.1.transformer_blocks.0.norm1.bias {noinline} = #stream.parameter.named<"model"::"unet.down_blocks.2.attentions.1.transformer_blocks.0.norm1.bias"> : tensor<1280xf16>
  util.global private @_params.unet.down_blocks.2.attentions.1.transformer_blocks.0.attn1.to_q.weight {noinline} = #stream.parameter.named<"model"::"unet.down_blocks.2.attentions.1.transformer_blocks.0.attn1.to_q.weight"> : tensor<1280x1280xf16>
  util.global private @_params.unet.down_blocks.2.attentions.1.transformer_blocks.0.attn1.to_k.weight {noinline} = #stream.parameter.named<"model"::"unet.down_blocks.2.attentions.1.transformer_blocks.0.attn1.to_k.weight"> : tensor<1280x1280xf16>
  util.global private @_params.unet.down_blocks.2.attentions.1.transformer_blocks.0.attn1.to_v.weight {noinline} = #stream.parameter.named<"model"::"unet.down_blocks.2.attentions.1.transformer_blocks.0.attn1.to_v.weight"> : tensor<1280x1280xf16>
  util.global private @_params.unet.down_blocks.2.attentions.1.transformer_blocks.0.attn1.to_out.0.weight {noinline} = #stream.parameter.named<"model"::"unet.down_blocks.2.attentions.1.transformer_blocks.0.attn1.to_out.0.weight"> : tensor<1280x1280xf16>
  util.global private @_params.unet.down_blocks.2.attentions.1.transformer_blocks.0.attn1.to_out.0.bias {noinline} = #stream.parameter.named<"model"::"unet.down_blocks.2.attentions.1.transformer_blocks.0.attn1.to_out.0.bias"> : tensor<1280xf16>
  util.global private @_params.unet.down_blocks.2.attentions.1.transformer_blocks.0.norm2.weight {noinline} = #stream.parameter.named<"model"::"unet.down_blocks.2.attentions.1.transformer_blocks.0.norm2.weight"> : tensor<1280xf16>
  util.global private @_params.unet.down_blocks.2.attentions.1.transformer_blocks.0.norm2.bias {noinline} = #stream.parameter.named<"model"::"unet.down_blocks.2.attentions.1.transformer_blocks.0.norm2.bias"> : tensor<1280xf16>
  util.global private @_params.unet.down_blocks.2.attentions.1.transformer_blocks.0.attn2.to_q.weight {noinline} = #stream.parameter.named<"model"::"unet.down_blocks.2.attentions.1.transformer_blocks.0.attn2.to_q.weight"> : tensor<1280x1280xf16>
  util.global private @_params.unet.down_blocks.2.attentions.1.transformer_blocks.0.attn2.to_k.weight {noinline} = #stream.parameter.named<"model"::"unet.down_blocks.2.attentions.1.transformer_blocks.0.attn2.to_k.weight"> : tensor<1280x2048xf16>
  util.global private @_params.unet.down_blocks.2.attentions.1.transformer_blocks.0.attn2.to_v.weight {noinline} = #stream.parameter.named<"model"::"unet.down_blocks.2.attentions.1.transformer_blocks.0.attn2.to_v.weight"> : tensor<1280x2048xf16>
  util.global private @_params.unet.down_blocks.2.attentions.1.transformer_blocks.0.attn2.to_out.0.weight {noinline} = #stream.parameter.named<"model"::"unet.down_blocks.2.attentions.1.transformer_blocks.0.attn2.to_out.0.weight"> : tensor<1280x1280xf16>
  util.global private @_params.unet.down_blocks.2.attentions.1.transformer_blocks.0.attn2.to_out.0.bias {noinline} = #stream.parameter.named<"model"::"unet.down_blocks.2.attentions.1.transformer_blocks.0.attn2.to_out.0.bias"> : tensor<1280xf16>
  util.global private @_params.unet.down_blocks.2.attentions.1.transformer_blocks.0.norm3.weight {noinline} = #stream.parameter.named<"model"::"unet.down_blocks.2.attentions.1.transformer_blocks.0.norm3.weight"> : tensor<1280xf16>
  util.global private @_params.unet.down_blocks.2.attentions.1.transformer_blocks.0.norm3.bias {noinline} = #stream.parameter.named<"model"::"unet.down_blocks.2.attentions.1.transformer_blocks.0.norm3.bias"> : tensor<1280xf16>
  util.global private @_params.unet.down_blocks.2.attentions.1.transformer_blocks.0.ff.net.0.proj.weight {noinline} = #stream.parameter.named<"model"::"unet.down_blocks.2.attentions.1.transformer_blocks.0.ff.net.0.proj.weight"> : tensor<10240x1280xf16>
  util.global private @_params.unet.down_blocks.2.attentions.1.transformer_blocks.0.ff.net.0.proj.bias {noinline} = #stream.parameter.named<"model"::"unet.down_blocks.2.attentions.1.transformer_blocks.0.ff.net.0.proj.bias"> : tensor<10240xf16>
  util.global private @_params.unet.down_blocks.2.attentions.1.transformer_blocks.0.ff.net.2.weight {noinline} = #stream.parameter.named<"model"::"unet.down_blocks.2.attentions.1.transformer_blocks.0.ff.net.2.weight"> : tensor<1280x5120xf16>
  util.global private @_params.unet.down_blocks.2.attentions.1.transformer_blocks.0.ff.net.2.bias {noinline} = #stream.parameter.named<"model"::"unet.down_blocks.2.attentions.1.transformer_blocks.0.ff.net.2.bias"> : tensor<1280xf16>
  util.global private @_params.unet.down_blocks.2.attentions.1.transformer_blocks.1.norm1.weight {noinline} = #stream.parameter.named<"model"::"unet.down_blocks.2.attentions.1.transformer_blocks.1.norm1.weight"> : tensor<1280xf16>
  util.global private @_params.unet.down_blocks.2.attentions.1.transformer_blocks.1.norm1.bias {noinline} = #stream.parameter.named<"model"::"unet.down_blocks.2.attentions.1.transformer_blocks.1.norm1.bias"> : tensor<1280xf16>
  util.global private @_params.unet.down_blocks.2.attentions.1.transformer_blocks.1.attn1.to_q.weight {noinline} = #stream.parameter.named<"model"::"unet.down_blocks.2.attentions.1.transformer_blocks.1.attn1.to_q.weight"> : tensor<1280x1280xf16>
  util.global private @_params.unet.down_blocks.2.attentions.1.transformer_blocks.1.attn1.to_k.weight {noinline} = #stream.parameter.named<"model"::"unet.down_blocks.2.attentions.1.transformer_blocks.1.attn1.to_k.weight"> : tensor<1280x1280xf16>
  util.global private @_params.unet.down_blocks.2.attentions.1.transformer_blocks.1.attn1.to_v.weight {noinline} = #stream.parameter.named<"model"::"unet.down_blocks.2.attentions.1.transformer_blocks.1.attn1.to_v.weight"> : tensor<1280x1280xf16>
  util.global private @_params.unet.down_blocks.2.attentions.1.transformer_blocks.1.attn1.to_out.0.weight {noinline} = #stream.parameter.named<"model"::"unet.down_blocks.2.attentions.1.transformer_blocks.1.attn1.to_out.0.weight"> : tensor<1280x1280xf16>
  util.global private @_params.unet.down_blocks.2.attentions.1.transformer_blocks.1.attn1.to_out.0.bias {noinline} = #stream.parameter.named<"model"::"unet.down_blocks.2.attentions.1.transformer_blocks.1.attn1.to_out.0.bias"> : tensor<1280xf16>
  util.global private @_params.unet.down_blocks.2.attentions.1.transformer_blocks.1.norm2.weight {noinline} = #stream.parameter.named<"model"::"unet.down_blocks.2.attentions.1.transformer_blocks.1.norm2.weight"> : tensor<1280xf16>
  util.global private @_params.unet.down_blocks.2.attentions.1.transformer_blocks.1.norm2.bias {noinline} = #stream.parameter.named<"model"::"unet.down_blocks.2.attentions.1.transformer_blocks.1.norm2.bias"> : tensor<1280xf16>
  util.global private @_params.unet.down_blocks.2.attentions.1.transformer_blocks.1.attn2.to_q.weight {noinline} = #stream.parameter.named<"model"::"unet.down_blocks.2.attentions.1.transformer_blocks.1.attn2.to_q.weight"> : tensor<1280x1280xf16>
  util.global private @_params.unet.down_blocks.2.attentions.1.transformer_blocks.1.attn2.to_k.weight {noinline} = #stream.parameter.named<"model"::"unet.down_blocks.2.attentions.1.transformer_blocks.1.attn2.to_k.weight"> : tensor<1280x2048xf16>
  util.global private @_params.unet.down_blocks.2.attentions.1.transformer_blocks.1.attn2.to_v.weight {noinline} = #stream.parameter.named<"model"::"unet.down_blocks.2.attentions.1.transformer_blocks.1.attn2.to_v.weight"> : tensor<1280x2048xf16>
  util.global private @_params.unet.down_blocks.2.attentions.1.transformer_blocks.1.attn2.to_out.0.weight {noinline} = #stream.parameter.named<"model"::"unet.down_blocks.2.attentions.1.transformer_blocks.1.attn2.to_out.0.weight"> : tensor<1280x1280xf16>
  util.global private @_params.unet.down_blocks.2.attentions.1.transformer_blocks.1.attn2.to_out.0.bias {noinline} = #stream.parameter.named<"model"::"unet.down_blocks.2.attentions.1.transformer_blocks.1.attn2.to_out.0.bias"> : tensor<1280xf16>
  util.global private @_params.unet.down_blocks.2.attentions.1.transformer_blocks.1.norm3.weight {noinline} = #stream.parameter.named<"model"::"unet.down_blocks.2.attentions.1.transformer_blocks.1.norm3.weight"> : tensor<1280xf16>
  util.global private @_params.unet.down_blocks.2.attentions.1.transformer_blocks.1.norm3.bias {noinline} = #stream.parameter.named<"model"::"unet.down_blocks.2.attentions.1.transformer_blocks.1.norm3.bias"> : tensor<1280xf16>
  util.global private @_params.unet.down_blocks.2.attentions.1.transformer_blocks.1.ff.net.0.proj.weight {noinline} = #stream.parameter.named<"model"::"unet.down_blocks.2.attentions.1.transformer_blocks.1.ff.net.0.proj.weight"> : tensor<10240x1280xf16>
  util.global private @_params.unet.down_blocks.2.attentions.1.transformer_blocks.1.ff.net.0.proj.bias {noinline} = #stream.parameter.named<"model"::"unet.down_blocks.2.attentions.1.transformer_blocks.1.ff.net.0.proj.bias"> : tensor<10240xf16>
  util.global private @_params.unet.down_blocks.2.attentions.1.transformer_blocks.1.ff.net.2.weight {noinline} = #stream.parameter.named<"model"::"unet.down_blocks.2.attentions.1.transformer_blocks.1.ff.net.2.weight"> : tensor<1280x5120xf16>
  util.global private @_params.unet.down_blocks.2.attentions.1.transformer_blocks.1.ff.net.2.bias {noinline} = #stream.parameter.named<"model"::"unet.down_blocks.2.attentions.1.transformer_blocks.1.ff.net.2.bias"> : tensor<1280xf16>
  util.global private @_params.unet.down_blocks.2.attentions.1.transformer_blocks.2.norm1.weight {noinline} = #stream.parameter.named<"model"::"unet.down_blocks.2.attentions.1.transformer_blocks.2.norm1.weight"> : tensor<1280xf16>
  util.global private @_params.unet.down_blocks.2.attentions.1.transformer_blocks.2.norm1.bias {noinline} = #stream.parameter.named<"model"::"unet.down_blocks.2.attentions.1.transformer_blocks.2.norm1.bias"> : tensor<1280xf16>
  util.global private @_params.unet.down_blocks.2.attentions.1.transformer_blocks.2.attn1.to_q.weight {noinline} = #stream.parameter.named<"model"::"unet.down_blocks.2.attentions.1.transformer_blocks.2.attn1.to_q.weight"> : tensor<1280x1280xf16>
  util.global private @_params.unet.down_blocks.2.attentions.1.transformer_blocks.2.attn1.to_k.weight {noinline} = #stream.parameter.named<"model"::"unet.down_blocks.2.attentions.1.transformer_blocks.2.attn1.to_k.weight"> : tensor<1280x1280xf16>
  util.global private @_params.unet.down_blocks.2.attentions.1.transformer_blocks.2.attn1.to_v.weight {noinline} = #stream.parameter.named<"model"::"unet.down_blocks.2.attentions.1.transformer_blocks.2.attn1.to_v.weight"> : tensor<1280x1280xf16>
  util.global private @_params.unet.down_blocks.2.attentions.1.transformer_blocks.2.attn1.to_out.0.weight {noinline} = #stream.parameter.named<"model"::"unet.down_blocks.2.attentions.1.transformer_blocks.2.attn1.to_out.0.weight"> : tensor<1280x1280xf16>
  util.global private @_params.unet.down_blocks.2.attentions.1.transformer_blocks.2.attn1.to_out.0.bias {noinline} = #stream.parameter.named<"model"::"unet.down_blocks.2.attentions.1.transformer_blocks.2.attn1.to_out.0.bias"> : tensor<1280xf16>
  util.global private @_params.unet.down_blocks.2.attentions.1.transformer_blocks.2.norm2.weight {noinline} = #stream.parameter.named<"model"::"unet.down_blocks.2.attentions.1.transformer_blocks.2.norm2.weight"> : tensor<1280xf16>
  util.global private @_params.unet.down_blocks.2.attentions.1.transformer_blocks.2.norm2.bias {noinline} = #stream.parameter.named<"model"::"unet.down_blocks.2.attentions.1.transformer_blocks.2.norm2.bias"> : tensor<1280xf16>
  util.global private @_params.unet.down_blocks.2.attentions.1.transformer_blocks.2.attn2.to_q.weight {noinline} = #stream.parameter.named<"model"::"unet.down_blocks.2.attentions.1.transformer_blocks.2.attn2.to_q.weight"> : tensor<1280x1280xf16>
  util.global private @_params.unet.down_blocks.2.attentions.1.transformer_blocks.2.attn2.to_k.weight {noinline} = #stream.parameter.named<"model"::"unet.down_blocks.2.attentions.1.transformer_blocks.2.attn2.to_k.weight"> : tensor<1280x2048xf16>
  util.global private @_params.unet.down_blocks.2.attentions.1.transformer_blocks.2.attn2.to_v.weight {noinline} = #stream.parameter.named<"model"::"unet.down_blocks.2.attentions.1.transformer_blocks.2.attn2.to_v.weight"> : tensor<1280x2048xf16>
  util.global private @_params.unet.down_blocks.2.attentions.1.transformer_blocks.2.attn2.to_out.0.weight {noinline} = #stream.parameter.named<"model"::"unet.down_blocks.2.attentions.1.transformer_blocks.2.attn2.to_out.0.weight"> : tensor<1280x1280xf16>
  util.global private @_params.unet.down_blocks.2.attentions.1.transformer_blocks.2.attn2.to_out.0.bias {noinline} = #stream.parameter.named<"model"::"unet.down_blocks.2.attentions.1.transformer_blocks.2.attn2.to_out.0.bias"> : tensor<1280xf16>
  util.global private @_params.unet.down_blocks.2.attentions.1.transformer_blocks.2.norm3.weight {noinline} = #stream.parameter.named<"model"::"unet.down_blocks.2.attentions.1.transformer_blocks.2.norm3.weight"> : tensor<1280xf16>
  util.global private @_params.unet.down_blocks.2.attentions.1.transformer_blocks.2.norm3.bias {noinline} = #stream.parameter.named<"model"::"unet.down_blocks.2.attentions.1.transformer_blocks.2.norm3.bias"> : tensor<1280xf16>
  util.global private @_params.unet.down_blocks.2.attentions.1.transformer_blocks.2.ff.net.0.proj.weight {noinline} = #stream.parameter.named<"model"::"unet.down_blocks.2.attentions.1.transformer_blocks.2.ff.net.0.proj.weight"> : tensor<10240x1280xf16>
  util.global private @_params.unet.down_blocks.2.attentions.1.transformer_blocks.2.ff.net.0.proj.bias {noinline} = #stream.parameter.named<"model"::"unet.down_blocks.2.attentions.1.transformer_blocks.2.ff.net.0.proj.bias"> : tensor<10240xf16>
  util.global private @_params.unet.down_blocks.2.attentions.1.transformer_blocks.2.ff.net.2.weight {noinline} = #stream.parameter.named<"model"::"unet.down_blocks.2.attentions.1.transformer_blocks.2.ff.net.2.weight"> : tensor<1280x5120xf16>
  util.global private @_params.unet.down_blocks.2.attentions.1.transformer_blocks.2.ff.net.2.bias {noinline} = #stream.parameter.named<"model"::"unet.down_blocks.2.attentions.1.transformer_blocks.2.ff.net.2.bias"> : tensor<1280xf16>
  util.global private @_params.unet.down_blocks.2.attentions.1.transformer_blocks.3.norm1.weight {noinline} = #stream.parameter.named<"model"::"unet.down_blocks.2.attentions.1.transformer_blocks.3.norm1.weight"> : tensor<1280xf16>
  util.global private @_params.unet.down_blocks.2.attentions.1.transformer_blocks.3.norm1.bias {noinline} = #stream.parameter.named<"model"::"unet.down_blocks.2.attentions.1.transformer_blocks.3.norm1.bias"> : tensor<1280xf16>
  util.global private @_params.unet.down_blocks.2.attentions.1.transformer_blocks.3.attn1.to_q.weight {noinline} = #stream.parameter.named<"model"::"unet.down_blocks.2.attentions.1.transformer_blocks.3.attn1.to_q.weight"> : tensor<1280x1280xf16>
  util.global private @_params.unet.down_blocks.2.attentions.1.transformer_blocks.3.attn1.to_k.weight {noinline} = #stream.parameter.named<"model"::"unet.down_blocks.2.attentions.1.transformer_blocks.3.attn1.to_k.weight"> : tensor<1280x1280xf16>
  util.global private @_params.unet.down_blocks.2.attentions.1.transformer_blocks.3.attn1.to_v.weight {noinline} = #stream.parameter.named<"model"::"unet.down_blocks.2.attentions.1.transformer_blocks.3.attn1.to_v.weight"> : tensor<1280x1280xf16>
  util.global private @_params.unet.down_blocks.2.attentions.1.transformer_blocks.3.attn1.to_out.0.weight {noinline} = #stream.parameter.named<"model"::"unet.down_blocks.2.attentions.1.transformer_blocks.3.attn1.to_out.0.weight"> : tensor<1280x1280xf16>
  util.global private @_params.unet.down_blocks.2.attentions.1.transformer_blocks.3.attn1.to_out.0.bias {noinline} = #stream.parameter.named<"model"::"unet.down_blocks.2.attentions.1.transformer_blocks.3.attn1.to_out.0.bias"> : tensor<1280xf16>
  util.global private @_params.unet.down_blocks.2.attentions.1.transformer_blocks.3.norm2.weight {noinline} = #stream.parameter.named<"model"::"unet.down_blocks.2.attentions.1.transformer_blocks.3.norm2.weight"> : tensor<1280xf16>
  util.global private @_params.unet.down_blocks.2.attentions.1.transformer_blocks.3.norm2.bias {noinline} = #stream.parameter.named<"model"::"unet.down_blocks.2.attentions.1.transformer_blocks.3.norm2.bias"> : tensor<1280xf16>
  util.global private @_params.unet.down_blocks.2.attentions.1.transformer_blocks.3.attn2.to_q.weight {noinline} = #stream.parameter.named<"model"::"unet.down_blocks.2.attentions.1.transformer_blocks.3.attn2.to_q.weight"> : tensor<1280x1280xf16>
  util.global private @_params.unet.down_blocks.2.attentions.1.transformer_blocks.3.attn2.to_k.weight {noinline} = #stream.parameter.named<"model"::"unet.down_blocks.2.attentions.1.transformer_blocks.3.attn2.to_k.weight"> : tensor<1280x2048xf16>
  util.global private @_params.unet.down_blocks.2.attentions.1.transformer_blocks.3.attn2.to_v.weight {noinline} = #stream.parameter.named<"model"::"unet.down_blocks.2.attentions.1.transformer_blocks.3.attn2.to_v.weight"> : tensor<1280x2048xf16>
  util.global private @_params.unet.down_blocks.2.attentions.1.transformer_blocks.3.attn2.to_out.0.weight {noinline} = #stream.parameter.named<"model"::"unet.down_blocks.2.attentions.1.transformer_blocks.3.attn2.to_out.0.weight"> : tensor<1280x1280xf16>
  util.global private @_params.unet.down_blocks.2.attentions.1.transformer_blocks.3.attn2.to_out.0.bias {noinline} = #stream.parameter.named<"model"::"unet.down_blocks.2.attentions.1.transformer_blocks.3.attn2.to_out.0.bias"> : tensor<1280xf16>
  util.global private @_params.unet.down_blocks.2.attentions.1.transformer_blocks.3.norm3.weight {noinline} = #stream.parameter.named<"model"::"unet.down_blocks.2.attentions.1.transformer_blocks.3.norm3.weight"> : tensor<1280xf16>
  util.global private @_params.unet.down_blocks.2.attentions.1.transformer_blocks.3.norm3.bias {noinline} = #stream.parameter.named<"model"::"unet.down_blocks.2.attentions.1.transformer_blocks.3.norm3.bias"> : tensor<1280xf16>
  util.global private @_params.unet.down_blocks.2.attentions.1.transformer_blocks.3.ff.net.0.proj.weight {noinline} = #stream.parameter.named<"model"::"unet.down_blocks.2.attentions.1.transformer_blocks.3.ff.net.0.proj.weight"> : tensor<10240x1280xf16>
  util.global private @_params.unet.down_blocks.2.attentions.1.transformer_blocks.3.ff.net.0.proj.bias {noinline} = #stream.parameter.named<"model"::"unet.down_blocks.2.attentions.1.transformer_blocks.3.ff.net.0.proj.bias"> : tensor<10240xf16>
  util.global private @_params.unet.down_blocks.2.attentions.1.transformer_blocks.3.ff.net.2.weight {noinline} = #stream.parameter.named<"model"::"unet.down_blocks.2.attentions.1.transformer_blocks.3.ff.net.2.weight"> : tensor<1280x5120xf16>
  util.global private @_params.unet.down_blocks.2.attentions.1.transformer_blocks.3.ff.net.2.bias {noinline} = #stream.parameter.named<"model"::"unet.down_blocks.2.attentions.1.transformer_blocks.3.ff.net.2.bias"> : tensor<1280xf16>
  util.global private @_params.unet.down_blocks.2.attentions.1.transformer_blocks.4.norm1.weight {noinline} = #stream.parameter.named<"model"::"unet.down_blocks.2.attentions.1.transformer_blocks.4.norm1.weight"> : tensor<1280xf16>
  util.global private @_params.unet.down_blocks.2.attentions.1.transformer_blocks.4.norm1.bias {noinline} = #stream.parameter.named<"model"::"unet.down_blocks.2.attentions.1.transformer_blocks.4.norm1.bias"> : tensor<1280xf16>
  util.global private @_params.unet.down_blocks.2.attentions.1.transformer_blocks.4.attn1.to_q.weight {noinline} = #stream.parameter.named<"model"::"unet.down_blocks.2.attentions.1.transformer_blocks.4.attn1.to_q.weight"> : tensor<1280x1280xf16>
  util.global private @_params.unet.down_blocks.2.attentions.1.transformer_blocks.4.attn1.to_k.weight {noinline} = #stream.parameter.named<"model"::"unet.down_blocks.2.attentions.1.transformer_blocks.4.attn1.to_k.weight"> : tensor<1280x1280xf16>
  util.global private @_params.unet.down_blocks.2.attentions.1.transformer_blocks.4.attn1.to_v.weight {noinline} = #stream.parameter.named<"model"::"unet.down_blocks.2.attentions.1.transformer_blocks.4.attn1.to_v.weight"> : tensor<1280x1280xf16>
  util.global private @_params.unet.down_blocks.2.attentions.1.transformer_blocks.4.attn1.to_out.0.weight {noinline} = #stream.parameter.named<"model"::"unet.down_blocks.2.attentions.1.transformer_blocks.4.attn1.to_out.0.weight"> : tensor<1280x1280xf16>
  util.global private @_params.unet.down_blocks.2.attentions.1.transformer_blocks.4.attn1.to_out.0.bias {noinline} = #stream.parameter.named<"model"::"unet.down_blocks.2.attentions.1.transformer_blocks.4.attn1.to_out.0.bias"> : tensor<1280xf16>
  util.global private @_params.unet.down_blocks.2.attentions.1.transformer_blocks.4.norm2.weight {noinline} = #stream.parameter.named<"model"::"unet.down_blocks.2.attentions.1.transformer_blocks.4.norm2.weight"> : tensor<1280xf16>
  util.global private @_params.unet.down_blocks.2.attentions.1.transformer_blocks.4.norm2.bias {noinline} = #stream.parameter.named<"model"::"unet.down_blocks.2.attentions.1.transformer_blocks.4.norm2.bias"> : tensor<1280xf16>
  util.global private @_params.unet.down_blocks.2.attentions.1.transformer_blocks.4.attn2.to_q.weight {noinline} = #stream.parameter.named<"model"::"unet.down_blocks.2.attentions.1.transformer_blocks.4.attn2.to_q.weight"> : tensor<1280x1280xf16>
  util.global private @_params.unet.down_blocks.2.attentions.1.transformer_blocks.4.attn2.to_k.weight {noinline} = #stream.parameter.named<"model"::"unet.down_blocks.2.attentions.1.transformer_blocks.4.attn2.to_k.weight"> : tensor<1280x2048xf16>
  util.global private @_params.unet.down_blocks.2.attentions.1.transformer_blocks.4.attn2.to_v.weight {noinline} = #stream.parameter.named<"model"::"unet.down_blocks.2.attentions.1.transformer_blocks.4.attn2.to_v.weight"> : tensor<1280x2048xf16>
  util.global private @_params.unet.down_blocks.2.attentions.1.transformer_blocks.4.attn2.to_out.0.weight {noinline} = #stream.parameter.named<"model"::"unet.down_blocks.2.attentions.1.transformer_blocks.4.attn2.to_out.0.weight"> : tensor<1280x1280xf16>
  util.global private @_params.unet.down_blocks.2.attentions.1.transformer_blocks.4.attn2.to_out.0.bias {noinline} = #stream.parameter.named<"model"::"unet.down_blocks.2.attentions.1.transformer_blocks.4.attn2.to_out.0.bias"> : tensor<1280xf16>
  util.global private @_params.unet.down_blocks.2.attentions.1.transformer_blocks.4.norm3.weight {noinline} = #stream.parameter.named<"model"::"unet.down_blocks.2.attentions.1.transformer_blocks.4.norm3.weight"> : tensor<1280xf16>
  util.global private @_params.unet.down_blocks.2.attentions.1.transformer_blocks.4.norm3.bias {noinline} = #stream.parameter.named<"model"::"unet.down_blocks.2.attentions.1.transformer_blocks.4.norm3.bias"> : tensor<1280xf16>
  util.global private @_params.unet.down_blocks.2.attentions.1.transformer_blocks.4.ff.net.0.proj.weight {noinline} = #stream.parameter.named<"model"::"unet.down_blocks.2.attentions.1.transformer_blocks.4.ff.net.0.proj.weight"> : tensor<10240x1280xf16>
  util.global private @_params.unet.down_blocks.2.attentions.1.transformer_blocks.4.ff.net.0.proj.bias {noinline} = #stream.parameter.named<"model"::"unet.down_blocks.2.attentions.1.transformer_blocks.4.ff.net.0.proj.bias"> : tensor<10240xf16>
  util.global private @_params.unet.down_blocks.2.attentions.1.transformer_blocks.4.ff.net.2.weight {noinline} = #stream.parameter.named<"model"::"unet.down_blocks.2.attentions.1.transformer_blocks.4.ff.net.2.weight"> : tensor<1280x5120xf16>
  util.global private @_params.unet.down_blocks.2.attentions.1.transformer_blocks.4.ff.net.2.bias {noinline} = #stream.parameter.named<"model"::"unet.down_blocks.2.attentions.1.transformer_blocks.4.ff.net.2.bias"> : tensor<1280xf16>
  util.global private @_params.unet.down_blocks.2.attentions.1.transformer_blocks.5.norm1.weight {noinline} = #stream.parameter.named<"model"::"unet.down_blocks.2.attentions.1.transformer_blocks.5.norm1.weight"> : tensor<1280xf16>
  util.global private @_params.unet.down_blocks.2.attentions.1.transformer_blocks.5.norm1.bias {noinline} = #stream.parameter.named<"model"::"unet.down_blocks.2.attentions.1.transformer_blocks.5.norm1.bias"> : tensor<1280xf16>
  util.global private @_params.unet.down_blocks.2.attentions.1.transformer_blocks.5.attn1.to_q.weight {noinline} = #stream.parameter.named<"model"::"unet.down_blocks.2.attentions.1.transformer_blocks.5.attn1.to_q.weight"> : tensor<1280x1280xf16>
  util.global private @_params.unet.down_blocks.2.attentions.1.transformer_blocks.5.attn1.to_k.weight {noinline} = #stream.parameter.named<"model"::"unet.down_blocks.2.attentions.1.transformer_blocks.5.attn1.to_k.weight"> : tensor<1280x1280xf16>
  util.global private @_params.unet.down_blocks.2.attentions.1.transformer_blocks.5.attn1.to_v.weight {noinline} = #stream.parameter.named<"model"::"unet.down_blocks.2.attentions.1.transformer_blocks.5.attn1.to_v.weight"> : tensor<1280x1280xf16>
  util.global private @_params.unet.down_blocks.2.attentions.1.transformer_blocks.5.attn1.to_out.0.weight {noinline} = #stream.parameter.named<"model"::"unet.down_blocks.2.attentions.1.transformer_blocks.5.attn1.to_out.0.weight"> : tensor<1280x1280xf16>
  util.global private @_params.unet.down_blocks.2.attentions.1.transformer_blocks.5.attn1.to_out.0.bias {noinline} = #stream.parameter.named<"model"::"unet.down_blocks.2.attentions.1.transformer_blocks.5.attn1.to_out.0.bias"> : tensor<1280xf16>
  util.global private @_params.unet.down_blocks.2.attentions.1.transformer_blocks.5.norm2.weight {noinline} = #stream.parameter.named<"model"::"unet.down_blocks.2.attentions.1.transformer_blocks.5.norm2.weight"> : tensor<1280xf16>
  util.global private @_params.unet.down_blocks.2.attentions.1.transformer_blocks.5.norm2.bias {noinline} = #stream.parameter.named<"model"::"unet.down_blocks.2.attentions.1.transformer_blocks.5.norm2.bias"> : tensor<1280xf16>
  util.global private @_params.unet.down_blocks.2.attentions.1.transformer_blocks.5.attn2.to_q.weight {noinline} = #stream.parameter.named<"model"::"unet.down_blocks.2.attentions.1.transformer_blocks.5.attn2.to_q.weight"> : tensor<1280x1280xf16>
  util.global private @_params.unet.down_blocks.2.attentions.1.transformer_blocks.5.attn2.to_k.weight {noinline} = #stream.parameter.named<"model"::"unet.down_blocks.2.attentions.1.transformer_blocks.5.attn2.to_k.weight"> : tensor<1280x2048xf16>
  util.global private @_params.unet.down_blocks.2.attentions.1.transformer_blocks.5.attn2.to_v.weight {noinline} = #stream.parameter.named<"model"::"unet.down_blocks.2.attentions.1.transformer_blocks.5.attn2.to_v.weight"> : tensor<1280x2048xf16>
  util.global private @_params.unet.down_blocks.2.attentions.1.transformer_blocks.5.attn2.to_out.0.weight {noinline} = #stream.parameter.named<"model"::"unet.down_blocks.2.attentions.1.transformer_blocks.5.attn2.to_out.0.weight"> : tensor<1280x1280xf16>
  util.global private @_params.unet.down_blocks.2.attentions.1.transformer_blocks.5.attn2.to_out.0.bias {noinline} = #stream.parameter.named<"model"::"unet.down_blocks.2.attentions.1.transformer_blocks.5.attn2.to_out.0.bias"> : tensor<1280xf16>
  util.global private @_params.unet.down_blocks.2.attentions.1.transformer_blocks.5.norm3.weight {noinline} = #stream.parameter.named<"model"::"unet.down_blocks.2.attentions.1.transformer_blocks.5.norm3.weight"> : tensor<1280xf16>
  util.global private @_params.unet.down_blocks.2.attentions.1.transformer_blocks.5.norm3.bias {noinline} = #stream.parameter.named<"model"::"unet.down_blocks.2.attentions.1.transformer_blocks.5.norm3.bias"> : tensor<1280xf16>
  util.global private @_params.unet.down_blocks.2.attentions.1.transformer_blocks.5.ff.net.0.proj.weight {noinline} = #stream.parameter.named<"model"::"unet.down_blocks.2.attentions.1.transformer_blocks.5.ff.net.0.proj.weight"> : tensor<10240x1280xf16>
  util.global private @_params.unet.down_blocks.2.attentions.1.transformer_blocks.5.ff.net.0.proj.bias {noinline} = #stream.parameter.named<"model"::"unet.down_blocks.2.attentions.1.transformer_blocks.5.ff.net.0.proj.bias"> : tensor<10240xf16>
  util.global private @_params.unet.down_blocks.2.attentions.1.transformer_blocks.5.ff.net.2.weight {noinline} = #stream.parameter.named<"model"::"unet.down_blocks.2.attentions.1.transformer_blocks.5.ff.net.2.weight"> : tensor<1280x5120xf16>
  util.global private @_params.unet.down_blocks.2.attentions.1.transformer_blocks.5.ff.net.2.bias {noinline} = #stream.parameter.named<"model"::"unet.down_blocks.2.attentions.1.transformer_blocks.5.ff.net.2.bias"> : tensor<1280xf16>
  util.global private @_params.unet.down_blocks.2.attentions.1.transformer_blocks.6.norm1.weight {noinline} = #stream.parameter.named<"model"::"unet.down_blocks.2.attentions.1.transformer_blocks.6.norm1.weight"> : tensor<1280xf16>
  util.global private @_params.unet.down_blocks.2.attentions.1.transformer_blocks.6.norm1.bias {noinline} = #stream.parameter.named<"model"::"unet.down_blocks.2.attentions.1.transformer_blocks.6.norm1.bias"> : tensor<1280xf16>
  util.global private @_params.unet.down_blocks.2.attentions.1.transformer_blocks.6.attn1.to_q.weight {noinline} = #stream.parameter.named<"model"::"unet.down_blocks.2.attentions.1.transformer_blocks.6.attn1.to_q.weight"> : tensor<1280x1280xf16>
  util.global private @_params.unet.down_blocks.2.attentions.1.transformer_blocks.6.attn1.to_k.weight {noinline} = #stream.parameter.named<"model"::"unet.down_blocks.2.attentions.1.transformer_blocks.6.attn1.to_k.weight"> : tensor<1280x1280xf16>
  util.global private @_params.unet.down_blocks.2.attentions.1.transformer_blocks.6.attn1.to_v.weight {noinline} = #stream.parameter.named<"model"::"unet.down_blocks.2.attentions.1.transformer_blocks.6.attn1.to_v.weight"> : tensor<1280x1280xf16>
  util.global private @_params.unet.down_blocks.2.attentions.1.transformer_blocks.6.attn1.to_out.0.weight {noinline} = #stream.parameter.named<"model"::"unet.down_blocks.2.attentions.1.transformer_blocks.6.attn1.to_out.0.weight"> : tensor<1280x1280xf16>
  util.global private @_params.unet.down_blocks.2.attentions.1.transformer_blocks.6.attn1.to_out.0.bias {noinline} = #stream.parameter.named<"model"::"unet.down_blocks.2.attentions.1.transformer_blocks.6.attn1.to_out.0.bias"> : tensor<1280xf16>
  util.global private @_params.unet.down_blocks.2.attentions.1.transformer_blocks.6.norm2.weight {noinline} = #stream.parameter.named<"model"::"unet.down_blocks.2.attentions.1.transformer_blocks.6.norm2.weight"> : tensor<1280xf16>
  util.global private @_params.unet.down_blocks.2.attentions.1.transformer_blocks.6.norm2.bias {noinline} = #stream.parameter.named<"model"::"unet.down_blocks.2.attentions.1.transformer_blocks.6.norm2.bias"> : tensor<1280xf16>
  util.global private @_params.unet.down_blocks.2.attentions.1.transformer_blocks.6.attn2.to_q.weight {noinline} = #stream.parameter.named<"model"::"unet.down_blocks.2.attentions.1.transformer_blocks.6.attn2.to_q.weight"> : tensor<1280x1280xf16>
  util.global private @_params.unet.down_blocks.2.attentions.1.transformer_blocks.6.attn2.to_k.weight {noinline} = #stream.parameter.named<"model"::"unet.down_blocks.2.attentions.1.transformer_blocks.6.attn2.to_k.weight"> : tensor<1280x2048xf16>
  util.global private @_params.unet.down_blocks.2.attentions.1.transformer_blocks.6.attn2.to_v.weight {noinline} = #stream.parameter.named<"model"::"unet.down_blocks.2.attentions.1.transformer_blocks.6.attn2.to_v.weight"> : tensor<1280x2048xf16>
  util.global private @_params.unet.down_blocks.2.attentions.1.transformer_blocks.6.attn2.to_out.0.weight {noinline} = #stream.parameter.named<"model"::"unet.down_blocks.2.attentions.1.transformer_blocks.6.attn2.to_out.0.weight"> : tensor<1280x1280xf16>
  util.global private @_params.unet.down_blocks.2.attentions.1.transformer_blocks.6.attn2.to_out.0.bias {noinline} = #stream.parameter.named<"model"::"unet.down_blocks.2.attentions.1.transformer_blocks.6.attn2.to_out.0.bias"> : tensor<1280xf16>
  util.global private @_params.unet.down_blocks.2.attentions.1.transformer_blocks.6.norm3.weight {noinline} = #stream.parameter.named<"model"::"unet.down_blocks.2.attentions.1.transformer_blocks.6.norm3.weight"> : tensor<1280xf16>
  util.global private @_params.unet.down_blocks.2.attentions.1.transformer_blocks.6.norm3.bias {noinline} = #stream.parameter.named<"model"::"unet.down_blocks.2.attentions.1.transformer_blocks.6.norm3.bias"> : tensor<1280xf16>
  util.global private @_params.unet.down_blocks.2.attentions.1.transformer_blocks.6.ff.net.0.proj.weight {noinline} = #stream.parameter.named<"model"::"unet.down_blocks.2.attentions.1.transformer_blocks.6.ff.net.0.proj.weight"> : tensor<10240x1280xf16>
  util.global private @_params.unet.down_blocks.2.attentions.1.transformer_blocks.6.ff.net.0.proj.bias {noinline} = #stream.parameter.named<"model"::"unet.down_blocks.2.attentions.1.transformer_blocks.6.ff.net.0.proj.bias"> : tensor<10240xf16>
  util.global private @_params.unet.down_blocks.2.attentions.1.transformer_blocks.6.ff.net.2.weight {noinline} = #stream.parameter.named<"model"::"unet.down_blocks.2.attentions.1.transformer_blocks.6.ff.net.2.weight"> : tensor<1280x5120xf16>
  util.global private @_params.unet.down_blocks.2.attentions.1.transformer_blocks.6.ff.net.2.bias {noinline} = #stream.parameter.named<"model"::"unet.down_blocks.2.attentions.1.transformer_blocks.6.ff.net.2.bias"> : tensor<1280xf16>
  util.global private @_params.unet.down_blocks.2.attentions.1.transformer_blocks.7.norm1.weight {noinline} = #stream.parameter.named<"model"::"unet.down_blocks.2.attentions.1.transformer_blocks.7.norm1.weight"> : tensor<1280xf16>
  util.global private @_params.unet.down_blocks.2.attentions.1.transformer_blocks.7.norm1.bias {noinline} = #stream.parameter.named<"model"::"unet.down_blocks.2.attentions.1.transformer_blocks.7.norm1.bias"> : tensor<1280xf16>
  util.global private @_params.unet.down_blocks.2.attentions.1.transformer_blocks.7.attn1.to_q.weight {noinline} = #stream.parameter.named<"model"::"unet.down_blocks.2.attentions.1.transformer_blocks.7.attn1.to_q.weight"> : tensor<1280x1280xf16>
  util.global private @_params.unet.down_blocks.2.attentions.1.transformer_blocks.7.attn1.to_k.weight {noinline} = #stream.parameter.named<"model"::"unet.down_blocks.2.attentions.1.transformer_blocks.7.attn1.to_k.weight"> : tensor<1280x1280xf16>
  util.global private @_params.unet.down_blocks.2.attentions.1.transformer_blocks.7.attn1.to_v.weight {noinline} = #stream.parameter.named<"model"::"unet.down_blocks.2.attentions.1.transformer_blocks.7.attn1.to_v.weight"> : tensor<1280x1280xf16>
  util.global private @_params.unet.down_blocks.2.attentions.1.transformer_blocks.7.attn1.to_out.0.weight {noinline} = #stream.parameter.named<"model"::"unet.down_blocks.2.attentions.1.transformer_blocks.7.attn1.to_out.0.weight"> : tensor<1280x1280xf16>
  util.global private @_params.unet.down_blocks.2.attentions.1.transformer_blocks.7.attn1.to_out.0.bias {noinline} = #stream.parameter.named<"model"::"unet.down_blocks.2.attentions.1.transformer_blocks.7.attn1.to_out.0.bias"> : tensor<1280xf16>
  util.global private @_params.unet.down_blocks.2.attentions.1.transformer_blocks.7.norm2.weight {noinline} = #stream.parameter.named<"model"::"unet.down_blocks.2.attentions.1.transformer_blocks.7.norm2.weight"> : tensor<1280xf16>
  util.global private @_params.unet.down_blocks.2.attentions.1.transformer_blocks.7.norm2.bias {noinline} = #stream.parameter.named<"model"::"unet.down_blocks.2.attentions.1.transformer_blocks.7.norm2.bias"> : tensor<1280xf16>
  util.global private @_params.unet.down_blocks.2.attentions.1.transformer_blocks.7.attn2.to_q.weight {noinline} = #stream.parameter.named<"model"::"unet.down_blocks.2.attentions.1.transformer_blocks.7.attn2.to_q.weight"> : tensor<1280x1280xf16>
  util.global private @_params.unet.down_blocks.2.attentions.1.transformer_blocks.7.attn2.to_k.weight {noinline} = #stream.parameter.named<"model"::"unet.down_blocks.2.attentions.1.transformer_blocks.7.attn2.to_k.weight"> : tensor<1280x2048xf16>
  util.global private @_params.unet.down_blocks.2.attentions.1.transformer_blocks.7.attn2.to_v.weight {noinline} = #stream.parameter.named<"model"::"unet.down_blocks.2.attentions.1.transformer_blocks.7.attn2.to_v.weight"> : tensor<1280x2048xf16>
  util.global private @_params.unet.down_blocks.2.attentions.1.transformer_blocks.7.attn2.to_out.0.weight {noinline} = #stream.parameter.named<"model"::"unet.down_blocks.2.attentions.1.transformer_blocks.7.attn2.to_out.0.weight"> : tensor<1280x1280xf16>
  util.global private @_params.unet.down_blocks.2.attentions.1.transformer_blocks.7.attn2.to_out.0.bias {noinline} = #stream.parameter.named<"model"::"unet.down_blocks.2.attentions.1.transformer_blocks.7.attn2.to_out.0.bias"> : tensor<1280xf16>
  util.global private @_params.unet.down_blocks.2.attentions.1.transformer_blocks.7.norm3.weight {noinline} = #stream.parameter.named<"model"::"unet.down_blocks.2.attentions.1.transformer_blocks.7.norm3.weight"> : tensor<1280xf16>
  util.global private @_params.unet.down_blocks.2.attentions.1.transformer_blocks.7.norm3.bias {noinline} = #stream.parameter.named<"model"::"unet.down_blocks.2.attentions.1.transformer_blocks.7.norm3.bias"> : tensor<1280xf16>
  util.global private @_params.unet.down_blocks.2.attentions.1.transformer_blocks.7.ff.net.0.proj.weight {noinline} = #stream.parameter.named<"model"::"unet.down_blocks.2.attentions.1.transformer_blocks.7.ff.net.0.proj.weight"> : tensor<10240x1280xf16>
  util.global private @_params.unet.down_blocks.2.attentions.1.transformer_blocks.7.ff.net.0.proj.bias {noinline} = #stream.parameter.named<"model"::"unet.down_blocks.2.attentions.1.transformer_blocks.7.ff.net.0.proj.bias"> : tensor<10240xf16>
  util.global private @_params.unet.down_blocks.2.attentions.1.transformer_blocks.7.ff.net.2.weight {noinline} = #stream.parameter.named<"model"::"unet.down_blocks.2.attentions.1.transformer_blocks.7.ff.net.2.weight"> : tensor<1280x5120xf16>
  util.global private @_params.unet.down_blocks.2.attentions.1.transformer_blocks.7.ff.net.2.bias {noinline} = #stream.parameter.named<"model"::"unet.down_blocks.2.attentions.1.transformer_blocks.7.ff.net.2.bias"> : tensor<1280xf16>
  util.global private @_params.unet.down_blocks.2.attentions.1.transformer_blocks.8.norm1.weight {noinline} = #stream.parameter.named<"model"::"unet.down_blocks.2.attentions.1.transformer_blocks.8.norm1.weight"> : tensor<1280xf16>
  util.global private @_params.unet.down_blocks.2.attentions.1.transformer_blocks.8.norm1.bias {noinline} = #stream.parameter.named<"model"::"unet.down_blocks.2.attentions.1.transformer_blocks.8.norm1.bias"> : tensor<1280xf16>
  util.global private @_params.unet.down_blocks.2.attentions.1.transformer_blocks.8.attn1.to_q.weight {noinline} = #stream.parameter.named<"model"::"unet.down_blocks.2.attentions.1.transformer_blocks.8.attn1.to_q.weight"> : tensor<1280x1280xf16>
  util.global private @_params.unet.down_blocks.2.attentions.1.transformer_blocks.8.attn1.to_k.weight {noinline} = #stream.parameter.named<"model"::"unet.down_blocks.2.attentions.1.transformer_blocks.8.attn1.to_k.weight"> : tensor<1280x1280xf16>
  util.global private @_params.unet.down_blocks.2.attentions.1.transformer_blocks.8.attn1.to_v.weight {noinline} = #stream.parameter.named<"model"::"unet.down_blocks.2.attentions.1.transformer_blocks.8.attn1.to_v.weight"> : tensor<1280x1280xf16>
  util.global private @_params.unet.down_blocks.2.attentions.1.transformer_blocks.8.attn1.to_out.0.weight {noinline} = #stream.parameter.named<"model"::"unet.down_blocks.2.attentions.1.transformer_blocks.8.attn1.to_out.0.weight"> : tensor<1280x1280xf16>
  util.global private @_params.unet.down_blocks.2.attentions.1.transformer_blocks.8.attn1.to_out.0.bias {noinline} = #stream.parameter.named<"model"::"unet.down_blocks.2.attentions.1.transformer_blocks.8.attn1.to_out.0.bias"> : tensor<1280xf16>
  util.global private @_params.unet.down_blocks.2.attentions.1.transformer_blocks.8.norm2.weight {noinline} = #stream.parameter.named<"model"::"unet.down_blocks.2.attentions.1.transformer_blocks.8.norm2.weight"> : tensor<1280xf16>
  util.global private @_params.unet.down_blocks.2.attentions.1.transformer_blocks.8.norm2.bias {noinline} = #stream.parameter.named<"model"::"unet.down_blocks.2.attentions.1.transformer_blocks.8.norm2.bias"> : tensor<1280xf16>
  util.global private @_params.unet.down_blocks.2.attentions.1.transformer_blocks.8.attn2.to_q.weight {noinline} = #stream.parameter.named<"model"::"unet.down_blocks.2.attentions.1.transformer_blocks.8.attn2.to_q.weight"> : tensor<1280x1280xf16>
  util.global private @_params.unet.down_blocks.2.attentions.1.transformer_blocks.8.attn2.to_k.weight {noinline} = #stream.parameter.named<"model"::"unet.down_blocks.2.attentions.1.transformer_blocks.8.attn2.to_k.weight"> : tensor<1280x2048xf16>
  util.global private @_params.unet.down_blocks.2.attentions.1.transformer_blocks.8.attn2.to_v.weight {noinline} = #stream.parameter.named<"model"::"unet.down_blocks.2.attentions.1.transformer_blocks.8.attn2.to_v.weight"> : tensor<1280x2048xf16>
  util.global private @_params.unet.down_blocks.2.attentions.1.transformer_blocks.8.attn2.to_out.0.weight {noinline} = #stream.parameter.named<"model"::"unet.down_blocks.2.attentions.1.transformer_blocks.8.attn2.to_out.0.weight"> : tensor<1280x1280xf16>
  util.global private @_params.unet.down_blocks.2.attentions.1.transformer_blocks.8.attn2.to_out.0.bias {noinline} = #stream.parameter.named<"model"::"unet.down_blocks.2.attentions.1.transformer_blocks.8.attn2.to_out.0.bias"> : tensor<1280xf16>
  util.global private @_params.unet.down_blocks.2.attentions.1.transformer_blocks.8.norm3.weight {noinline} = #stream.parameter.named<"model"::"unet.down_blocks.2.attentions.1.transformer_blocks.8.norm3.weight"> : tensor<1280xf16>
  util.global private @_params.unet.down_blocks.2.attentions.1.transformer_blocks.8.norm3.bias {noinline} = #stream.parameter.named<"model"::"unet.down_blocks.2.attentions.1.transformer_blocks.8.norm3.bias"> : tensor<1280xf16>
  util.global private @_params.unet.down_blocks.2.attentions.1.transformer_blocks.8.ff.net.0.proj.weight {noinline} = #stream.parameter.named<"model"::"unet.down_blocks.2.attentions.1.transformer_blocks.8.ff.net.0.proj.weight"> : tensor<10240x1280xf16>
  util.global private @_params.unet.down_blocks.2.attentions.1.transformer_blocks.8.ff.net.0.proj.bias {noinline} = #stream.parameter.named<"model"::"unet.down_blocks.2.attentions.1.transformer_blocks.8.ff.net.0.proj.bias"> : tensor<10240xf16>
  util.global private @_params.unet.down_blocks.2.attentions.1.transformer_blocks.8.ff.net.2.weight {noinline} = #stream.parameter.named<"model"::"unet.down_blocks.2.attentions.1.transformer_blocks.8.ff.net.2.weight"> : tensor<1280x5120xf16>
  util.global private @_params.unet.down_blocks.2.attentions.1.transformer_blocks.8.ff.net.2.bias {noinline} = #stream.parameter.named<"model"::"unet.down_blocks.2.attentions.1.transformer_blocks.8.ff.net.2.bias"> : tensor<1280xf16>
  util.global private @_params.unet.down_blocks.2.attentions.1.transformer_blocks.9.norm1.weight {noinline} = #stream.parameter.named<"model"::"unet.down_blocks.2.attentions.1.transformer_blocks.9.norm1.weight"> : tensor<1280xf16>
  util.global private @_params.unet.down_blocks.2.attentions.1.transformer_blocks.9.norm1.bias {noinline} = #stream.parameter.named<"model"::"unet.down_blocks.2.attentions.1.transformer_blocks.9.norm1.bias"> : tensor<1280xf16>
  util.global private @_params.unet.down_blocks.2.attentions.1.transformer_blocks.9.attn1.to_q.weight {noinline} = #stream.parameter.named<"model"::"unet.down_blocks.2.attentions.1.transformer_blocks.9.attn1.to_q.weight"> : tensor<1280x1280xf16>
  util.global private @_params.unet.down_blocks.2.attentions.1.transformer_blocks.9.attn1.to_k.weight {noinline} = #stream.parameter.named<"model"::"unet.down_blocks.2.attentions.1.transformer_blocks.9.attn1.to_k.weight"> : tensor<1280x1280xf16>
  util.global private @_params.unet.down_blocks.2.attentions.1.transformer_blocks.9.attn1.to_v.weight {noinline} = #stream.parameter.named<"model"::"unet.down_blocks.2.attentions.1.transformer_blocks.9.attn1.to_v.weight"> : tensor<1280x1280xf16>
  util.global private @_params.unet.down_blocks.2.attentions.1.transformer_blocks.9.attn1.to_out.0.weight {noinline} = #stream.parameter.named<"model"::"unet.down_blocks.2.attentions.1.transformer_blocks.9.attn1.to_out.0.weight"> : tensor<1280x1280xf16>
  util.global private @_params.unet.down_blocks.2.attentions.1.transformer_blocks.9.attn1.to_out.0.bias {noinline} = #stream.parameter.named<"model"::"unet.down_blocks.2.attentions.1.transformer_blocks.9.attn1.to_out.0.bias"> : tensor<1280xf16>
  util.global private @_params.unet.down_blocks.2.attentions.1.transformer_blocks.9.norm2.weight {noinline} = #stream.parameter.named<"model"::"unet.down_blocks.2.attentions.1.transformer_blocks.9.norm2.weight"> : tensor<1280xf16>
  util.global private @_params.unet.down_blocks.2.attentions.1.transformer_blocks.9.norm2.bias {noinline} = #stream.parameter.named<"model"::"unet.down_blocks.2.attentions.1.transformer_blocks.9.norm2.bias"> : tensor<1280xf16>
  util.global private @_params.unet.down_blocks.2.attentions.1.transformer_blocks.9.attn2.to_q.weight {noinline} = #stream.parameter.named<"model"::"unet.down_blocks.2.attentions.1.transformer_blocks.9.attn2.to_q.weight"> : tensor<1280x1280xf16>
  util.global private @_params.unet.down_blocks.2.attentions.1.transformer_blocks.9.attn2.to_k.weight {noinline} = #stream.parameter.named<"model"::"unet.down_blocks.2.attentions.1.transformer_blocks.9.attn2.to_k.weight"> : tensor<1280x2048xf16>
  util.global private @_params.unet.down_blocks.2.attentions.1.transformer_blocks.9.attn2.to_v.weight {noinline} = #stream.parameter.named<"model"::"unet.down_blocks.2.attentions.1.transformer_blocks.9.attn2.to_v.weight"> : tensor<1280x2048xf16>
  util.global private @_params.unet.down_blocks.2.attentions.1.transformer_blocks.9.attn2.to_out.0.weight {noinline} = #stream.parameter.named<"model"::"unet.down_blocks.2.attentions.1.transformer_blocks.9.attn2.to_out.0.weight"> : tensor<1280x1280xf16>
  util.global private @_params.unet.down_blocks.2.attentions.1.transformer_blocks.9.attn2.to_out.0.bias {noinline} = #stream.parameter.named<"model"::"unet.down_blocks.2.attentions.1.transformer_blocks.9.attn2.to_out.0.bias"> : tensor<1280xf16>
  util.global private @_params.unet.down_blocks.2.attentions.1.transformer_blocks.9.norm3.weight {noinline} = #stream.parameter.named<"model"::"unet.down_blocks.2.attentions.1.transformer_blocks.9.norm3.weight"> : tensor<1280xf16>
  util.global private @_params.unet.down_blocks.2.attentions.1.transformer_blocks.9.norm3.bias {noinline} = #stream.parameter.named<"model"::"unet.down_blocks.2.attentions.1.transformer_blocks.9.norm3.bias"> : tensor<1280xf16>
  util.global private @_params.unet.down_blocks.2.attentions.1.transformer_blocks.9.ff.net.0.proj.weight {noinline} = #stream.parameter.named<"model"::"unet.down_blocks.2.attentions.1.transformer_blocks.9.ff.net.0.proj.weight"> : tensor<10240x1280xf16>
  util.global private @_params.unet.down_blocks.2.attentions.1.transformer_blocks.9.ff.net.0.proj.bias {noinline} = #stream.parameter.named<"model"::"unet.down_blocks.2.attentions.1.transformer_blocks.9.ff.net.0.proj.bias"> : tensor<10240xf16>
  util.global private @_params.unet.down_blocks.2.attentions.1.transformer_blocks.9.ff.net.2.weight {noinline} = #stream.parameter.named<"model"::"unet.down_blocks.2.attentions.1.transformer_blocks.9.ff.net.2.weight"> : tensor<1280x5120xf16>
  util.global private @_params.unet.down_blocks.2.attentions.1.transformer_blocks.9.ff.net.2.bias {noinline} = #stream.parameter.named<"model"::"unet.down_blocks.2.attentions.1.transformer_blocks.9.ff.net.2.bias"> : tensor<1280xf16>
  util.global private @_params.unet.down_blocks.2.attentions.1.proj_out.weight {noinline} = #stream.parameter.named<"model"::"unet.down_blocks.2.attentions.1.proj_out.weight"> : tensor<1280x1280xf16>
  util.global private @_params.unet.down_blocks.2.attentions.1.proj_out.bias {noinline} = #stream.parameter.named<"model"::"unet.down_blocks.2.attentions.1.proj_out.bias"> : tensor<1280xf16>
  util.global private @_params.unet.down_blocks.2.resnets.0.norm1.weight {noinline} = #stream.parameter.named<"model"::"unet.down_blocks.2.resnets.0.norm1.weight"> : tensor<640xf16>
  util.global private @_params.unet.down_blocks.2.resnets.0.norm1.bias {noinline} = #stream.parameter.named<"model"::"unet.down_blocks.2.resnets.0.norm1.bias"> : tensor<640xf16>
  util.global private @_params.unet.down_blocks.2.resnets.0.conv1.weight {noinline} = #stream.parameter.named<"model"::"unet.down_blocks.2.resnets.0.conv1.weight"> : tensor<1280x640x3x3xf16>
  util.global private @_params.unet.down_blocks.2.resnets.0.conv1.bias {noinline} = #stream.parameter.named<"model"::"unet.down_blocks.2.resnets.0.conv1.bias"> : tensor<1280xf16>
  util.global private @_params.unet.down_blocks.2.resnets.0.time_emb_proj.weight {noinline} = #stream.parameter.named<"model"::"unet.down_blocks.2.resnets.0.time_emb_proj.weight"> : tensor<1280x1280xf16>
  util.global private @_params.unet.down_blocks.2.resnets.0.time_emb_proj.bias {noinline} = #stream.parameter.named<"model"::"unet.down_blocks.2.resnets.0.time_emb_proj.bias"> : tensor<1280xf16>
  util.global private @_params.unet.down_blocks.2.resnets.0.norm2.weight {noinline} = #stream.parameter.named<"model"::"unet.down_blocks.2.resnets.0.norm2.weight"> : tensor<1280xf16>
  util.global private @_params.unet.down_blocks.2.resnets.0.norm2.bias {noinline} = #stream.parameter.named<"model"::"unet.down_blocks.2.resnets.0.norm2.bias"> : tensor<1280xf16>
  util.global private @_params.unet.down_blocks.2.resnets.0.conv2.weight {noinline} = #stream.parameter.named<"model"::"unet.down_blocks.2.resnets.0.conv2.weight"> : tensor<1280x1280x3x3xf16>
  util.global private @_params.unet.down_blocks.2.resnets.0.conv2.bias {noinline} = #stream.parameter.named<"model"::"unet.down_blocks.2.resnets.0.conv2.bias"> : tensor<1280xf16>
  util.global private @_params.unet.down_blocks.2.resnets.0.conv_shortcut.weight {noinline} = #stream.parameter.named<"model"::"unet.down_blocks.2.resnets.0.conv_shortcut.weight"> : tensor<1280x640x1x1xf16>
  util.global private @_params.unet.down_blocks.2.resnets.0.conv_shortcut.bias {noinline} = #stream.parameter.named<"model"::"unet.down_blocks.2.resnets.0.conv_shortcut.bias"> : tensor<1280xf16>
  util.global private @_params.unet.down_blocks.2.resnets.1.norm1.weight {noinline} = #stream.parameter.named<"model"::"unet.down_blocks.2.resnets.1.norm1.weight"> : tensor<1280xf16>
  util.global private @_params.unet.down_blocks.2.resnets.1.norm1.bias {noinline} = #stream.parameter.named<"model"::"unet.down_blocks.2.resnets.1.norm1.bias"> : tensor<1280xf16>
  util.global private @_params.unet.down_blocks.2.resnets.1.conv1.weight {noinline} = #stream.parameter.named<"model"::"unet.down_blocks.2.resnets.1.conv1.weight"> : tensor<1280x1280x3x3xf16>
  util.global private @_params.unet.down_blocks.2.resnets.1.conv1.bias {noinline} = #stream.parameter.named<"model"::"unet.down_blocks.2.resnets.1.conv1.bias"> : tensor<1280xf16>
  util.global private @_params.unet.down_blocks.2.resnets.1.time_emb_proj.weight {noinline} = #stream.parameter.named<"model"::"unet.down_blocks.2.resnets.1.time_emb_proj.weight"> : tensor<1280x1280xf16>
  util.global private @_params.unet.down_blocks.2.resnets.1.time_emb_proj.bias {noinline} = #stream.parameter.named<"model"::"unet.down_blocks.2.resnets.1.time_emb_proj.bias"> : tensor<1280xf16>
  util.global private @_params.unet.down_blocks.2.resnets.1.norm2.weight {noinline} = #stream.parameter.named<"model"::"unet.down_blocks.2.resnets.1.norm2.weight"> : tensor<1280xf16>
  util.global private @_params.unet.down_blocks.2.resnets.1.norm2.bias {noinline} = #stream.parameter.named<"model"::"unet.down_blocks.2.resnets.1.norm2.bias"> : tensor<1280xf16>
  util.global private @_params.unet.down_blocks.2.resnets.1.conv2.weight {noinline} = #stream.parameter.named<"model"::"unet.down_blocks.2.resnets.1.conv2.weight"> : tensor<1280x1280x3x3xf16>
  util.global private @_params.unet.down_blocks.2.resnets.1.conv2.bias {noinline} = #stream.parameter.named<"model"::"unet.down_blocks.2.resnets.1.conv2.bias"> : tensor<1280xf16>
  util.global private @_params.unet.up_blocks.0.attentions.0.norm.weight {noinline} = #stream.parameter.named<"model"::"unet.up_blocks.0.attentions.0.norm.weight"> : tensor<1280xf16>
  util.global private @_params.unet.up_blocks.0.attentions.0.norm.bias {noinline} = #stream.parameter.named<"model"::"unet.up_blocks.0.attentions.0.norm.bias"> : tensor<1280xf16>
  util.global private @_params.unet.up_blocks.0.attentions.0.proj_in.weight {noinline} = #stream.parameter.named<"model"::"unet.up_blocks.0.attentions.0.proj_in.weight"> : tensor<1280x1280xf16>
  util.global private @_params.unet.up_blocks.0.attentions.0.proj_in.bias {noinline} = #stream.parameter.named<"model"::"unet.up_blocks.0.attentions.0.proj_in.bias"> : tensor<1280xf16>
  util.global private @_params.unet.up_blocks.0.attentions.0.transformer_blocks.0.norm1.weight {noinline} = #stream.parameter.named<"model"::"unet.up_blocks.0.attentions.0.transformer_blocks.0.norm1.weight"> : tensor<1280xf16>
  util.global private @_params.unet.up_blocks.0.attentions.0.transformer_blocks.0.norm1.bias {noinline} = #stream.parameter.named<"model"::"unet.up_blocks.0.attentions.0.transformer_blocks.0.norm1.bias"> : tensor<1280xf16>
  util.global private @_params.unet.up_blocks.0.attentions.0.transformer_blocks.0.attn1.to_q.weight {noinline} = #stream.parameter.named<"model"::"unet.up_blocks.0.attentions.0.transformer_blocks.0.attn1.to_q.weight"> : tensor<1280x1280xf16>
  util.global private @_params.unet.up_blocks.0.attentions.0.transformer_blocks.0.attn1.to_k.weight {noinline} = #stream.parameter.named<"model"::"unet.up_blocks.0.attentions.0.transformer_blocks.0.attn1.to_k.weight"> : tensor<1280x1280xf16>
  util.global private @_params.unet.up_blocks.0.attentions.0.transformer_blocks.0.attn1.to_v.weight {noinline} = #stream.parameter.named<"model"::"unet.up_blocks.0.attentions.0.transformer_blocks.0.attn1.to_v.weight"> : tensor<1280x1280xf16>
  util.global private @_params.unet.up_blocks.0.attentions.0.transformer_blocks.0.attn1.to_out.0.weight {noinline} = #stream.parameter.named<"model"::"unet.up_blocks.0.attentions.0.transformer_blocks.0.attn1.to_out.0.weight"> : tensor<1280x1280xf16>
  util.global private @_params.unet.up_blocks.0.attentions.0.transformer_blocks.0.attn1.to_out.0.bias {noinline} = #stream.parameter.named<"model"::"unet.up_blocks.0.attentions.0.transformer_blocks.0.attn1.to_out.0.bias"> : tensor<1280xf16>
  util.global private @_params.unet.up_blocks.0.attentions.0.transformer_blocks.0.norm2.weight {noinline} = #stream.parameter.named<"model"::"unet.up_blocks.0.attentions.0.transformer_blocks.0.norm2.weight"> : tensor<1280xf16>
  util.global private @_params.unet.up_blocks.0.attentions.0.transformer_blocks.0.norm2.bias {noinline} = #stream.parameter.named<"model"::"unet.up_blocks.0.attentions.0.transformer_blocks.0.norm2.bias"> : tensor<1280xf16>
  util.global private @_params.unet.up_blocks.0.attentions.0.transformer_blocks.0.attn2.to_q.weight {noinline} = #stream.parameter.named<"model"::"unet.up_blocks.0.attentions.0.transformer_blocks.0.attn2.to_q.weight"> : tensor<1280x1280xf16>
  util.global private @_params.unet.up_blocks.0.attentions.0.transformer_blocks.0.attn2.to_k.weight {noinline} = #stream.parameter.named<"model"::"unet.up_blocks.0.attentions.0.transformer_blocks.0.attn2.to_k.weight"> : tensor<1280x2048xf16>
  util.global private @_params.unet.up_blocks.0.attentions.0.transformer_blocks.0.attn2.to_v.weight {noinline} = #stream.parameter.named<"model"::"unet.up_blocks.0.attentions.0.transformer_blocks.0.attn2.to_v.weight"> : tensor<1280x2048xf16>
  util.global private @_params.unet.up_blocks.0.attentions.0.transformer_blocks.0.attn2.to_out.0.weight {noinline} = #stream.parameter.named<"model"::"unet.up_blocks.0.attentions.0.transformer_blocks.0.attn2.to_out.0.weight"> : tensor<1280x1280xf16>
  util.global private @_params.unet.up_blocks.0.attentions.0.transformer_blocks.0.attn2.to_out.0.bias {noinline} = #stream.parameter.named<"model"::"unet.up_blocks.0.attentions.0.transformer_blocks.0.attn2.to_out.0.bias"> : tensor<1280xf16>
  util.global private @_params.unet.up_blocks.0.attentions.0.transformer_blocks.0.norm3.weight {noinline} = #stream.parameter.named<"model"::"unet.up_blocks.0.attentions.0.transformer_blocks.0.norm3.weight"> : tensor<1280xf16>
  util.global private @_params.unet.up_blocks.0.attentions.0.transformer_blocks.0.norm3.bias {noinline} = #stream.parameter.named<"model"::"unet.up_blocks.0.attentions.0.transformer_blocks.0.norm3.bias"> : tensor<1280xf16>
  util.global private @_params.unet.up_blocks.0.attentions.0.transformer_blocks.0.ff.net.0.proj.weight {noinline} = #stream.parameter.named<"model"::"unet.up_blocks.0.attentions.0.transformer_blocks.0.ff.net.0.proj.weight"> : tensor<10240x1280xf16>
  util.global private @_params.unet.up_blocks.0.attentions.0.transformer_blocks.0.ff.net.0.proj.bias {noinline} = #stream.parameter.named<"model"::"unet.up_blocks.0.attentions.0.transformer_blocks.0.ff.net.0.proj.bias"> : tensor<10240xf16>
  util.global private @_params.unet.up_blocks.0.attentions.0.transformer_blocks.0.ff.net.2.weight {noinline} = #stream.parameter.named<"model"::"unet.up_blocks.0.attentions.0.transformer_blocks.0.ff.net.2.weight"> : tensor<1280x5120xf16>
  util.global private @_params.unet.up_blocks.0.attentions.0.transformer_blocks.0.ff.net.2.bias {noinline} = #stream.parameter.named<"model"::"unet.up_blocks.0.attentions.0.transformer_blocks.0.ff.net.2.bias"> : tensor<1280xf16>
  util.global private @_params.unet.up_blocks.0.attentions.0.transformer_blocks.1.norm1.weight {noinline} = #stream.parameter.named<"model"::"unet.up_blocks.0.attentions.0.transformer_blocks.1.norm1.weight"> : tensor<1280xf16>
  util.global private @_params.unet.up_blocks.0.attentions.0.transformer_blocks.1.norm1.bias {noinline} = #stream.parameter.named<"model"::"unet.up_blocks.0.attentions.0.transformer_blocks.1.norm1.bias"> : tensor<1280xf16>
  util.global private @_params.unet.up_blocks.0.attentions.0.transformer_blocks.1.attn1.to_q.weight {noinline} = #stream.parameter.named<"model"::"unet.up_blocks.0.attentions.0.transformer_blocks.1.attn1.to_q.weight"> : tensor<1280x1280xf16>
  util.global private @_params.unet.up_blocks.0.attentions.0.transformer_blocks.1.attn1.to_k.weight {noinline} = #stream.parameter.named<"model"::"unet.up_blocks.0.attentions.0.transformer_blocks.1.attn1.to_k.weight"> : tensor<1280x1280xf16>
  util.global private @_params.unet.up_blocks.0.attentions.0.transformer_blocks.1.attn1.to_v.weight {noinline} = #stream.parameter.named<"model"::"unet.up_blocks.0.attentions.0.transformer_blocks.1.attn1.to_v.weight"> : tensor<1280x1280xf16>
  util.global private @_params.unet.up_blocks.0.attentions.0.transformer_blocks.1.attn1.to_out.0.weight {noinline} = #stream.parameter.named<"model"::"unet.up_blocks.0.attentions.0.transformer_blocks.1.attn1.to_out.0.weight"> : tensor<1280x1280xf16>
  util.global private @_params.unet.up_blocks.0.attentions.0.transformer_blocks.1.attn1.to_out.0.bias {noinline} = #stream.parameter.named<"model"::"unet.up_blocks.0.attentions.0.transformer_blocks.1.attn1.to_out.0.bias"> : tensor<1280xf16>
  util.global private @_params.unet.up_blocks.0.attentions.0.transformer_blocks.1.norm2.weight {noinline} = #stream.parameter.named<"model"::"unet.up_blocks.0.attentions.0.transformer_blocks.1.norm2.weight"> : tensor<1280xf16>
  util.global private @_params.unet.up_blocks.0.attentions.0.transformer_blocks.1.norm2.bias {noinline} = #stream.parameter.named<"model"::"unet.up_blocks.0.attentions.0.transformer_blocks.1.norm2.bias"> : tensor<1280xf16>
  util.global private @_params.unet.up_blocks.0.attentions.0.transformer_blocks.1.attn2.to_q.weight {noinline} = #stream.parameter.named<"model"::"unet.up_blocks.0.attentions.0.transformer_blocks.1.attn2.to_q.weight"> : tensor<1280x1280xf16>
  util.global private @_params.unet.up_blocks.0.attentions.0.transformer_blocks.1.attn2.to_k.weight {noinline} = #stream.parameter.named<"model"::"unet.up_blocks.0.attentions.0.transformer_blocks.1.attn2.to_k.weight"> : tensor<1280x2048xf16>
  util.global private @_params.unet.up_blocks.0.attentions.0.transformer_blocks.1.attn2.to_v.weight {noinline} = #stream.parameter.named<"model"::"unet.up_blocks.0.attentions.0.transformer_blocks.1.attn2.to_v.weight"> : tensor<1280x2048xf16>
  util.global private @_params.unet.up_blocks.0.attentions.0.transformer_blocks.1.attn2.to_out.0.weight {noinline} = #stream.parameter.named<"model"::"unet.up_blocks.0.attentions.0.transformer_blocks.1.attn2.to_out.0.weight"> : tensor<1280x1280xf16>
  util.global private @_params.unet.up_blocks.0.attentions.0.transformer_blocks.1.attn2.to_out.0.bias {noinline} = #stream.parameter.named<"model"::"unet.up_blocks.0.attentions.0.transformer_blocks.1.attn2.to_out.0.bias"> : tensor<1280xf16>
  util.global private @_params.unet.up_blocks.0.attentions.0.transformer_blocks.1.norm3.weight {noinline} = #stream.parameter.named<"model"::"unet.up_blocks.0.attentions.0.transformer_blocks.1.norm3.weight"> : tensor<1280xf16>
  util.global private @_params.unet.up_blocks.0.attentions.0.transformer_blocks.1.norm3.bias {noinline} = #stream.parameter.named<"model"::"unet.up_blocks.0.attentions.0.transformer_blocks.1.norm3.bias"> : tensor<1280xf16>
  util.global private @_params.unet.up_blocks.0.attentions.0.transformer_blocks.1.ff.net.0.proj.weight {noinline} = #stream.parameter.named<"model"::"unet.up_blocks.0.attentions.0.transformer_blocks.1.ff.net.0.proj.weight"> : tensor<10240x1280xf16>
  util.global private @_params.unet.up_blocks.0.attentions.0.transformer_blocks.1.ff.net.0.proj.bias {noinline} = #stream.parameter.named<"model"::"unet.up_blocks.0.attentions.0.transformer_blocks.1.ff.net.0.proj.bias"> : tensor<10240xf16>
  util.global private @_params.unet.up_blocks.0.attentions.0.transformer_blocks.1.ff.net.2.weight {noinline} = #stream.parameter.named<"model"::"unet.up_blocks.0.attentions.0.transformer_blocks.1.ff.net.2.weight"> : tensor<1280x5120xf16>
  util.global private @_params.unet.up_blocks.0.attentions.0.transformer_blocks.1.ff.net.2.bias {noinline} = #stream.parameter.named<"model"::"unet.up_blocks.0.attentions.0.transformer_blocks.1.ff.net.2.bias"> : tensor<1280xf16>
  util.global private @_params.unet.up_blocks.0.attentions.0.transformer_blocks.2.norm1.weight {noinline} = #stream.parameter.named<"model"::"unet.up_blocks.0.attentions.0.transformer_blocks.2.norm1.weight"> : tensor<1280xf16>
  util.global private @_params.unet.up_blocks.0.attentions.0.transformer_blocks.2.norm1.bias {noinline} = #stream.parameter.named<"model"::"unet.up_blocks.0.attentions.0.transformer_blocks.2.norm1.bias"> : tensor<1280xf16>
  util.global private @_params.unet.up_blocks.0.attentions.0.transformer_blocks.2.attn1.to_q.weight {noinline} = #stream.parameter.named<"model"::"unet.up_blocks.0.attentions.0.transformer_blocks.2.attn1.to_q.weight"> : tensor<1280x1280xf16>
  util.global private @_params.unet.up_blocks.0.attentions.0.transformer_blocks.2.attn1.to_k.weight {noinline} = #stream.parameter.named<"model"::"unet.up_blocks.0.attentions.0.transformer_blocks.2.attn1.to_k.weight"> : tensor<1280x1280xf16>
  util.global private @_params.unet.up_blocks.0.attentions.0.transformer_blocks.2.attn1.to_v.weight {noinline} = #stream.parameter.named<"model"::"unet.up_blocks.0.attentions.0.transformer_blocks.2.attn1.to_v.weight"> : tensor<1280x1280xf16>
  util.global private @_params.unet.up_blocks.0.attentions.0.transformer_blocks.2.attn1.to_out.0.weight {noinline} = #stream.parameter.named<"model"::"unet.up_blocks.0.attentions.0.transformer_blocks.2.attn1.to_out.0.weight"> : tensor<1280x1280xf16>
  util.global private @_params.unet.up_blocks.0.attentions.0.transformer_blocks.2.attn1.to_out.0.bias {noinline} = #stream.parameter.named<"model"::"unet.up_blocks.0.attentions.0.transformer_blocks.2.attn1.to_out.0.bias"> : tensor<1280xf16>
  util.global private @_params.unet.up_blocks.0.attentions.0.transformer_blocks.2.norm2.weight {noinline} = #stream.parameter.named<"model"::"unet.up_blocks.0.attentions.0.transformer_blocks.2.norm2.weight"> : tensor<1280xf16>
  util.global private @_params.unet.up_blocks.0.attentions.0.transformer_blocks.2.norm2.bias {noinline} = #stream.parameter.named<"model"::"unet.up_blocks.0.attentions.0.transformer_blocks.2.norm2.bias"> : tensor<1280xf16>
  util.global private @_params.unet.up_blocks.0.attentions.0.transformer_blocks.2.attn2.to_q.weight {noinline} = #stream.parameter.named<"model"::"unet.up_blocks.0.attentions.0.transformer_blocks.2.attn2.to_q.weight"> : tensor<1280x1280xf16>
  util.global private @_params.unet.up_blocks.0.attentions.0.transformer_blocks.2.attn2.to_k.weight {noinline} = #stream.parameter.named<"model"::"unet.up_blocks.0.attentions.0.transformer_blocks.2.attn2.to_k.weight"> : tensor<1280x2048xf16>
  util.global private @_params.unet.up_blocks.0.attentions.0.transformer_blocks.2.attn2.to_v.weight {noinline} = #stream.parameter.named<"model"::"unet.up_blocks.0.attentions.0.transformer_blocks.2.attn2.to_v.weight"> : tensor<1280x2048xf16>
  util.global private @_params.unet.up_blocks.0.attentions.0.transformer_blocks.2.attn2.to_out.0.weight {noinline} = #stream.parameter.named<"model"::"unet.up_blocks.0.attentions.0.transformer_blocks.2.attn2.to_out.0.weight"> : tensor<1280x1280xf16>
  util.global private @_params.unet.up_blocks.0.attentions.0.transformer_blocks.2.attn2.to_out.0.bias {noinline} = #stream.parameter.named<"model"::"unet.up_blocks.0.attentions.0.transformer_blocks.2.attn2.to_out.0.bias"> : tensor<1280xf16>
  util.global private @_params.unet.up_blocks.0.attentions.0.transformer_blocks.2.norm3.weight {noinline} = #stream.parameter.named<"model"::"unet.up_blocks.0.attentions.0.transformer_blocks.2.norm3.weight"> : tensor<1280xf16>
  util.global private @_params.unet.up_blocks.0.attentions.0.transformer_blocks.2.norm3.bias {noinline} = #stream.parameter.named<"model"::"unet.up_blocks.0.attentions.0.transformer_blocks.2.norm3.bias"> : tensor<1280xf16>
  util.global private @_params.unet.up_blocks.0.attentions.0.transformer_blocks.2.ff.net.0.proj.weight {noinline} = #stream.parameter.named<"model"::"unet.up_blocks.0.attentions.0.transformer_blocks.2.ff.net.0.proj.weight"> : tensor<10240x1280xf16>
  util.global private @_params.unet.up_blocks.0.attentions.0.transformer_blocks.2.ff.net.0.proj.bias {noinline} = #stream.parameter.named<"model"::"unet.up_blocks.0.attentions.0.transformer_blocks.2.ff.net.0.proj.bias"> : tensor<10240xf16>
  util.global private @_params.unet.up_blocks.0.attentions.0.transformer_blocks.2.ff.net.2.weight {noinline} = #stream.parameter.named<"model"::"unet.up_blocks.0.attentions.0.transformer_blocks.2.ff.net.2.weight"> : tensor<1280x5120xf16>
  util.global private @_params.unet.up_blocks.0.attentions.0.transformer_blocks.2.ff.net.2.bias {noinline} = #stream.parameter.named<"model"::"unet.up_blocks.0.attentions.0.transformer_blocks.2.ff.net.2.bias"> : tensor<1280xf16>
…
    %16375 = torch_c.from_builtin_tensor %_params.unet.up_blocks.2.resnets.0.norm2.bias : tensor<320xf16> -> !torch.vtensor<[320],f16>
    %16376 = torch.aten.unsqueeze %16375, %int0 : !torch.vtensor<[320],f16>, !torch.int -> !torch.vtensor<[1,320],f16>
    %16377 = torch.aten.unsqueeze %16376, %int2 : !torch.vtensor<[1,320],f16>, !torch.int -> !torch.vtensor<[1,320,1],f16>
    %16378 = torch.aten.unsqueeze %16377, %int3 : !torch.vtensor<[1,320,1],f16>, !torch.int -> !torch.vtensor<[1,320,1,1],f16>
    %_params.unet.up_blocks.2.resnets.0.norm2.weight = util.global.load @_params.unet.up_blocks.2.resnets.0.norm2.weight : tensor<320xf16>
    %16379 = torch_c.from_builtin_tensor %_params.unet.up_blocks.2.resnets.0.norm2.weight : tensor<320xf16> -> !torch.vtensor<[320],f16>
    %16380 = torch.aten.unsqueeze %16379, %int0 : !torch.vtensor<[320],f16>, !torch.int -> !torch.vtensor<[1,320],f16>
    %16381 = torch.aten.unsqueeze %16380, %int2 : !torch.vtensor<[1,320],f16>, !torch.int -> !torch.vtensor<[1,320,1],f16>
    %16382 = torch.aten.unsqueeze %16381, %int3 : !torch.vtensor<[1,320,1],f16>, !torch.int -> !torch.vtensor<[1,320,1,1],f16>
    %16383 = torch.aten.mul.Tensor %16374, %16382 : !torch.vtensor<[2,320,128,128],f32>, !torch.vtensor<[1,320,1,1],f16> -> !torch.vtensor<[2,320,128,128],f32>
    %16384 = torch.aten.add.Tensor %16383, %16378, %int1 : !torch.vtensor<[2,320,128,128],f32>, !torch.vtensor<[1,320,1,1],f16>, !torch.int -> !torch.vtensor<[2,320,128,128],f32>
    %16385 = torch.prims.convert_element_type %16384, %int5 : !torch.vtensor<[2,320,128,128],f32>, !torch.int -> !torch.vtensor<[2,320,128,128],f16>
    %16386 = torch.prims.convert_element_type %result1_504, %int5 : !torch.vtensor<[2,32,1,1],f32>, !torch.int -> !torch.vtensor<[2,32,1,1],f16>
    %16387 = torch.prims.convert_element_type %16370, %int5 : !torch.vtensor<[2,32,1,1],f32>, !torch.int -> !torch.vtensor<[2,32,1,1],f16>
    %16388 = torch.prim.ListConstruct %int3 : (!torch.int) -> !torch.list<int>
    %16389 = torch.prims.squeeze %16386, %16388 : !torch.vtensor<[2,32,1,1],f16>, !torch.list<int> -> !torch.vtensor<[2,32,1],f16>
    %16390 = torch.prim.ListConstruct %int2 : (!torch.int) -> !torch.list<int>
    %16391 = torch.prims.squeeze %16389, %16390 : !torch.vtensor<[2,32,1],f16>, !torch.list<int> -> !torch.vtensor<[2,32],f16>
    %16392 = torch.prim.ListConstruct %int3 : (!torch.int) -> !torch.list<int>
    %16393 = torch.prims.squeeze %16387, %16392 : !torch.vtensor<[2,32,1,1],f16>, !torch.list<int> -> !torch.vtensor<[2,32,1],f16>
    %16394 = torch.prim.ListConstruct %int2 : (!torch.int) -> !torch.list<int>
    %16395 = torch.prims.squeeze %16393, %16394 : !torch.vtensor<[2,32,1],f16>, !torch.list<int> -> !torch.vtensor<[2,32],f16>
    %16396 = torch.aten.silu %16385 : !torch.vtensor<[2,320,128,128],f16> -> !torch.vtensor<[2,320,128,128],f16>
    %_params.unet.up_blocks.2.resnets.0.conv2.weight = util.global.load @_params.unet.up_blocks.2.resnets.0.conv2.weight : tensor<320x320x3x3xf16>
    %16397 = torch_c.from_builtin_tensor %_params.unet.up_blocks.2.resnets.0.conv2.weight : tensor<320x320x3x3xf16> -> !torch.vtensor<[320,320,3,3],f16>
    %_params.unet.up_blocks.2.resnets.0.conv2.bias = util.global.load @_params.unet.up_blocks.2.resnets.0.conv2.bias : tensor<320xf16>
    %16398 = torch_c.from_builtin_tensor %_params.unet.up_blocks.2.resnets.0.conv2.bias : tensor<320xf16> -> !torch.vtensor<[320],f16>
    %16399 = torch.prim.ListConstruct %int1, %int1 : (!torch.int, !torch.int) -> !torch.list<int>
    %16400 = torch.prim.ListConstruct %int1, %int1 : (!torch.int, !torch.int) -> !torch.list<int>
    %16401 = torch.prim.ListConstruct %int1, %int1 : (!torch.int, !torch.int) -> !torch.list<int>
    %16402 = torch.prim.ListConstruct %int0, %int0 : (!torch.int, !torch.int) -> !torch.list<int>
    %16403 = torch.aten.convolution %16396, %16397, %16398, %16399, %16400, %16401, %false, %16402, %int1 : !torch.vtensor<[2,320,128,128],f16>, !torch.vtensor<[320,320,3,3],f16>, !torch.vtensor<[320],f16>, !torch.list<int>, !torch.list<int>, !torch.list<int>, !torch.bool, !torch.list<int>, !torch.int -> !torch.vtensor<[2,320,128,128],f16>
    %_params.unet.up_blocks.2.resnets.0.conv_shortcut.weight = util.global.load @_params.unet.up_blocks.2.resnets.0.conv_shortcut.weight : tensor<320x960x1x1xf16>
    %16404 = torch_c.from_builtin_tensor %_params.unet.up_blocks.2.resnets.0.conv_shortcut.weight : tensor<320x960x1x1xf16> -> !torch.vtensor<[320,960,1,1],f16>
    %_params.unet.up_blocks.2.resnets.0.conv_shortcut.bias = util.global.load @_params.unet.up_blocks.2.resnets.0.conv_shortcut.bias : tensor<320xf16>
    %16405 = torch_c.from_builtin_tensor %_params.unet.up_blocks.2.resnets.0.conv_shortcut.bias : tensor<320xf16> -> !torch.vtensor<[320],f16>
    %16406 = torch.prim.ListConstruct %int1, %int1 : (!torch.int, !torch.int) -> !torch.list<int>
    %16407 = torch.prim.ListConstruct %int0, %int0 : (!torch.int, !torch.int) -> !torch.list<int>
    %16408 = torch.prim.ListConstruct %int1, %int1 : (!torch.int, !torch.int) -> !torch.list<int>
    %16409 = torch.prim.ListConstruct %int0, %int0 : (!torch.int, !torch.int) -> !torch.list<int>
    %16410 = torch.aten.convolution %16310, %16404, %16405, %16406, %16407, %16408, %false, %16409, %int1 : !torch.vtensor<[2,960,128,128],f16>, !torch.vtensor<[320,960,1,1],f16>, !torch.vtensor<[320],f16>, !torch.list<int>, !torch.list<int>, !torch.list<int>, !torch.bool, !torch.list<int>, !torch.int -> !torch.vtensor<[2,320,128,128],f16>
    %16411 = torch.aten.add.Tensor %16410, %16403, %int1 : !torch.vtensor<[2,320,128,128],f16>, !torch.vtensor<[2,320,128,128],f16>, !torch.int -> !torch.vtensor<[2,320,128,128],f16>
    %16412 = torch.aten.div.Scalar %16411, %float1.000000e00 : !torch.vtensor<[2,320,128,128],f16>, !torch.float -> !torch.vtensor<[2,320,128,128],f16>
    %16413 = torch.prim.ListConstruct %16412, %205 : (!torch.vtensor<[2,320,128,128],f16>, !torch.vtensor<[2,320,128,128],f16>) -> !torch.list<vtensor>
    %16414 = torch.aten.cat %16413, %int1 : !torch.list<vtensor>, !torch.int -> !torch.vtensor<[2,640,128,128],f16>
    %16415 = torch.prim.ListConstruct %int2, %int32, %int20, %int16384 : (!torch.int, !torch.int, !torch.int, !torch.int) -> !torch.list<int>
    %16416 = torch.aten.view %16414, %16415 : !torch.vtensor<[2,640,128,128],f16>, !torch.list<int> -> !torch.vtensor<[2,32,20,16384],f16>
    %16417 = torch.prims.convert_element_type %16416, %int6 : !torch.vtensor<[2,32,20,16384],f16>, !torch.int -> !torch.vtensor<[2,32,20,16384],f32>
    %16418 = torch.prim.ListConstruct %int2, %int3 : (!torch.int, !torch.int) -> !torch.list<int>
    %result0_505, %result1_506 = torch.aten.var_mean.correction %16417, %16418, %int0, %true : !torch.vtensor<[2,32,20,16384],f32>, !torch.list<int>, !torch.int, !torch.bool -> !torch.vtensor<[2,32,1,1],f32>, !torch.vtensor<[2,32,1,1],f32>
    %16419 = torch.aten.add.Scalar %result0_505, %float1.000000e-05, %int1 : !torch.vtensor<[2,32,1,1],f32>, !torch.float, !torch.int -> !torch.vtensor<[2,32,1,1],f32>
    %16420 = torch.aten.rsqrt %16419 : !torch.vtensor<[2,32,1,1],f32> -> !torch.vtensor<[2,32,1,1],f32>
    %16421 = torch.aten.sub.Tensor %16416, %result1_506, %int1 : !torch.vtensor<[2,32,20,16384],f16>, !torch.vtensor<[2,32,1,1],f32>, !torch.int -> !torch.vtensor<[2,32,20,16384],f32>
    %16422 = torch.aten.mul.Tensor %16421, %16420 : !torch.vtensor<[2,32,20,16384],f32>, !torch.vtensor<[2,32,1,1],f32> -> !torch.vtensor<[2,32,20,16384],f32>
    %16423 = torch.prim.ListConstruct %int2, %int640, %int128, %int128 : (!torch.int, !torch.int, !torch.int, !torch.int) -> !torch.list<int>
    %16424 = torch.aten.view %16422, %16423 : !torch.vtensor<[2,32,20,16384],f32>, !torch.list<int> -> !torch.vtensor<[2,640,128,128],f32>
    %_params.unet.up_blocks.2.resnets.1.norm1.bias = util.global.load @_params.unet.up_blocks.2.resnets.1.norm1.bias : tensor<640xf16>
    %16425 = torch_c.from_builtin_tensor %_params.unet.up_blocks.2.resnets.1.norm1.bias : tensor<640xf16> -> !torch.vtensor<[640],f16>
    %16426 = torch.aten.unsqueeze %16425, %int0 : !torch.vtensor<[640],f16>, !torch.int -> !torch.vtensor<[1,640],f16>
    %16427 = torch.aten.unsqueeze %16426, %int2 : !torch.vtensor<[1,640],f16>, !torch.int -> !torch.vtensor<[1,640,1],f16>
    %16428 = torch.aten.unsqueeze %16427, %int3 : !torch.vtensor<[1,640,1],f16>, !torch.int -> !torch.vtensor<[1,640,1,1],f16>
    %_params.unet.up_blocks.2.resnets.1.norm1.weight = util.global.load @_params.unet.up_blocks.2.resnets.1.norm1.weight : tensor<640xf16>
    %16429 = torch_c.from_builtin_tensor %_params.unet.up_blocks.2.resnets.1.norm1.weight : tensor<640xf16> -> !torch.vtensor<[640],f16>
    %16430 = torch.aten.unsqueeze %16429, %int0 : !torch.vtensor<[640],f16>, !torch.int -> !torch.vtensor<[1,640],f16>
    %16431 = torch.aten.unsqueeze %16430, %int2 : !torch.vtensor<[1,640],f16>, !torch.int -> !torch.vtensor<[1,640,1],f16>
    %16432 = torch.aten.unsqueeze %16431, %int3 : !torch.vtensor<[1,640,1],f16>, !torch.int -> !torch.vtensor<[1,640,1,1],f16>
    %16433 = torch.aten.mul.Tensor %16424, %16432 : !torch.vtensor<[2,640,128,128],f32>, !torch.vtensor<[1,640,1,1],f16> -> !torch.vtensor<[2,640,128,128],f32>
    %16434 = torch.aten.add.Tensor %16433, %16428, %int1 : !torch.vtensor<[2,640,128,128],f32>, !torch.vtensor<[1,640,1,1],f16>, !torch.int -> !torch.vtensor<[2,640,128,128],f32>
    %16435 = torch.prims.convert_element_type %16434, %int5 : !torch.vtensor<[2,640,128,128],f32>, !torch.int -> !torch.vtensor<[2,640,128,128],f16>
    %16436 = torch.prims.convert_element_type %result1_506, %int5 : !torch.vtensor<[2,32,1,1],f32>, !torch.int -> !torch.vtensor<[2,32,1,1],f16>
    %16437 = torch.prims.convert_element_type %16420, %int5 : !torch.vtensor<[2,32,1,1],f32>, !torch.int -> !torch.vtensor<[2,32,1,1],f16>
    %16438 = torch.prim.ListConstruct %int3 : (!torch.int) -> !torch.list<int>
    %16439 = torch.prims.squeeze %16436, %16438 : !torch.vtensor<[2,32,1,1],f16>, !torch.list<int> -> !torch.vtensor<[2,32,1],f16>
    %16440 = torch.prim.ListConstruct %int2 : (!torch.int) -> !torch.list<int>
    %16441 = torch.prims.squeeze %16439, %16440 : !torch.vtensor<[2,32,1],f16>, !torch.list<int> -> !torch.vtensor<[2,32],f16>
    %16442 = torch.prim.ListConstruct %int3 : (!torch.int) -> !torch.list<int>
    %16443 = torch.prims.squeeze %16437, %16442 : !torch.vtensor<[2,32,1,1],f16>, !torch.list<int> -> !torch.vtensor<[2,32,1],f16>
    %16444 = torch.prim.ListConstruct %int2 : (!torch.int) -> !torch.list<int>
    %16445 = torch.prims.squeeze %16443, %16444 : !torch.vtensor<[2,32,1],f16>, !torch.list<int> -> !torch.vtensor<[2,32],f16>
    %16446 = torch.aten.silu %16435 : !torch.vtensor<[2,640,128,128],f16> -> !torch.vtensor<[2,640,128,128],f16>
    %_params.unet.up_blocks.2.resnets.1.conv1.weight = util.global.load @_params.unet.up_blocks.2.resnets.1.conv1.weight : tensor<320x640x3x3xf16>
    %16447 = torch_c.from_builtin_tensor %_params.unet.up_blocks.2.resnets.1.conv1.weight : tensor<320x640x3x3xf16> -> !torch.vtensor<[320,640,3,3],f16>
    %_params.unet.up_blocks.2.resnets.1.conv1.bias = util.global.load @_params.unet.up_blocks.2.resnets.1.conv1.bias : tensor<320xf16>
    %16448 = torch_c.from_builtin_tensor %_params.unet.up_blocks.2.resnets.1.conv1.bias : tensor<320xf16> -> !torch.vtensor<[320],f16>
    %16449 = torch.prim.ListConstruct %int1, %int1 : (!torch.int, !torch.int) -> !torch.list<int>
    %16450 = torch.prim.ListConstruct %int1, %int1 : (!torch.int, !torch.int) -> !torch.list<int>
    %16451 = torch.prim.ListConstruct %int1, %int1 : (!torch.int, !torch.int) -> !torch.list<int>
    %16452 = torch.prim.ListConstruct %int0, %int0 : (!torch.int, !torch.int) -> !torch.list<int>
    %16453 = torch.aten.convolution %16446, %16447, %16448, %16449, %16450, %16451, %false, %16452, %int1 : !torch.vtensor<[2,640,128,128],f16>, !torch.vtensor<[320,640,3,3],f16>, !torch.vtensor<[320],f16>, !torch.list<int>, !torch.list<int>, !torch.list<int>, !torch.bool, !torch.list<int>, !torch.int -> !torch.vtensor<[2,320,128,128],f16>
    %16454 = torch.aten.silu %103 : !torch.vtensor<[2,1280],f16> -> !torch.vtensor<[2,1280],f16>
    %_params.unet.up_blocks.2.resnets.1.time_emb_proj.weight = util.global.load @_params.unet.up_blocks.2.resnets.1.time_emb_proj.weight : tensor<320x1280xf16>
    %16455 = torch_c.from_builtin_tensor %_params.unet.up_blocks.2.resnets.1.time_emb_proj.weight : tensor<320x1280xf16> -> !torch.vtensor<[320,1280],f16>
    %16456 = torch.aten.transpose.int %16455, %int0, %int1 : !torch.vtensor<[320,1280],f16>, !torch.int, !torch.int -> !torch.vtensor<[1280,320],f16>
    %_params.unet.up_blocks.2.resnets.1.time_emb_proj.bias = util.global.load @_params.unet.up_blocks.2.resnets.1.time_emb_proj.bias : tensor<320xf16>
    %16457 = torch_c.from_builtin_tensor %_params.unet.up_blocks.2.resnets.1.time_emb_proj.bias : tensor<320xf16> -> !torch.vtensor<[320],f16>
    %16458 = torch.prims.convert_element_type %16457, %int6 : !torch.vtensor<[320],f16>, !torch.int -> !torch.vtensor<[320],f32>
    %16459 = torch.prims.convert_element_type %16454, %int6 : !torch.vtensor<[2,1280],f16>, !torch.int -> !torch.vtensor<[2,1280],f32>
    %16460 = torch.prims.convert_element_type %16456, %int6 : !torch.vtensor<[1280,320],f16>, !torch.int -> !torch.vtensor<[1280,320],f32>
    %16461 = torch.aten.mm %16459, %16460 : !torch.vtensor<[2,1280],f32>, !torch.vtensor<[1280,320],f32> -> !torch.vtensor<[2,320],f32>
    %16462 = torch.aten.mul.Scalar %16461, %int1 : !torch.vtensor<[2,320],f32>, !torch.int -> !torch.vtensor<[2,320],f32>
    %16463 = torch.aten.mul.Scalar %16458, %int1 : !torch.vtensor<[320],f32>, !torch.int -> !torch.vtensor<[320],f32>
    %16464 = torch.aten.add.Tensor %16462, %16463, %int1 : !torch.vtensor<[2,320],f32>, !torch.vtensor<[320],f32>, !torch.int -> !torch.vtensor<[2,320],f32>
    %16465 = torch.prims.convert_element_type %16464, %int5 : !torch.vtensor<[2,320],f32>, !torch.int -> !torch.vtensor<[2,320],f16>
    %16466 = torch.aten.unsqueeze %16465, %int2 : !torch.vtensor<[2,320],f16>, !torch.int -> !torch.vtensor<[2,320,1],f16>
    %16467 = torch.aten.unsqueeze %16466, %int3 : !torch.vtensor<[2,320,1],f16>, !torch.int -> !torch.vtensor<[2,320,1,1],f16>
    %16468 = torch.aten.add.Tensor %16453, %16467, %int1 : !torch.vtensor<[2,320,128,128],f16>, !torch.vtensor<[2,320,1,1],f16>, !torch.int -> !torch.vtensor<[2,320,128,128],f16>
    %16469 = torch.prim.ListConstruct %int2, %int32, %int10, %int16384 : (!torch.int, !torch.int, !torch.int, !torch.int) -> !torch.list<int>
    %16470 = torch.aten.view %16468, %16469 : !torch.vtensor<[2,320,128,128],f16>, !torch.list<int> -> !torch.vtensor<[2,32,10,16384],f16>
    %16471 = torch.prims.convert_element_type %16470, %int6 : !torch.vtensor<[2,32,10,16384],f16>, !torch.int -> !torch.vtensor<[2,32,10,16384],f32>
    %16472 = torch.prim.ListConstruct %int2, %int3 : (!torch.int, !torch.int) -> !torch.list<int>
    %result0_507, %result1_508 = torch.aten.var_mean.correction %16471, %16472, %int0, %true : !torch.vtensor<[2,32,10,16384],f32>, !torch.list<int>, !torch.int, !torch.bool -> !torch.vtensor<[2,32,1,1],f32>, !torch.vtensor<[2,32,1,1],f32>
    %16473 = torch.aten.add.Scalar %result0_507, %float1.000000e-05, %int1 : !torch.vtensor<[2,32,1,1],f32>, !torch.float, !torch.int -> !torch.vtensor<[2,32,1,1],f32>
    %16474 = torch.aten.rsqrt %16473 : !torch.vtensor<[2,32,1,1],f32> -> !torch.vtensor<[2,32,1,1],f32>
    %16475 = torch.aten.sub.Tensor %16470, %result1_508, %int1 : !torch.vtensor<[2,32,10,16384],f16>, !torch.vtensor<[2,32,1,1],f32>, !torch.int -> !torch.vtensor<[2,32,10,16384],f32>
    %16476 = torch.aten.mul.Tensor %16475, %16474 : !torch.vtensor<[2,32,10,16384],f32>, !torch.vtensor<[2,32,1,1],f32> -> !torch.vtensor<[2,32,10,16384],f32>
    %16477 = torch.prim.ListConstruct %int2, %int320, %int128, %int128 : (!torch.int, !torch.int, !torch.int, !torch.int) -> !torch.list<int>
    %16478 = torch.aten.view %16476, %16477 : !torch.vtensor<[2,32,10,16384],f32>, !torch.list<int> -> !torch.vtensor<[2,320,128,128],f32>
    %_params.unet.up_blocks.2.resnets.1.norm2.bias = util.global.load @_params.unet.up_blocks.2.resnets.1.norm2.bias : tensor<320xf16>
    %16479 = torch_c.from_builtin_tensor %_params.unet.up_blocks.2.resnets.1.norm2.bias : tensor<320xf16> -> !torch.vtensor<[320],f16>
    %16480 = torch.aten.unsqueeze %16479, %int0 : !torch.vtensor<[320],f16>, !torch.int -> !torch.vtensor<[1,320],f16>
    %16481 = torch.aten.unsqueeze %16480, %int2 : !torch.vtensor<[1,320],f16>, !torch.int -> !torch.vtensor<[1,320,1],f16>
    %16482 = torch.aten.unsqueeze %16481, %int3 : !torch.vtensor<[1,320,1],f16>, !torch.int -> !torch.vtensor<[1,320,1,1],f16>
    %_params.unet.up_blocks.2.resnets.1.norm2.weight = util.global.load @_params.unet.up_blocks.2.resnets.1.norm2.weight : tensor<320xf16>
    %16483 = torch_c.from_builtin_tensor %_params.unet.up_blocks.2.resnets.1.norm2.weight : tensor<320xf16> -> !torch.vtensor<[320],f16>
    %16484 = torch.aten.unsqueeze %16483, %int0 : !torch.vtensor<[320],f16>, !torch.int -> !torch.vtensor<[1,320],f16>
    %16485 = torch.aten.unsqueeze %16484, %int2 : !torch.vtensor<[1,320],f16>, !torch.int -> !torch.vtensor<[1,320,1],f16>
    %16486 = torch.aten.unsqueeze %16485, %int3 : !torch.vtensor<[1,320,1],f16>, !torch.int -> !torch.vtensor<[1,320,1,1],f16>
    %16487 = torch.aten.mul.Tensor %16478, %16486 : !torch.vtensor<[2,320,128,128],f32>, !torch.vtensor<[1,320,1,1],f16> -> !torch.vtensor<[2,320,128,128],f32>
    %16488 = torch.aten.add.Tensor %16487, %16482, %int1 : !torch.vtensor<[2,320,128,128],f32>, !torch.vtensor<[1,320,1,1],f16>, !torch.int -> !torch.vtensor<[2,320,128,128],f32>
    %16489 = torch.prims.convert_element_type %16488, %int5 : !torch.vtensor<[2,320,128,128],f32>, !torch.int -> !torch.vtensor<[2,320,128,128],f16>
    %16490 = torch.prims.convert_element_type %result1_508, %int5 : !torch.vtensor<[2,32,1,1],f32>, !torch.int -> !torch.vtensor<[2,32,1,1],f16>
    %16491 = torch.prims.convert_element_type %16474, %int5 : !torch.vtensor<[2,32,1,1],f32>, !torch.int -> !torch.vtensor<[2,32,1,1],f16>
    %16492 = torch.prim.ListConstruct %int3 : (!torch.int) -> !torch.list<int>
    %16493 = torch.prims.squeeze %16490, %16492 : !torch.vtensor<[2,32,1,1],f16>, !torch.list<int> -> !torch.vtensor<[2,32,1],f16>
    %16494 = torch.prim.ListConstruct %int2 : (!torch.int) -> !torch.list<int>
    %16495 = torch.prims.squeeze %16493, %16494 : !torch.vtensor<[2,32,1],f16>, !torch.list<int> -> !torch.vtensor<[2,32],f16>
    %16496 = torch.prim.ListConstruct %int3 : (!torch.int) -> !torch.list<int>
    %16497 = torch.prims.squeeze %16491, %16496 : !torch.vtensor<[2,32,1,1],f16>, !torch.list<int> -> !torch.vtensor<[2,32,1],f16>
    %16498 = torch.prim.ListConstruct %int2 : (!torch.int) -> !torch.list<int>
    %16499 = torch.prims.squeeze %16497, %16498 : !torch.vtensor<[2,32,1],f16>, !torch.list<int> -> !torch.vtensor<[2,32],f16>
    %16500 = torch.aten.silu %16489 : !torch.vtensor<[2,320,128,128],f16> -> !torch.vtensor<[2,320,128,128],f16>
    %_params.unet.up_blocks.2.resnets.1.conv2.weight = util.global.load @_params.unet.up_blocks.2.resnets.1.conv2.weight : tensor<320x320x3x3xf16>
    %16501 = torch_c.from_builtin_tensor %_params.unet.up_blocks.2.resnets.1.conv2.weight : tensor<320x320x3x3xf16> -> !torch.vtensor<[320,320,3,3],f16>
    %_params.unet.up_blocks.2.resnets.1.conv2.bias = util.global.load @_params.unet.up_blocks.2.resnets.1.conv2.bias : tensor<320xf16>
    %16502 = torch_c.from_builtin_tensor %_params.unet.up_blocks.2.resnets.1.conv2.bias : tensor<320xf16> -> !torch.vtensor<[320],f16>
    %16503 = torch.prim.ListConstruct %int1, %int1 : (!torch.int, !torch.int) -> !torch.list<int>
    %16504 = torch.prim.ListConstruct %int1, %int1 : (!torch.int, !torch.int) -> !torch.list<int>
    %16505 = torch.prim.ListConstruct %int1, %int1 : (!torch.int, !torch.int) -> !torch.list<int>
    %16506 = torch.prim.ListConstruct %int0, %int0 : (!torch.int, !torch.int) -> !torch.list<int>
    %16507 = torch.aten.convolution %16500, %16501, %16502, %16503, %16504, %16505, %false, %16506, %int1 : !torch.vtensor<[2,320,128,128],f16>, !torch.vtensor<[320,320,3,3],f16>, !torch.vtensor<[320],f16>, !torch.list<int>, !torch.list<int>, !torch.list<int>, !torch.bool, !torch.list<int>, !torch.int -> !torch.vtensor<[2,320,128,128],f16>
    %_params.unet.up_blocks.2.resnets.1.conv_shortcut.weight = util.global.load @_params.unet.up_blocks.2.resnets.1.conv_shortcut.weight : tensor<320x640x1x1xf16>
    %16508 = torch_c.from_builtin_tensor %_params.unet.up_blocks.2.resnets.1.conv_shortcut.weight : tensor<320x640x1x1xf16> -> !torch.vtensor<[320,640,1,1],f16>
    %_params.unet.up_blocks.2.resnets.1.conv_shortcut.bias = util.global.load @_params.unet.up_blocks.2.resnets.1.conv_shortcut.bias : tensor<320xf16>
    %16509 = torch_c.from_builtin_tensor %_params.unet.up_blocks.2.resnets.1.conv_shortcut.bias : tensor<320xf16> -> !torch.vtensor<[320],f16>
    %16510 = torch.prim.ListConstruct %int1, %int1 : (!torch.int, !torch.int) -> !torch.list<int>
    %16511 = torch.prim.ListConstruct %int0, %int0 : (!torch.int, !torch.int) -> !torch.list<int>
    %16512 = torch.prim.ListConstruct %int1, %int1 : (!torch.int, !torch.int) -> !torch.list<int>
    %16513 = torch.prim.ListConstruct %int0, %int0 : (!torch.int, !torch.int) -> !torch.list<int>
    %16514 = torch.aten.convolution %16414, %16508, %16509, %16510, %16511, %16512, %false, %16513, %int1 : !torch.vtensor<[2,640,128,128],f16>, !torch.vtensor<[320,640,1,1],f16>, !torch.vtensor<[320],f16>, !torch.list<int>, !torch.list<int>, !torch.list<int>, !torch.bool, !torch.list<int>, !torch.int -> !torch.vtensor<[2,320,128,128],f16>
    %16515 = torch.aten.add.Tensor %16514, %16507, %int1 : !torch.vtensor<[2,320,128,128],f16>, !torch.vtensor<[2,320,128,128],f16>, !torch.int -> !torch.vtensor<[2,320,128,128],f16>
    %16516 = torch.aten.div.Scalar %16515, %float1.000000e00 : !torch.vtensor<[2,320,128,128],f16>, !torch.float -> !torch.vtensor<[2,320,128,128],f16>
    %16517 = torch.prim.ListConstruct %16516, %110 : (!torch.vtensor<[2,320,128,128],f16>, !torch.vtensor<[2,320,128,128],f16>) -> !torch.list<vtensor>
    %16518 = torch.aten.cat %16517, %int1 : !torch.list<vtensor>, !torch.int -> !torch.vtensor<[2,640,128,128],f16>
    %16519 = torch.prim.ListConstruct %int2, %int32, %int20, %int16384 : (!torch.int, !torch.int, !torch.int, !torch.int) -> !torch.list<int>
    %16520 = torch.aten.view %16518, %16519 : !torch.vtensor<[2,640,128,128],f16>, !torch.list<int> -> !torch.vtensor<[2,32,20,16384],f16>
    %16521 = torch.prims.convert_element_type %16520, %int6 : !torch.vtensor<[2,32,20,16384],f16>, !torch.int -> !torch.vtensor<[2,32,20,16384],f32>
    %16522 = torch.prim.ListConstruct %int2, %int3 : (!torch.int, !torch.int) -> !torch.list<int>
    %result0_509, %result1_510 = torch.aten.var_mean.correction %16521, %16522, %int0, %true : !torch.vtensor<[2,32,20,16384],f32>, !torch.list<int>, !torch.int, !torch.bool -> !torch.vtensor<[2,32,1,1],f32>, !torch.vtensor<[2,32,1,1],f32>
    %16523 = torch.aten.add.Scalar %result0_509, %float1.000000e-05, %int1 : !torch.vtensor<[2,32,1,1],f32>, !torch.float, !torch.int -> !torch.vtensor<[2,32,1,1],f32>
    %16524 = torch.aten.rsqrt %16523 : !torch.vtensor<[2,32,1,1],f32> -> !torch.vtensor<[2,32,1,1],f32>
    %16525 = torch.aten.sub.Tensor %16520, %result1_510, %int1 : !torch.vtensor<[2,32,20,16384],f16>, !torch.vtensor<[2,32,1,1],f32>, !torch.int -> !torch.vtensor<[2,32,20,16384],f32>
    %16526 = torch.aten.mul.Tensor %16525, %16524 : !torch.vtensor<[2,32,20,16384],f32>, !torch.vtensor<[2,32,1,1],f32> -> !torch.vtensor<[2,32,20,16384],f32>
    %16527 = torch.prim.ListConstruct %int2, %int640, %int128, %int128 : (!torch.int, !torch.int, !torch.int, !torch.int) -> !torch.list<int>
    %16528 = torch.aten.view %16526, %16527 : !torch.vtensor<[2,32,20,16384],f32>, !torch.list<int> -> !torch.vtensor<[2,640,128,128],f32>
    %_params.unet.up_blocks.2.resnets.2.norm1.bias = util.global.load @_params.unet.up_blocks.2.resnets.2.norm1.bias : tensor<640xf16>
    %16529 = torch_c.from_builtin_tensor %_params.unet.up_blocks.2.resnets.2.norm1.bias : tensor<640xf16> -> !torch.vtensor<[640],f16>
    %16530 = torch.aten.unsqueeze %16529, %int0 : !torch.vtensor<[640],f16>, !torch.int -> !torch.vtensor<[1,640],f16>
    %16531 = torch.aten.unsqueeze %16530, %int2 : !torch.vtensor<[1,640],f16>, !torch.int -> !torch.vtensor<[1,640,1],f16>
    %16532 = torch.aten.unsqueeze %16531, %int3 : !torch.vtensor<[1,640,1],f16>, !torch.int -> !torch.vtensor<[1,640,1,1],f16>
    %_params.unet.up_blocks.2.resnets.2.norm1.weight = util.global.load @_params.unet.up_blocks.2.resnets.2.norm1.weight : tensor<640xf16>
    %16533 = torch_c.from_builtin_tensor %_params.unet.up_blocks.2.resnets.2.norm1.weight : tensor<640xf16> -> !torch.vtensor<[640],f16>
    %16534 = torch.aten.unsqueeze %16533, %int0 : !torch.vtensor<[640],f16>, !torch.int -> !torch.vtensor<[1,640],f16>
    %16535 = torch.aten.unsqueeze %16534, %int2 : !torch.vtensor<[1,640],f16>, !torch.int -> !torch.vtensor<[1,640,1],f16>
    %16536 = torch.aten.unsqueeze %16535, %int3 : !torch.vtensor<[1,640,1],f16>, !torch.int -> !torch.vtensor<[1,640,1,1],f16>
    %16537 = torch.aten.mul.Tensor %16528, %16536 : !torch.vtensor<[2,640,128,128],f32>, !torch.vtensor<[1,640,1,1],f16> -> !torch.vtensor<[2,640,128,128],f32>
    %16538 = torch.aten.add.Tensor %16537, %16532, %int1 : !torch.vtensor<[2,640,128,128],f32>, !torch.vtensor<[1,640,1,1],f16>, !torch.int -> !torch.vtensor<[2,640,128,128],f32>
    %16539 = torch.prims.convert_element_type %16538, %int5 : !torch.vtensor<[2,640,128,128],f32>, !torch.int -> !torch.vtensor<[2,640,128,128],f16>
    %16540 = torch.prims.convert_element_type %result1_510, %int5 : !torch.vtensor<[2,32,1,1],f32>, !torch.int -> !torch.vtensor<[2,32,1,1],f16>
    %16541 = torch.prims.convert_element_type %16524, %int5 : !torch.vtensor<[2,32,1,1],f32>, !torch.int -> !torch.vtensor<[2,32,1,1],f16>
    %16542 = torch.prim.ListConstruct %int3 : (!torch.int) -> !torch.list<int>
    %16543 = torch.prims.squeeze %16540, %16542 : !torch.vtensor<[2,32,1,1],f16>, !torch.list<int> -> !torch.vtensor<[2,32,1],f16>
    %16544 = torch.prim.ListConstruct %int2 : (!torch.int) -> !torch.list<int>
    %16545 = torch.prims.squeeze %16543, %16544 : !torch.vtensor<[2,32,1],f16>, !torch.list<int> -> !torch.vtensor<[2,32],f16>
    %16546 = torch.prim.ListConstruct %int3 : (!torch.int) -> !torch.list<int>
    %16547 = torch.prims.squeeze %16541, %16546 : !torch.vtensor<[2,32,1,1],f16>, !torch.list<int> -> !torch.vtensor<[2,32,1],f16>
    %16548 = torch.prim.ListConstruct %int2 : (!torch.int) -> !torch.list<int>
    %16549 = torch.prims.squeeze %16547, %16548 : !torch.vtensor<[2,32,1],f16>, !torch.list<int> -> !torch.vtensor<[2,32],f16>
    %16550 = torch.aten.silu %16539 : !torch.vtensor<[2,640,128,128],f16> -> !torch.vtensor<[2,640,128,128],f16>
    %_params.unet.up_blocks.2.resnets.2.conv1.weight = util.global.load @_params.unet.up_blocks.2.resnets.2.conv1.weight : tensor<320x640x3x3xf16>
    %16551 = torch_c.from_builtin_tensor %_params.unet.up_blocks.2.resnets.2.conv1.weight : tensor<320x640x3x3xf16> -> !torch.vtensor<[320,640,3,3],f16>
    %_params.unet.up_blocks.2.resnets.2.conv1.bias = util.global.load @_params.unet.up_blocks.2.resnets.2.conv1.bias : tensor<320xf16>
    %16552 = torch_c.from_builtin_tensor %_params.unet.up_blocks.2.resnets.2.conv1.bias : tensor<320xf16> -> !torch.vtensor<[320],f16>
    %16553 = torch.prim.ListConstruct %int1, %int1 : (!torch.int, !torch.int) -> !torch.list<int>
    %16554 = torch.prim.ListConstruct %int1, %int1 : (!torch.int, !torch.int) -> !torch.list<int>
    %16555 = torch.prim.ListConstruct %int1, %int1 : (!torch.int, !torch.int) -> !torch.list<int>
    %16556 = torch.prim.ListConstruct %int0, %int0 : (!torch.int, !torch.int) -> !torch.list<int>
    %16557 = torch.aten.convolution %16550, %16551, %16552, %16553, %16554, %16555, %false, %16556, %int1 : !torch.vtensor<[2,640,128,128],f16>, !torch.vtensor<[320,640,3,3],f16>, !torch.vtensor<[320],f16>, !torch.list<int>, !torch.list<int>, !torch.list<int>, !torch.bool, !torch.list<int>, !torch.int -> !torch.vtensor<[2,320,128,128],f16>
    %16558 = torch.aten.silu %103 : !torch.vtensor<[2,1280],f16> -> !torch.vtensor<[2,1280],f16>
    %_params.unet.up_blocks.2.resnets.2.time_emb_proj.weight = util.global.load @_params.unet.up_blocks.2.resnets.2.time_emb_proj.weight : tensor<320x1280xf16>
    %16559 = torch_c.from_builtin_tensor %_params.unet.up_blocks.2.resnets.2.time_emb_proj.weight : tensor<320x1280xf16> -> !torch.vtensor<[320,1280],f16>
    %16560 = torch.aten.transpose.int %16559, %int0, %int1 : !torch.vtensor<[320,1280],f16>, !torch.int, !torch.int -> !torch.vtensor<[1280,320],f16>
    %_params.unet.up_blocks.2.resnets.2.time_emb_proj.bias = util.global.load @_params.unet.up_blocks.2.resnets.2.time_emb_proj.bias : tensor<320xf16>
    %16561 = torch_c.from_builtin_tensor %_params.unet.up_blocks.2.resnets.2.time_emb_proj.bias : tensor<320xf16> -> !torch.vtensor<[320],f16>
    %16562 = torch.prims.convert_element_type %16561, %int6 : !torch.vtensor<[320],f16>, !torch.int -> !torch.vtensor<[320],f32>
    %16563 = torch.prims.convert_element_type %16558, %int6 : !torch.vtensor<[2,1280],f16>, !torch.int -> !torch.vtensor<[2,1280],f32>
    %16564 = torch.prims.convert_element_type %16560, %int6 : !torch.vtensor<[1280,320],f16>, !torch.int -> !torch.vtensor<[1280,320],f32>
    %16565 = torch.aten.mm %16563, %16564 : !torch.vtensor<[2,1280],f32>, !torch.vtensor<[1280,320],f32> -> !torch.vtensor<[2,320],f32>
    %16566 = torch.aten.mul.Scalar %16565, %int1 : !torch.vtensor<[2,320],f32>, !torch.int -> !torch.vtensor<[2,320],f32>
    %16567 = torch.aten.mul.Scalar %16562, %int1 : !torch.vtensor<[320],f32>, !torch.int -> !torch.vtensor<[320],f32>
    %16568 = torch.aten.add.Tensor %16566, %16567, %int1 : !torch.vtensor<[2,320],f32>, !torch.vtensor<[320],f32>, !torch.int -> !torch.vtensor<[2,320],f32>
    %16569 = torch.prims.convert_element_type %16568, %int5 : !torch.vtensor<[2,320],f32>, !torch.int -> !torch.vtensor<[2,320],f16>
    %16570 = torch.aten.unsqueeze %16569, %int2 : !torch.vtensor<[2,320],f16>, !torch.int -> !torch.vtensor<[2,320,1],f16>
    %16571 = torch.aten.unsqueeze %16570, %int3 : !torch.vtensor<[2,320,1],f16>, !torch.int -> !torch.vtensor<[2,320,1,1],f16>
    %16572 = torch.aten.add.Tensor %16557, %16571, %int1 : !torch.vtensor<[2,320,128,128],f16>, !torch.vtensor<[2,320,1,1],f16>, !torch.int -> !torch.vtensor<[2,320,128,128],f16>
    %16573 = torch.prim.ListConstruct %int2, %int32, %int10, %int16384 : (!torch.int, !torch.int, !torch.int, !torch.int) -> !torch.list<int>
    %16574 = torch.aten.view %16572, %16573 : !torch.vtensor<[2,320,128,128],f16>, !torch.list<int> -> !torch.vtensor<[2,32,10,16384],f16>
    %16575 = torch.prims.convert_element_type %16574, %int6 : !torch.vtensor<[2,32,10,16384],f16>, !torch.int -> !torch.vtensor<[2,32,10,16384],f32>
    %16576 = torch.prim.ListConstruct %int2, %int3 : (!torch.int, !torch.int) -> !torch.list<int>
    %result0_511, %result1_512 = torch.aten.var_mean.correction %16575, %16576, %int0, %true : !torch.vtensor<[2,32,10,16384],f32>, !torch.list<int>, !torch.int, !torch.bool -> !torch.vtensor<[2,32,1,1],f32>, !torch.vtensor<[2,32,1,1],f32>
    %16577 = torch.aten.add.Scalar %result0_511, %float1.000000e-05, %int1 : !torch.vtensor<[2,32,1,1],f32>, !torch.float, !torch.int -> !torch.vtensor<[2,32,1,1],f32>
    %16578 = torch.aten.rsqrt %16577 : !torch.vtensor<[2,32,1,1],f32> -> !torch.vtensor<[2,32,1,1],f32>
    %16579 = torch.aten.sub.Tensor %16574, %result1_512, %int1 : !torch.vtensor<[2,32,10,16384],f16>, !torch.vtensor<[2,32,1,1],f32>, !torch.int -> !torch.vtensor<[2,32,10,16384],f32>
    %16580 = torch.aten.mul.Tensor %16579, %16578 : !torch.vtensor<[2,32,10,16384],f32>, !torch.vtensor<[2,32,1,1],f32> -> !torch.vtensor<[2,32,10,16384],f32>
    %16581 = torch.prim.ListConstruct %int2, %int320, %int128, %int128 : (!torch.int, !torch.int, !torch.int, !torch.int) -> !torch.list<int>
    %16582 = torch.aten.view %16580, %16581 : !torch.vtensor<[2,32,10,16384],f32>, !torch.list<int> -> !torch.vtensor<[2,320,128,128],f32>
    %_params.unet.up_blocks.2.resnets.2.norm2.bias = util.global.load @_params.unet.up_blocks.2.resnets.2.norm2.bias : tensor<320xf16>
    %16583 = torch_c.from_builtin_tensor %_params.unet.up_blocks.2.resnets.2.norm2.bias : tensor<320xf16> -> !torch.vtensor<[320],f16>
    %16584 = torch.aten.unsqueeze %16583, %int0 : !torch.vtensor<[320],f16>, !torch.int -> !torch.vtensor<[1,320],f16>
    %16585 = torch.aten.unsqueeze %16584, %int2 : !torch.vtensor<[1,320],f16>, !torch.int -> !torch.vtensor<[1,320,1],f16>
    %16586 = torch.aten.unsqueeze %16585, %int3 : !torch.vtensor<[1,320,1],f16>, !torch.int -> !torch.vtensor<[1,320,1,1],f16>
    %_params.unet.up_blocks.2.resnets.2.norm2.weight = util.global.load @_params.unet.up_blocks.2.resnets.2.norm2.weight : tensor<320xf16>
    %16587 = torch_c.from_builtin_tensor %_params.unet.up_blocks.2.resnets.2.norm2.weight : tensor<320xf16> -> !torch.vtensor<[320],f16>
    %16588 = torch.aten.unsqueeze %16587, %int0 : !torch.vtensor<[320],f16>, !torch.int -> !torch.vtensor<[1,320],f16>
    %16589 = torch.aten.unsqueeze %16588, %int2 : !torch.vtensor<[1,320],f16>, !torch.int -> !torch.vtensor<[1,320,1],f16>
    %16590 = torch.aten.unsqueeze %16589, %int3 : !torch.vtensor<[1,320,1],f16>, !torch.int -> !torch.vtensor<[1,320,1,1],f16>
    %16591 = torch.aten.mul.Tensor %16582, %16590 : !torch.vtensor<[2,320,128,128],f32>, !torch.vtensor<[1,320,1,1],f16> -> !torch.vtensor<[2,320,128,128],f32>
    %16592 = torch.aten.add.Tensor %16591, %16586, %int1 : !torch.vtensor<[2,320,128,128],f32>, !torch.vtensor<[1,320,1,1],f16>, !torch.int -> !torch.vtensor<[2,320,128,128],f32>
    %16593 = torch.prims.convert_element_type %16592, %int5 : !torch.vtensor<[2,320,128,128],f32>, !torch.int -> !torch.vtensor<[2,320,128,128],f16>
    %16594 = torch.prims.convert_element_type %result1_512, %int5 : !torch.vtensor<[2,32,1,1],f32>, !torch.int -> !torch.vtensor<[2,32,1,1],f16>
    %16595 = torch.prims.convert_element_type %16578, %int5 : !torch.vtensor<[2,32,1,1],f32>, !torch.int -> !torch.vtensor<[2,32,1,1],f16>
    %16596 = torch.prim.ListConstruct %int3 : (!torch.int) -> !torch.list<int>
    %16597 = torch.prims.squeeze %16594, %16596 : !torch.vtensor<[2,32,1,1],f16>, !torch.list<int> -> !torch.vtensor<[2,32,1],f16>
    %16598 = torch.prim.ListConstruct %int2 : (!torch.int) -> !torch.list<int>
    %16599 = torch.prims.squeeze %16597, %16598 : !torch.vtensor<[2,32,1],f16>, !torch.list<int> -> !torch.vtensor<[2,32],f16>
    %16600 = torch.prim.ListConstruct %int3 : (!torch.int) -> !torch.list<int>
    %16601 = torch.prims.squeeze %16595, %16600 : !torch.vtensor<[2,32,1,1],f16>, !torch.list<int> -> !torch.vtensor<[2,32,1],f16>
    %16602 = torch.prim.ListConstruct %int2 : (!torch.int) -> !torch.list<int>
    %16603 = torch.prims.squeeze %16601, %16602 : !torch.vtensor<[2,32,1],f16>, !torch.list<int> -> !torch.vtensor<[2,32],f16>
    %16604 = torch.aten.silu %16593 : !torch.vtensor<[2,320,128,128],f16> -> !torch.vtensor<[2,320,128,128],f16>
    %_params.unet.up_blocks.2.resnets.2.conv2.weight = util.global.load @_params.unet.up_blocks.2.resnets.2.conv2.weight : tensor<320x320x3x3xf16>
    %16605 = torch_c.from_builtin_tensor %_params.unet.up_blocks.2.resnets.2.conv2.weight : tensor<320x320x3x3xf16> -> !torch.vtensor<[320,320,3,3],f16>
    %_params.unet.up_blocks.2.resnets.2.conv2.bias = util.global.load @_params.unet.up_blocks.2.resnets.2.conv2.bias : tensor<320xf16>
    %16606 = torch_c.from_builtin_tensor %_params.unet.up_blocks.2.resnets.2.conv2.bias : tensor<320xf16> -> !torch.vtensor<[320],f16>
    %16607 = torch.prim.ListConstruct %int1, %int1 : (!torch.int, !torch.int) -> !torch.list<int>
    %16608 = torch.prim.ListConstruct %int1, %int1 : (!torch.int, !torch.int) -> !torch.list<int>
    %16609 = torch.prim.ListConstruct %int1, %int1 : (!torch.int, !torch.int) -> !torch.list<int>
    %16610 = torch.prim.ListConstruct %int0, %int0 : (!torch.int, !torch.int) -> !torch.list<int>
    %16611 = torch.aten.convolution %16604, %16605, %16606, %16607, %16608, %16609, %false, %16610, %int1 : !torch.vtensor<[2,320,128,128],f16>, !torch.vtensor<[320,320,3,3],f16>, !torch.vtensor<[320],f16>, !torch.list<int>, !torch.list<int>, !torch.list<int>, !torch.bool, !torch.list<int>, !torch.int -> !torch.vtensor<[2,320,128,128],f16>
    %_params.unet.up_blocks.2.resnets.2.conv_shortcut.weight = util.global.load @_params.unet.up_blocks.2.resnets.2.conv_shortcut.weight : tensor<320x640x1x1xf16>
    %16612 = torch_c.from_builtin_tensor %_params.unet.up_blocks.2.resnets.2.conv_shortcut.weight : tensor<320x640x1x1xf16> -> !torch.vtensor<[320,640,1,1],f16>
    %_params.unet.up_blocks.2.resnets.2.conv_shortcut.bias = util.global.load @_params.unet.up_blocks.2.resnets.2.conv_shortcut.bias : tensor<320xf16>
    %16613 = torch_c.from_builtin_tensor %_params.unet.up_blocks.2.resnets.2.conv_shortcut.bias : tensor<320xf16> -> !torch.vtensor<[320],f16>
    %16614 = torch.prim.ListConstruct %int1, %int1 : (!torch.int, !torch.int) -> !torch.list<int>
    %16615 = torch.prim.ListConstruct %int0, %int0 : (!torch.int, !torch.int) -> !torch.list<int>
    %16616 = torch.prim.ListConstruct %int1, %int1 : (!torch.int, !torch.int) -> !torch.list<int>
    %16617 = torch.prim.ListConstruct %int0, %int0 : (!torch.int, !torch.int) -> !torch.list<int>
    %16618 = torch.aten.convolution %16518, %16612, %16613, %16614, %16615, %16616, %false, %16617, %int1 : !torch.vtensor<[2,640,128,128],f16>, !torch.vtensor<[320,640,1,1],f16>, !torch.vtensor<[320],f16>, !torch.list<int>, !torch.list<int>, !torch.list<int>, !torch.bool, !torch.list<int>, !torch.int -> !torch.vtensor<[2,320,128,128],f16>
    %16619 = torch.aten.add.Tensor %16618, %16611, %int1 : !torch.vtensor<[2,320,128,128],f16>, !torch.vtensor<[2,320,128,128],f16>, !torch.int -> !torch.vtensor<[2,320,128,128],f16>
    %16620 = torch.aten.div.Scalar %16619, %float1.000000e00 : !torch.vtensor<[2,320,128,128],f16>, !torch.float -> !torch.vtensor<[2,320,128,128],f16>
    %16621 = torch.prim.ListConstruct %int2, %int32, %int10, %int16384 : (!torch.int, !torch.int, !torch.int, !torch.int) -> !torch.list<int>
    %16622 = torch.aten.view %16620, %16621 : !torch.vtensor<[2,320,128,128],f16>, !torch.list<int> -> !torch.vtensor<[2,32,10,16384],f16>
    %16623 = torch.prims.convert_element_type %16622, %int6 : !torch.vtensor<[2,32,10,16384],f16>, !torch.int -> !torch.vtensor<[2,32,10,16384],f32>
    %16624 = torch.prim.ListConstruct %int2, %int3 : (!torch.int, !torch.int) -> !torch.list<int>
    %result0_513, %result1_514 = torch.aten.var_mean.correction %16623, %16624, %int0, %true : !torch.vtensor<[2,32,10,16384],f32>, !torch.list<int>, !torch.int, !torch.bool -> !torch.vtensor<[2,32,1,1],f32>, !torch.vtensor<[2,32,1,1],f32>
    %16625 = torch.aten.add.Scalar %result0_513, %float1.000000e-05, %int1 : !torch.vtensor<[2,32,1,1],f32>, !torch.float, !torch.int -> !torch.vtensor<[2,32,1,1],f32>
    %16626 = torch.aten.rsqrt %16625 : !torch.vtensor<[2,32,1,1],f32> -> !torch.vtensor<[2,32,1,1],f32>
    %16627 = torch.aten.sub.Tensor %16622, %result1_514, %int1 : !torch.vtensor<[2,32,10,16384],f16>, !torch.vtensor<[2,32,1,1],f32>, !torch.int -> !torch.vtensor<[2,32,10,16384],f32>
    %16628 = torch.aten.mul.Tensor %16627, %16626 : !torch.vtensor<[2,32,10,16384],f32>, !torch.vtensor<[2,32,1,1],f32> -> !torch.vtensor<[2,32,10,16384],f32>
    %16629 = torch.prim.ListConstruct %int2, %int320, %int128, %int128 : (!torch.int, !torch.int, !torch.int, !torch.int) -> !torch.list<int>
    %16630 = torch.aten.view %16628, %16629 : !torch.vtensor<[2,32,10,16384],f32>, !torch.list<int> -> !torch.vtensor<[2,320,128,128],f32>
    %_params.unet.conv_norm_out.bias = util.global.load @_params.unet.conv_norm_out.bias : tensor<320xf16>
    %16631 = torch_c.from_builtin_tensor %_params.unet.conv_norm_out.bias : tensor<320xf16> -> !torch.vtensor<[320],f16>
    %16632 = torch.aten.unsqueeze %16631, %int0 : !torch.vtensor<[320],f16>, !torch.int -> !torch.vtensor<[1,320],f16>
    %16633 = torch.aten.unsqueeze %16632, %int2 : !torch.vtensor<[1,320],f16>, !torch.int -> !torch.vtensor<[1,320,1],f16>
    %16634 = torch.aten.unsqueeze %16633, %int3 : !torch.vtensor<[1,320,1],f16>, !torch.int -> !torch.vtensor<[1,320,1,1],f16>
    %_params.unet.conv_norm_out.weight = util.global.load @_params.unet.conv_norm_out.weight : tensor<320xf16>
    %16635 = torch_c.from_builtin_tensor %_params.unet.conv_norm_out.weight : tensor<320xf16> -> !torch.vtensor<[320],f16>
    %16636 = torch.aten.unsqueeze %16635, %int0 : !torch.vtensor<[320],f16>, !torch.int -> !torch.vtensor<[1,320],f16>
    %16637 = torch.aten.unsqueeze %16636, %int2 : !torch.vtensor<[1,320],f16>, !torch.int -> !torch.vtensor<[1,320,1],f16>
    %16638 = torch.aten.unsqueeze %16637, %int3 : !torch.vtensor<[1,320,1],f16>, !torch.int -> !torch.vtensor<[1,320,1,1],f16>
    %16639 = torch.aten.mul.Tensor %16630, %16638 : !torch.vtensor<[2,320,128,128],f32>, !torch.vtensor<[1,320,1,1],f16> -> !torch.vtensor<[2,320,128,128],f32>
    %16640 = torch.aten.add.Tensor %16639, %16634, %int1 : !torch.vtensor<[2,320,128,128],f32>, !torch.vtensor<[1,320,1,1],f16>, !torch.int -> !torch.vtensor<[2,320,128,128],f32>
    %16641 = torch.prims.convert_element_type %16640, %int5 : !torch.vtensor<[2,320,128,128],f32>, !torch.int -> !torch.vtensor<[2,320,128,128],f16>
    %16642 = torch.prims.convert_element_type %result1_514, %int5 : !torch.vtensor<[2,32,1,1],f32>, !torch.int -> !torch.vtensor<[2,32,1,1],f16>
    %16643 = torch.prims.convert_element_type %16626, %int5 : !torch.vtensor<[2,32,1,1],f32>, !torch.int -> !torch.vtensor<[2,32,1,1],f16>
    %16644 = torch.prim.ListConstruct %int3 : (!torch.int) -> !torch.list<int>
    %16645 = torch.prims.squeeze %16642, %16644 : !torch.vtensor<[2,32,1,1],f16>, !torch.list<int> -> !torch.vtensor<[2,32,1],f16>
    %16646 = torch.prim.ListConstruct %int2 : (!torch.int) -> !torch.list<int>
    %16647 = torch.prims.squeeze %16645, %16646 : !torch.vtensor<[2,32,1],f16>, !torch.list<int> -> !torch.vtensor<[2,32],f16>
    %16648 = torch.prim.ListConstruct %int3 : (!torch.int) -> !torch.list<int>
    %16649 = torch.prims.squeeze %16643, %16648 : !torch.vtensor<[2,32,1,1],f16>, !torch.list<int> -> !torch.vtensor<[2,32,1],f16>
    %16650 = torch.prim.ListConstruct %int2 : (!torch.int) -> !torch.list<int>
    %16651 = torch.prims.squeeze %16649, %16650 : !torch.vtensor<[2,32,1],f16>, !torch.list<int> -> !torch.vtensor<[2,32],f16>
    %16652 = torch.aten.silu %16641 : !torch.vtensor<[2,320,128,128],f16> -> !torch.vtensor<[2,320,128,128],f16>
    %_params.unet.conv_out.weight = util.global.load @_params.unet.conv_out.weight : tensor<4x320x3x3xf16>
    %16653 = torch_c.from_builtin_tensor %_params.unet.conv_out.weight : tensor<4x320x3x3xf16> -> !torch.vtensor<[4,320,3,3],f16>
    %_params.unet.conv_out.bias = util.global.load @_params.unet.conv_out.bias : tensor<4xf16>
    %16654 = torch_c.from_builtin_tensor %_params.unet.conv_out.bias : tensor<4xf16> -> !torch.vtensor<[4],f16>
    %16655 = torch.prim.ListConstruct %int1, %int1 : (!torch.int, !torch.int) -> !torch.list<int>
    %16656 = torch.prim.ListConstruct %int1, %int1 : (!torch.int, !torch.int) -> !torch.list<int>
    %16657 = torch.prim.ListConstruct %int1, %int1 : (!torch.int, !torch.int) -> !torch.list<int>
    %16658 = torch.prim.ListConstruct %int0, %int0 : (!torch.int, !torch.int) -> !torch.list<int>
    %16659 = torch.aten.convolution %16652, %16653, %16654, %16655, %16656, %16657, %false, %16658, %int1 : !torch.vtensor<[2,320,128,128],f16>, !torch.vtensor<[4,320,3,3],f16>, !torch.vtensor<[4],f16>, !torch.list<int>, !torch.list<int>, !torch.list<int>, !torch.bool, !torch.list<int>, !torch.int -> !torch.vtensor<[2,4,128,128],f16>
    %16660 = torch.aten.slice.Tensor %16659, %int0, %int0, %int1, %int1 : !torch.vtensor<[2,4,128,128],f16>, !torch.int, !torch.int, !torch.int, !torch.int -> !torch.vtensor<[1,4,128,128],f16>
    %16661 = torch.aten.slice.Tensor %16659, %int0, %int1, %int2, %int1 : !torch.vtensor<[2,4,128,128],f16>, !torch.int, !torch.int, !torch.int, !torch.int -> !torch.vtensor<[1,4,128,128],f16>
    %16662 = torch.aten.sub.Tensor %16661, %16660, %int1 : !torch.vtensor<[1,4,128,128],f16>, !torch.vtensor<[1,4,128,128],f16>, !torch.int -> !torch.vtensor<[1,4,128,128],f16>
    %16663 = torch.aten.mul.Tensor %7, %16662 : !torch.vtensor<[1],f16>, !torch.vtensor<[1,4,128,128],f16> -> !torch.vtensor<[1,4,128,128],f16>
    %16664 = torch.aten.add.Tensor %16660, %16663, %int1 : !torch.vtensor<[1,4,128,128],f16>, !torch.vtensor<[1,4,128,128],f16>, !torch.int -> !torch.vtensor<[1,4,128,128],f16>
    %16665 = torch.aten.sub.Scalar %10, %int34, %int1 : !torch.vtensor<[1],si64>, !torch.int, !torch.int -> !torch.vtensor<[1],si64>
    %16666 = torch.aten.index_select %1, %int0, %10 : !torch.vtensor<[1000],f32>, !torch.int, !torch.vtensor<[1],si64> -> !torch.vtensor<[1],f32>
    %16667 = torch.aten.ge.Scalar %16665, %int0 : !torch.vtensor<[1],si64>, !torch.int -> !torch.vtensor<[1],i1>
    %16668 = torch.aten.add.Scalar %16665, %int1000, %int1 : !torch.vtensor<[1],si64>, !torch.int, !torch.int -> !torch.vtensor<[1],si64>
    %16669 = torch.aten.where.self %16667, %16665, %16668 : !torch.vtensor<[1],i1>, !torch.vtensor<[1],si64>, !torch.vtensor<[1],si64> -> !torch.vtensor<[1],si64>
    %16670 = torch.aten.ge.Scalar %16665, %int0 : !torch.vtensor<[1],si64>, !torch.int -> !torch.vtensor<[1],i1>
    %16671 = torch.aten.index_select %1, %int0, %16669 : !torch.vtensor<[1000],f32>, !torch.int, !torch.vtensor<[1],si64> -> !torch.vtensor<[1],f32>
    %16672 = torch.aten.where.self %16670, %16671, %2 : !torch.vtensor<[1],i1>, !torch.vtensor<[1],f32>, !torch.vtensor<[],f32> -> !torch.vtensor<[1],f32>
    %16673 = torch.aten.rsub.Scalar %16666, %int1, %int1 : !torch.vtensor<[1],f32>, !torch.int, !torch.int -> !torch.vtensor<[1],f32>
    %16674 = torch.aten.rsub.Scalar %16672, %int1, %int1 : !torch.vtensor<[1],f32>, !torch.int, !torch.int -> !torch.vtensor<[1],f32>
    %16675 = torch.aten.div.Tensor %16672, %16666 : !torch.vtensor<[1],f32>, !torch.vtensor<[1],f32> -> !torch.vtensor<[1],f32>
    %16676 = torch.aten.pow.Tensor_Scalar %16675, %float5.000000e-01 : !torch.vtensor<[1],f32>, !torch.float -> !torch.vtensor<[1],f32>
    %16677 = torch.aten.pow.Tensor_Scalar %16674, %float5.000000e-01 : !torch.vtensor<[1],f32>, !torch.float -> !torch.vtensor<[1],f32>
    %16678 = torch.aten.mul.Tensor %16666, %16677 : !torch.vtensor<[1],f32>, !torch.vtensor<[1],f32> -> !torch.vtensor<[1],f32>
    %16679 = torch.aten.mul.Tensor %16666, %16673 : !torch.vtensor<[1],f32>, !torch.vtensor<[1],f32> -> !torch.vtensor<[1],f32>
    %16680 = torch.aten.mul.Tensor %16679, %16672 : !torch.vtensor<[1],f32>, !torch.vtensor<[1],f32> -> !torch.vtensor<[1],f32>
    %16681 = torch.aten.pow.Tensor_Scalar %16680, %float5.000000e-01 : !torch.vtensor<[1],f32>, !torch.float -> !torch.vtensor<[1],f32>
    %16682 = torch.aten.add.Tensor %16678, %16681, %int1 : !torch.vtensor<[1],f32>, !torch.vtensor<[1],f32>, !torch.int -> !torch.vtensor<[1],f32>
    %16683 = torch.aten.mul.Tensor %16676, %3 : !torch.vtensor<[1],f32>, !torch.vtensor<[1,4,128,128],f16> -> !torch.vtensor<[1,4,128,128],f32>
    %16684 = torch.aten.sub.Tensor %16672, %16666, %int1 : !torch.vtensor<[1],f32>, !torch.vtensor<[1],f32>, !torch.int -> !torch.vtensor<[1],f32>
    %16685 = torch.aten.mul.Tensor %16684, %16664 : !torch.vtensor<[1],f32>, !torch.vtensor<[1,4,128,128],f16> -> !torch.vtensor<[1,4,128,128],f32>
    %16686 = torch.aten.div.Tensor %16685, %16682 : !torch.vtensor<[1,4,128,128],f32>, !torch.vtensor<[1],f32> -> !torch.vtensor<[1,4,128,128],f32>
    %16687 = torch.aten.sub.Tensor %16683, %16686, %int1 : !torch.vtensor<[1,4,128,128],f32>, !torch.vtensor<[1,4,128,128],f32>, !torch.int -> !torch.vtensor<[1,4,128,128],f32>
    %16688 = torch.prims.convert_element_type %16687, %int5 : !torch.vtensor<[1,4,128,128],f32>, !torch.int -> !torch.vtensor<[1,4,128,128],f16>
    %16689 = torch_c.to_builtin_tensor %16688 : !torch.vtensor<[1,4,128,128],f16> -> tensor<1x4x128x128xf16>
    return %16689 : tensor<1x4x128x128xf16>
  }
  hal.executable.source private @hip_matmul_exe_2048x1280_1280x1280 attributes {objects = #hal.executable.objects<{#executable_target_rocm_hsaco_fb = [#hal.executable.object<{path = "../tensile/output_2048x1280x1280/Cijk_Alik_Bljk_HSS_BH_Bias_AS_SAV_UserArgs_MT128LGssD3D5uUpJpwMOz9bV1KUetBSFPuVbIJbtPQNALVk=.co"}>]}>} {
    hal.executable.export public @Cijk_Alik_Bljk_HSS_BH_Bias_AS_SAV_UserArgs_MT128x80x64_MI16x16x1_SN_LDSB1_AFC1_AFEM1_AFEM1_ASEM1_CLR1_EPS0_GRVWA8_GRVWB4_IU1_K1_LBSPPA256_LBSPPB128_LBSPPM0_LPA16_LPB16_LPM0_LRVW8_LWPMn1_MIAV0_MIWT2_5_MO40_NTn1_NTA0_NTB0_NTD0_NEPBS16_NLCA1_NLCB1_ONLL1_PGR2_PLR1_PKA1_SIA3_SS1_SPO0_SRVW0_SSO0_SVW2_TLDS1_USFGROn1_VWA2_VWB1_WSGRA0_WSGRB0_WG64_4_1 ordinal(0) layout(#pipeline_layout) attributes {hal.interface.bindings = [#hal.interface.binding<0, 0>, #hal.interface.binding<0, 1>, #hal.interface.binding<0, 2>, #hal.interface.binding<0, 3>], rocm.parameter_mapping = "c4:0:0,c4:4:4,c4:8:8,c4:12:12,c4:16:16,c4:20:20,b8:0:0:24,b8:0:1:32,b8:0:2:40,b8:0:3:48,c4:24:56,c4:28:60,c4:32:64,c4:36:68,c4:40:72,c4:44:76,c4:48:80,c4:52:84,c4:56:88,c4:60:92,c4:64:96,c4:68:100,c4:72:104,c4:76:108,c4:80:112,c4:84:116,c4:88:120,c4:92:124,c4:96:128", workgroup_size = [256 : index, 1 : index, 1 : index]} {
    ^bb0(%arg0: !hal.device, %arg1: index):
      %c16 = arith.constant 16 : index
      %c1 = arith.constant 1 : index
      hal.return %c16, %c16, %c1 : index, index, index
    }
  }
}

{-#
  dialect_resources: {
    builtin: {
      torch_tensor_1_6_torch.int64: "…",
      torch_tensor_30_torch.int64: "…",
      torch_tensor_1000_torch.float32: "…"
    }
  }
#-}
