#executable_target_rocm_hsaco_fb = #hal.executable.target<"rocm", "rocm-hsaco-fb", {target_arch = "gfx942"}>
#pipeline_layout = #hal.pipeline.layout<push_constants = 1, sets = [<0, bindings = [<0, storage_buffer>, <1, storage_buffer>, <2, storage_buffer, ReadOnly>, <3, storage_buffer, ReadOnly>]>]>
module @compiled_scheduled_unet {
  util.global private @_params.unet.conv_in.weight {noinline} = #stream.parameter.named<"model"::"unet.conv_in.weight"> : tensor<320x4x3x3xf16>
  util.global private @_params.unet.conv_in.bias {noinline} = #stream.parameter.named<"model"::"unet.conv_in.bias"> : tensor<320xf16>
  util.global private @_params.unet.time_embedding.linear_1.weight {noinline} = #stream.parameter.named<"model"::"unet.time_embedding.linear_1.weight"> : tensor<1280x320xf16>
  util.global private @_params.unet.time_embedding.linear_1.bias {noinline} = #stream.parameter.named<"model"::"unet.time_embedding.linear_1.bias"> : tensor<1280xf16>
  util.global private @_params.unet.time_embedding.linear_2.weight {noinline} = #stream.parameter.named<"model"::"unet.time_embedding.linear_2.weight"> : tensor<1280x1280xf16>
  util.global private @_params.unet.time_embedding.linear_2.bias {noinline} = #stream.parameter.named<"model"::"unet.time_embedding.linear_2.bias"> : tensor<1280xf16>
  util.global private @_params.unet.add_embedding.linear_1.weight {noinline} = #stream.parameter.named<"model"::"unet.add_embedding.linear_1.weight"> : tensor<1280x2816xf16>
  util.global private @_params.unet.add_embedding.linear_1.bias {noinline} = #stream.parameter.named<"model"::"unet.add_embedding.linear_1.bias"> : tensor<1280xf16>
  util.global private @_params.unet.add_embedding.linear_2.weight {noinline} = #stream.parameter.named<"model"::"unet.add_embedding.linear_2.weight"> : tensor<1280x1280xf16>
  util.global private @_params.unet.add_embedding.linear_2.bias {noinline} = #stream.parameter.named<"model"::"unet.add_embedding.linear_2.bias"> : tensor<1280xf16>
  util.global private @_params.unet.down_blocks.0.resnets.0.norm1.weight {noinline} = #stream.parameter.named<"model"::"unet.down_blocks.0.resnets.0.norm1.weight"> : tensor<320xf16>
  util.global private @_params.unet.down_blocks.0.resnets.0.norm1.bias {noinline} = #stream.parameter.named<"model"::"unet.down_blocks.0.resnets.0.norm1.bias"> : tensor<320xf16>
  util.global private @_params.unet.down_blocks.0.resnets.0.conv1.weight {noinline} = #stream.parameter.named<"model"::"unet.down_blocks.0.resnets.0.conv1.weight"> : tensor<320x320x3x3xf16>
  util.global private @_params.unet.down_blocks.0.resnets.0.conv1.bias {noinline} = #stream.parameter.named<"model"::"unet.down_blocks.0.resnets.0.conv1.bias"> : tensor<320xf16>
  util.global private @_params.unet.down_blocks.0.resnets.0.time_emb_proj.weight {noinline} = #stream.parameter.named<"model"::"unet.down_blocks.0.resnets.0.time_emb_proj.weight"> : tensor<320x1280xf16>
  util.global private @_params.unet.down_blocks.0.resnets.0.time_emb_proj.bias {noinline} = #stream.parameter.named<"model"::"unet.down_blocks.0.resnets.0.time_emb_proj.bias"> : tensor<320xf16>
  util.global private @_params.unet.down_blocks.0.resnets.0.norm2.weight {noinline} = #stream.parameter.named<"model"::"unet.down_blocks.0.resnets.0.norm2.weight"> : tensor<320xf16>
  util.global private @_params.unet.down_blocks.0.resnets.0.norm2.bias {noinline} = #stream.parameter.named<"model"::"unet.down_blocks.0.resnets.0.norm2.bias"> : tensor<320xf16>
  util.global private @_params.unet.down_blocks.0.resnets.0.conv2.weight {noinline} = #stream.parameter.named<"model"::"unet.down_blocks.0.resnets.0.conv2.weight"> : tensor<320x320x3x3xf16>
  util.global private @_params.unet.down_blocks.0.resnets.0.conv2.bias {noinline} = #stream.parameter.named<"model"::"unet.down_blocks.0.resnets.0.conv2.bias"> : tensor<320xf16>
  util.global private @_params.unet.down_blocks.0.resnets.1.norm1.weight {noinline} = #stream.parameter.named<"model"::"unet.down_blocks.0.resnets.1.norm1.weight"> : tensor<320xf16>
  util.global private @_params.unet.down_blocks.0.resnets.1.norm1.bias {noinline} = #stream.parameter.named<"model"::"unet.down_blocks.0.resnets.1.norm1.bias"> : tensor<320xf16>
  util.global private @_params.unet.down_blocks.0.resnets.1.conv1.weight {noinline} = #stream.parameter.named<"model"::"unet.down_blocks.0.resnets.1.conv1.weight"> : tensor<320x320x3x3xf16>
  util.global private @_params.unet.down_blocks.0.resnets.1.conv1.bias {noinline} = #stream.parameter.named<"model"::"unet.down_blocks.0.resnets.1.conv1.bias"> : tensor<320xf16>
  util.global private @_params.unet.down_blocks.0.resnets.1.time_emb_proj.weight {noinline} = #stream.parameter.named<"model"::"unet.down_blocks.0.resnets.1.time_emb_proj.weight"> : tensor<320x1280xf16>
  util.global private @_params.unet.down_blocks.0.resnets.1.time_emb_proj.bias {noinline} = #stream.parameter.named<"model"::"unet.down_blocks.0.resnets.1.time_emb_proj.bias"> : tensor<320xf16>
  util.global private @_params.unet.down_blocks.0.resnets.1.norm2.weight {noinline} = #stream.parameter.named<"model"::"unet.down_blocks.0.resnets.1.norm2.weight"> : tensor<320xf16>
  util.global private @_params.unet.down_blocks.0.resnets.1.norm2.bias {noinline} = #stream.parameter.named<"model"::"unet.down_blocks.0.resnets.1.norm2.bias"> : tensor<320xf16>
  util.global private @_params.unet.down_blocks.0.resnets.1.conv2.weight {noinline} = #stream.parameter.named<"model"::"unet.down_blocks.0.resnets.1.conv2.weight"> : tensor<320x320x3x3xf16>
  util.global private @_params.unet.down_blocks.0.resnets.1.conv2.bias {noinline} = #stream.parameter.named<"model"::"unet.down_blocks.0.resnets.1.conv2.bias"> : tensor<320xf16>
  util.global private @_params.unet.down_blocks.0.downsamplers.0.conv.weight {noinline} = #stream.parameter.named<"model"::"unet.down_blocks.0.downsamplers.0.conv.weight"> : tensor<320x320x3x3xf16>
  util.global private @_params.unet.down_blocks.0.downsamplers.0.conv.bias {noinline} = #stream.parameter.named<"model"::"unet.down_blocks.0.downsamplers.0.conv.bias"> : tensor<320xf16>
  util.global private @_params.unet.down_blocks.1.attentions.0.norm.weight {noinline} = #stream.parameter.named<"model"::"unet.down_blocks.1.attentions.0.norm.weight"> : tensor<640xf16>
  util.global private @_params.unet.down_blocks.1.attentions.0.norm.bias {noinline} = #stream.parameter.named<"model"::"unet.down_blocks.1.attentions.0.norm.bias"> : tensor<640xf16>
  util.global private @_params.unet.down_blocks.1.attentions.0.proj_in.weight {noinline} = #stream.parameter.named<"model"::"unet.down_blocks.1.attentions.0.proj_in.weight"> : tensor<640x640xf16>
  util.global private @_params.unet.down_blocks.1.attentions.0.proj_in.bias {noinline} = #stream.parameter.named<"model"::"unet.down_blocks.1.attentions.0.proj_in.bias"> : tensor<640xf16>
  util.global private @_params.unet.down_blocks.1.attentions.0.transformer_blocks.0.norm1.weight {noinline} = #stream.parameter.named<"model"::"unet.down_blocks.1.attentions.0.transformer_blocks.0.norm1.weight"> : tensor<640xf16>
  util.global private @_params.unet.down_blocks.1.attentions.0.transformer_blocks.0.norm1.bias {noinline} = #stream.parameter.named<"model"::"unet.down_blocks.1.attentions.0.transformer_blocks.0.norm1.bias"> : tensor<640xf16>
  util.global private @_params.unet.down_blocks.1.attentions.0.transformer_blocks.0.attn1.to_q.weight {noinline} = #stream.parameter.named<"model"::"unet.down_blocks.1.attentions.0.transformer_blocks.0.attn1.to_q.weight"> : tensor<640x640xf16>
  util.global private @_params.unet.down_blocks.1.attentions.0.transformer_blocks.0.attn1.to_k.weight {noinline} = #stream.parameter.named<"model"::"unet.down_blocks.1.attentions.0.transformer_blocks.0.attn1.to_k.weight"> : tensor<640x640xf16>
  util.global private @_params.unet.down_blocks.1.attentions.0.transformer_blocks.0.attn1.to_v.weight {noinline} = #stream.parameter.named<"model"::"unet.down_blocks.1.attentions.0.transformer_blocks.0.attn1.to_v.weight"> : tensor<640x640xf16>
  util.global private @_params.unet.down_blocks.1.attentions.0.transformer_blocks.0.attn1.to_out.0.weight {noinline} = #stream.parameter.named<"model"::"unet.down_blocks.1.attentions.0.transformer_blocks.0.attn1.to_out.0.weight"> : tensor<640x640xf16>
  util.global private @_params.unet.down_blocks.1.attentions.0.transformer_blocks.0.attn1.to_out.0.bias {noinline} = #stream.parameter.named<"model"::"unet.down_blocks.1.attentions.0.transformer_blocks.0.attn1.to_out.0.bias"> : tensor<640xf16>
  util.global private @_params.unet.down_blocks.1.attentions.0.transformer_blocks.0.norm2.weight {noinline} = #stream.parameter.named<"model"::"unet.down_blocks.1.attentions.0.transformer_blocks.0.norm2.weight"> : tensor<640xf16>
  util.global private @_params.unet.down_blocks.1.attentions.0.transformer_blocks.0.norm2.bias {noinline} = #stream.parameter.named<"model"::"unet.down_blocks.1.attentions.0.transformer_blocks.0.norm2.bias"> : tensor<640xf16>
  util.global private @_params.unet.down_blocks.1.attentions.0.transformer_blocks.0.attn2.to_q.weight {noinline} = #stream.parameter.named<"model"::"unet.down_blocks.1.attentions.0.transformer_blocks.0.attn2.to_q.weight"> : tensor<640x640xf16>
  util.global private @_params.unet.down_blocks.1.attentions.0.transformer_blocks.0.attn2.to_k.weight {noinline} = #stream.parameter.named<"model"::"unet.down_blocks.1.attentions.0.transformer_blocks.0.attn2.to_k.weight"> : tensor<640x2048xf16>
  util.global private @_params.unet.down_blocks.1.attentions.0.transformer_blocks.0.attn2.to_v.weight {noinline} = #stream.parameter.named<"model"::"unet.down_blocks.1.attentions.0.transformer_blocks.0.attn2.to_v.weight"> : tensor<640x2048xf16>
  util.global private @_params.unet.down_blocks.1.attentions.0.transformer_blocks.0.attn2.to_out.0.weight {noinline} = #stream.parameter.named<"model"::"unet.down_blocks.1.attentions.0.transformer_blocks.0.attn2.to_out.0.weight"> : tensor<640x640xf16>
  util.global private @_params.unet.down_blocks.1.attentions.0.transformer_blocks.0.attn2.to_out.0.bias {noinline} = #stream.parameter.named<"model"::"unet.down_blocks.1.attentions.0.transformer_blocks.0.attn2.to_out.0.bias"> : tensor<640xf16>
  util.global private @_params.unet.down_blocks.1.attentions.0.transformer_blocks.0.norm3.weight {noinline} = #stream.parameter.named<"model"::"unet.down_blocks.1.attentions.0.transformer_blocks.0.norm3.weight"> : tensor<640xf16>
  util.global private @_params.unet.down_blocks.1.attentions.0.transformer_blocks.0.norm3.bias {noinline} = #stream.parameter.named<"model"::"unet.down_blocks.1.attentions.0.transformer_blocks.0.norm3.bias"> : tensor<640xf16>
  util.global private @_params.unet.down_blocks.1.attentions.0.transformer_blocks.0.ff.net.0.proj.weight {noinline} = #stream.parameter.named<"model"::"unet.down_blocks.1.attentions.0.transformer_blocks.0.ff.net.0.proj.weight"> : tensor<5120x640xf16>
  util.global private @_params.unet.down_blocks.1.attentions.0.transformer_blocks.0.ff.net.0.proj.bias {noinline} = #stream.parameter.named<"model"::"unet.down_blocks.1.attentions.0.transformer_blocks.0.ff.net.0.proj.bias"> : tensor<5120xf16>
  util.global private @_params.unet.down_blocks.1.attentions.0.transformer_blocks.0.ff.net.2.weight {noinline} = #stream.parameter.named<"model"::"unet.down_blocks.1.attentions.0.transformer_blocks.0.ff.net.2.weight"> : tensor<640x2560xf16>
  util.global private @_params.unet.down_blocks.1.attentions.0.transformer_blocks.0.ff.net.2.bias {noinline} = #stream.parameter.named<"model"::"unet.down_blocks.1.attentions.0.transformer_blocks.0.ff.net.2.bias"> : tensor<640xf16>
  util.global private @_params.unet.down_blocks.1.attentions.0.transformer_blocks.1.norm1.weight {noinline} = #stream.parameter.named<"model"::"unet.down_blocks.1.attentions.0.transformer_blocks.1.norm1.weight"> : tensor<640xf16>
  util.global private @_params.unet.down_blocks.1.attentions.0.transformer_blocks.1.norm1.bias {noinline} = #stream.parameter.named<"model"::"unet.down_blocks.1.attentions.0.transformer_blocks.1.norm1.bias"> : tensor<640xf16>
  util.global private @_params.unet.down_blocks.1.attentions.0.transformer_blocks.1.attn1.to_q.weight {noinline} = #stream.parameter.named<"model"::"unet.down_blocks.1.attentions.0.transformer_blocks.1.attn1.to_q.weight"> : tensor<640x640xf16>
  util.global private @_params.unet.down_blocks.1.attentions.0.transformer_blocks.1.attn1.to_k.weight {noinline} = #stream.parameter.named<"model"::"unet.down_blocks.1.attentions.0.transformer_blocks.1.attn1.to_k.weight"> : tensor<640x640xf16>
  util.global private @_params.unet.down_blocks.1.attentions.0.transformer_blocks.1.attn1.to_v.weight {noinline} = #stream.parameter.named<"model"::"unet.down_blocks.1.attentions.0.transformer_blocks.1.attn1.to_v.weight"> : tensor<640x640xf16>
  util.global private @_params.unet.down_blocks.1.attentions.0.transformer_blocks.1.attn1.to_out.0.weight {noinline} = #stream.parameter.named<"model"::"unet.down_blocks.1.attentions.0.transformer_blocks.1.attn1.to_out.0.weight"> : tensor<640x640xf16>
  util.global private @_params.unet.down_blocks.1.attentions.0.transformer_blocks.1.attn1.to_out.0.bias {noinline} = #stream.parameter.named<"model"::"unet.down_blocks.1.attentions.0.transformer_blocks.1.attn1.to_out.0.bias"> : tensor<640xf16>
  util.global private @_params.unet.down_blocks.1.attentions.0.transformer_blocks.1.norm2.weight {noinline} = #stream.parameter.named<"model"::"unet.down_blocks.1.attentions.0.transformer_blocks.1.norm2.weight"> : tensor<640xf16>
  util.global private @_params.unet.down_blocks.1.attentions.0.transformer_blocks.1.norm2.bias {noinline} = #stream.parameter.named<"model"::"unet.down_blocks.1.attentions.0.transformer_blocks.1.norm2.bias"> : tensor<640xf16>
  util.global private @_params.unet.down_blocks.1.attentions.0.transformer_blocks.1.attn2.to_q.weight {noinline} = #stream.parameter.named<"model"::"unet.down_blocks.1.attentions.0.transformer_blocks.1.attn2.to_q.weight"> : tensor<640x640xf16>
  util.global private @_params.unet.down_blocks.1.attentions.0.transformer_blocks.1.attn2.to_k.weight {noinline} = #stream.parameter.named<"model"::"unet.down_blocks.1.attentions.0.transformer_blocks.1.attn2.to_k.weight"> : tensor<640x2048xf16>
  util.global private @_params.unet.down_blocks.1.attentions.0.transformer_blocks.1.attn2.to_v.weight {noinline} = #stream.parameter.named<"model"::"unet.down_blocks.1.attentions.0.transformer_blocks.1.attn2.to_v.weight"> : tensor<640x2048xf16>
  util.global private @_params.unet.down_blocks.1.attentions.0.transformer_blocks.1.attn2.to_out.0.weight {noinline} = #stream.parameter.named<"model"::"unet.down_blocks.1.attentions.0.transformer_blocks.1.attn2.to_out.0.weight"> : tensor<640x640xf16>
  util.global private @_params.unet.down_blocks.1.attentions.0.transformer_blocks.1.attn2.to_out.0.bias {noinline} = #stream.parameter.named<"model"::"unet.down_blocks.1.attentions.0.transformer_blocks.1.attn2.to_out.0.bias"> : tensor<640xf16>
  util.global private @_params.unet.down_blocks.1.attentions.0.transformer_blocks.1.norm3.weight {noinline} = #stream.parameter.named<"model"::"unet.down_blocks.1.attentions.0.transformer_blocks.1.norm3.weight"> : tensor<640xf16>
  util.global private @_params.unet.down_blocks.1.attentions.0.transformer_blocks.1.norm3.bias {noinline} = #stream.parameter.named<"model"::"unet.down_blocks.1.attentions.0.transformer_blocks.1.norm3.bias"> : tensor<640xf16>
  util.global private @_params.unet.down_blocks.1.attentions.0.transformer_blocks.1.ff.net.0.proj.weight {noinline} = #stream.parameter.named<"model"::"unet.down_blocks.1.attentions.0.transformer_blocks.1.ff.net.0.proj.weight"> : tensor<5120x640xf16>
  util.global private @_params.unet.down_blocks.1.attentions.0.transformer_blocks.1.ff.net.0.proj.bias {noinline} = #stream.parameter.named<"model"::"unet.down_blocks.1.attentions.0.transformer_blocks.1.ff.net.0.proj.bias"> : tensor<5120xf16>
  util.global private @_params.unet.down_blocks.1.attentions.0.transformer_blocks.1.ff.net.2.weight {noinline} = #stream.parameter.named<"model"::"unet.down_blocks.1.attentions.0.transformer_blocks.1.ff.net.2.weight"> : tensor<640x2560xf16>
  util.global private @_params.unet.down_blocks.1.attentions.0.transformer_blocks.1.ff.net.2.bias {noinline} = #stream.parameter.named<"model"::"unet.down_blocks.1.attentions.0.transformer_blocks.1.ff.net.2.bias"> : tensor<640xf16>
  util.global private @_params.unet.down_blocks.1.attentions.0.proj_out.weight {noinline} = #stream.parameter.named<"model"::"unet.down_blocks.1.attentions.0.proj_out.weight"> : tensor<640x640xf16>
  util.global private @_params.unet.down_blocks.1.attentions.0.proj_out.bias {noinline} = #stream.parameter.named<"model"::"unet.down_blocks.1.attentions.0.proj_out.bias"> : tensor<640xf16>
  util.global private @_params.unet.down_blocks.1.attentions.1.norm.weight {noinline} = #stream.parameter.named<"model"::"unet.down_blocks.1.attentions.1.norm.weight"> : tensor<640xf16>
  util.global private @_params.unet.down_blocks.1.attentions.1.norm.bias {noinline} = #stream.parameter.named<"model"::"unet.down_blocks.1.attentions.1.norm.bias"> : tensor<640xf16>
  util.global private @_params.unet.down_blocks.1.attentions.1.proj_in.weight {noinline} = #stream.parameter.named<"model"::"unet.down_blocks.1.attentions.1.proj_in.weight"> : tensor<640x640xf16>
  util.global private @_params.unet.down_blocks.1.attentions.1.proj_in.bias {noinline} = #stream.parameter.named<"model"::"unet.down_blocks.1.attentions.1.proj_in.bias"> : tensor<640xf16>
  util.global private @_params.unet.down_blocks.1.attentions.1.transformer_blocks.0.norm1.weight {noinline} = #stream.parameter.named<"model"::"unet.down_blocks.1.attentions.1.transformer_blocks.0.norm1.weight"> : tensor<640xf16>
  util.global private @_params.unet.down_blocks.1.attentions.1.transformer_blocks.0.norm1.bias {noinline} = #stream.parameter.named<"model"::"unet.down_blocks.1.attentions.1.transformer_blocks.0.norm1.bias"> : tensor<640xf16>
  util.global private @_params.unet.down_blocks.1.attentions.1.transformer_blocks.0.attn1.to_q.weight {noinline} = #stream.parameter.named<"model"::"unet.down_blocks.1.attentions.1.transformer_blocks.0.attn1.to_q.weight"> : tensor<640x640xf16>
  util.global private @_params.unet.down_blocks.1.attentions.1.transformer_blocks.0.attn1.to_k.weight {noinline} = #stream.parameter.named<"model"::"unet.down_blocks.1.attentions.1.transformer_blocks.0.attn1.to_k.weight"> : tensor<640x640xf16>
  util.global private @_params.unet.down_blocks.1.attentions.1.transformer_blocks.0.attn1.to_v.weight {noinline} = #stream.parameter.named<"model"::"unet.down_blocks.1.attentions.1.transformer_blocks.0.attn1.to_v.weight"> : tensor<640x640xf16>
  util.global private @_params.unet.down_blocks.1.attentions.1.transformer_blocks.0.attn1.to_out.0.weight {noinline} = #stream.parameter.named<"model"::"unet.down_blocks.1.attentions.1.transformer_blocks.0.attn1.to_out.0.weight"> : tensor<640x640xf16>
  util.global private @_params.unet.down_blocks.1.attentions.1.transformer_blocks.0.attn1.to_out.0.bias {noinline} = #stream.parameter.named<"model"::"unet.down_blocks.1.attentions.1.transformer_blocks.0.attn1.to_out.0.bias"> : tensor<640xf16>
  util.global private @_params.unet.down_blocks.1.attentions.1.transformer_blocks.0.norm2.weight {noinline} = #stream.parameter.named<"model"::"unet.down_blocks.1.attentions.1.transformer_blocks.0.norm2.weight"> : tensor<640xf16>
  util.global private @_params.unet.down_blocks.1.attentions.1.transformer_blocks.0.norm2.bias {noinline} = #stream.parameter.named<"model"::"unet.down_blocks.1.attentions.1.transformer_blocks.0.norm2.bias"> : tensor<640xf16>
  util.global private @_params.unet.down_blocks.1.attentions.1.transformer_blocks.0.attn2.to_q.weight {noinline} = #stream.parameter.named<"model"::"unet.down_blocks.1.attentions.1.transformer_blocks.0.attn2.to_q.weight"> : tensor<640x640xf16>
  util.global private @_params.unet.down_blocks.1.attentions.1.transformer_blocks.0.attn2.to_k.weight {noinline} = #stream.parameter.named<"model"::"unet.down_blocks.1.attentions.1.transformer_blocks.0.attn2.to_k.weight"> : tensor<640x2048xf16>
  util.global private @_params.unet.down_blocks.1.attentions.1.transformer_blocks.0.attn2.to_v.weight {noinline} = #stream.parameter.named<"model"::"unet.down_blocks.1.attentions.1.transformer_blocks.0.attn2.to_v.weight"> : tensor<640x2048xf16>
  util.global private @_params.unet.down_blocks.1.attentions.1.transformer_blocks.0.attn2.to_out.0.weight {noinline} = #stream.parameter.named<"model"::"unet.down_blocks.1.attentions.1.transformer_blocks.0.attn2.to_out.0.weight"> : tensor<640x640xf16>
  util.global private @_params.unet.down_blocks.1.attentions.1.transformer_blocks.0.attn2.to_out.0.bias {noinline} = #stream.parameter.named<"model"::"unet.down_blocks.1.attentions.1.transformer_blocks.0.attn2.to_out.0.bias"> : tensor<640xf16>
  util.global private @_params.unet.down_blocks.1.attentions.1.transformer_blocks.0.norm3.weight {noinline} = #stream.parameter.named<"model"::"unet.down_blocks.1.attentions.1.transformer_blocks.0.norm3.weight"> : tensor<640xf16>
  util.global private @_params.unet.down_blocks.1.attentions.1.transformer_blocks.0.norm3.bias {noinline} = #stream.parameter.named<"model"::"unet.down_blocks.1.attentions.1.transformer_blocks.0.norm3.bias"> : tensor<640xf16>
  util.global private @_params.unet.down_blocks.1.attentions.1.transformer_blocks.0.ff.net.0.proj.weight {noinline} = #stream.parameter.named<"model"::"unet.down_blocks.1.attentions.1.transformer_blocks.0.ff.net.0.proj.weight"> : tensor<5120x640xf16>
  util.global private @_params.unet.down_blocks.1.attentions.1.transformer_blocks.0.ff.net.0.proj.bias {noinline} = #stream.parameter.named<"model"::"unet.down_blocks.1.attentions.1.transformer_blocks.0.ff.net.0.proj.bias"> : tensor<5120xf16>
  util.global private @_params.unet.down_blocks.1.attentions.1.transformer_blocks.0.ff.net.2.weight {noinline} = #stream.parameter.named<"model"::"unet.down_blocks.1.attentions.1.transformer_blocks.0.ff.net.2.weight"> : tensor<640x2560xf16>
  util.global private @_params.unet.down_blocks.1.attentions.1.transformer_blocks.0.ff.net.2.bias {noinline} = #stream.parameter.named<"model"::"unet.down_blocks.1.attentions.1.transformer_blocks.0.ff.net.2.bias"> : tensor<640xf16>
  util.global private @_params.unet.down_blocks.1.attentions.1.transformer_blocks.1.norm1.weight {noinline} = #stream.parameter.named<"model"::"unet.down_blocks.1.attentions.1.transformer_blocks.1.norm1.weight"> : tensor<640xf16>
  util.global private @_params.unet.down_blocks.1.attentions.1.transformer_blocks.1.norm1.bias {noinline} = #stream.parameter.named<"model"::"unet.down_blocks.1.attentions.1.transformer_blocks.1.norm1.bias"> : tensor<640xf16>
  util.global private @_params.unet.down_blocks.1.attentions.1.transformer_blocks.1.attn1.to_q.weight {noinline} = #stream.parameter.named<"model"::"unet.down_blocks.1.attentions.1.transformer_blocks.1.attn1.to_q.weight"> : tensor<640x640xf16>
  util.global private @_params.unet.down_blocks.1.attentions.1.transformer_blocks.1.attn1.to_k.weight {noinline} = #stream.parameter.named<"model"::"unet.down_blocks.1.attentions.1.transformer_blocks.1.attn1.to_k.weight"> : tensor<640x640xf16>
  util.global private @_params.unet.down_blocks.1.attentions.1.transformer_blocks.1.attn1.to_v.weight {noinline} = #stream.parameter.named<"model"::"unet.down_blocks.1.attentions.1.transformer_blocks.1.attn1.to_v.weight"> : tensor<640x640xf16>
  util.global private @_params.unet.down_blocks.1.attentions.1.transformer_blocks.1.attn1.to_out.0.weight {noinline} = #stream.parameter.named<"model"::"unet.down_blocks.1.attentions.1.transformer_blocks.1.attn1.to_out.0.weight"> : tensor<640x640xf16>
  util.global private @_params.unet.down_blocks.1.attentions.1.transformer_blocks.1.attn1.to_out.0.bias {noinline} = #stream.parameter.named<"model"::"unet.down_blocks.1.attentions.1.transformer_blocks.1.attn1.to_out.0.bias"> : tensor<640xf16>
  util.global private @_params.unet.down_blocks.1.attentions.1.transformer_blocks.1.norm2.weight {noinline} = #stream.parameter.named<"model"::"unet.down_blocks.1.attentions.1.transformer_blocks.1.norm2.weight"> : tensor<640xf16>
  util.global private @_params.unet.down_blocks.1.attentions.1.transformer_blocks.1.norm2.bias {noinline} = #stream.parameter.named<"model"::"unet.down_blocks.1.attentions.1.transformer_blocks.1.norm2.bias"> : tensor<640xf16>
  util.global private @_params.unet.down_blocks.1.attentions.1.transformer_blocks.1.attn2.to_q.weight {noinline} = #stream.parameter.named<"model"::"unet.down_blocks.1.attentions.1.transformer_blocks.1.attn2.to_q.weight"> : tensor<640x640xf16>
  util.global private @_params.unet.down_blocks.1.attentions.1.transformer_blocks.1.attn2.to_k.weight {noinline} = #stream.parameter.named<"model"::"unet.down_blocks.1.attentions.1.transformer_blocks.1.attn2.to_k.weight"> : tensor<640x2048xf16>
  util.global private @_params.unet.down_blocks.1.attentions.1.transformer_blocks.1.attn2.to_v.weight {noinline} = #stream.parameter.named<"model"::"unet.down_blocks.1.attentions.1.transformer_blocks.1.attn2.to_v.weight"> : tensor<640x2048xf16>
  util.global private @_params.unet.down_blocks.1.attentions.1.transformer_blocks.1.attn2.to_out.0.weight {noinline} = #stream.parameter.named<"model"::"unet.down_blocks.1.attentions.1.transformer_blocks.1.attn2.to_out.0.weight"> : tensor<640x640xf16>
  util.global private @_params.unet.down_blocks.1.attentions.1.transformer_blocks.1.attn2.to_out.0.bias {noinline} = #stream.parameter.named<"model"::"unet.down_blocks.1.attentions.1.transformer_blocks.1.attn2.to_out.0.bias"> : tensor<640xf16>
  util.global private @_params.unet.down_blocks.1.attentions.1.transformer_blocks.1.norm3.weight {noinline} = #stream.parameter.named<"model"::"unet.down_blocks.1.attentions.1.transformer_blocks.1.norm3.weight"> : tensor<640xf16>
  util.global private @_params.unet.down_blocks.1.attentions.1.transformer_blocks.1.norm3.bias {noinline} = #stream.parameter.named<"model"::"unet.down_blocks.1.attentions.1.transformer_blocks.1.norm3.bias"> : tensor<640xf16>
  util.global private @_params.unet.down_blocks.1.attentions.1.transformer_blocks.1.ff.net.0.proj.weight {noinline} = #stream.parameter.named<"model"::"unet.down_blocks.1.attentions.1.transformer_blocks.1.ff.net.0.proj.weight"> : tensor<5120x640xf16>
  util.global private @_params.unet.down_blocks.1.attentions.1.transformer_blocks.1.ff.net.0.proj.bias {noinline} = #stream.parameter.named<"model"::"unet.down_blocks.1.attentions.1.transformer_blocks.1.ff.net.0.proj.bias"> : tensor<5120xf16>
  util.global private @_params.unet.down_blocks.1.attentions.1.transformer_blocks.1.ff.net.2.weight {noinline} = #stream.parameter.named<"model"::"unet.down_blocks.1.attentions.1.transformer_blocks.1.ff.net.2.weight"> : tensor<640x2560xf16>
  util.global private @_params.unet.down_blocks.1.attentions.1.transformer_blocks.1.ff.net.2.bias {noinline} = #stream.parameter.named<"model"::"unet.down_blocks.1.attentions.1.transformer_blocks.1.ff.net.2.bias"> : tensor<640xf16>
  util.global private @_params.unet.down_blocks.1.attentions.1.proj_out.weight {noinline} = #stream.parameter.named<"model"::"unet.down_blocks.1.attentions.1.proj_out.weight"> : tensor<640x640xf16>
  util.global private @_params.unet.down_blocks.1.attentions.1.proj_out.bias {noinline} = #stream.parameter.named<"model"::"unet.down_blocks.1.attentions.1.proj_out.bias"> : tensor<640xf16>
  util.global private @_params.unet.down_blocks.1.resnets.0.norm1.weight {noinline} = #stream.parameter.named<"model"::"unet.down_blocks.1.resnets.0.norm1.weight"> : tensor<320xf16>
  util.global private @_params.unet.down_blocks.1.resnets.0.norm1.bias {noinline} = #stream.parameter.named<"model"::"unet.down_blocks.1.resnets.0.norm1.bias"> : tensor<320xf16>
  util.global private @_params.unet.down_blocks.1.resnets.0.conv1.weight {noinline} = #stream.parameter.named<"model"::"unet.down_blocks.1.resnets.0.conv1.weight"> : tensor<640x320x3x3xf16>
  util.global private @_params.unet.down_blocks.1.resnets.0.conv1.bias {noinline} = #stream.parameter.named<"model"::"unet.down_blocks.1.resnets.0.conv1.bias"> : tensor<640xf16>
  util.global private @_params.unet.down_blocks.1.resnets.0.time_emb_proj.weight {noinline} = #stream.parameter.named<"model"::"unet.down_blocks.1.resnets.0.time_emb_proj.weight"> : tensor<640x1280xf16>
  util.global private @_params.unet.down_blocks.1.resnets.0.time_emb_proj.bias {noinline} = #stream.parameter.named<"model"::"unet.down_blocks.1.resnets.0.time_emb_proj.bias"> : tensor<640xf16>
  util.global private @_params.unet.down_blocks.1.resnets.0.norm2.weight {noinline} = #stream.parameter.named<"model"::"unet.down_blocks.1.resnets.0.norm2.weight"> : tensor<640xf16>
  util.global private @_params.unet.down_blocks.1.resnets.0.norm2.bias {noinline} = #stream.parameter.named<"model"::"unet.down_blocks.1.resnets.0.norm2.bias"> : tensor<640xf16>
  util.global private @_params.unet.down_blocks.1.resnets.0.conv2.weight {noinline} = #stream.parameter.named<"model"::"unet.down_blocks.1.resnets.0.conv2.weight"> : tensor<640x640x3x3xf16>
  util.global private @_params.unet.down_blocks.1.resnets.0.conv2.bias {noinline} = #stream.parameter.named<"model"::"unet.down_blocks.1.resnets.0.conv2.bias"> : tensor<640xf16>
  util.global private @_params.unet.down_blocks.1.resnets.0.conv_shortcut.weight {noinline} = #stream.parameter.named<"model"::"unet.down_blocks.1.resnets.0.conv_shortcut.weight"> : tensor<640x320x1x1xf16>
  util.global private @_params.unet.down_blocks.1.resnets.0.conv_shortcut.bias {noinline} = #stream.parameter.named<"model"::"unet.down_blocks.1.resnets.0.conv_shortcut.bias"> : tensor<640xf16>
  util.global private @_params.unet.down_blocks.1.resnets.1.norm1.weight {noinline} = #stream.parameter.named<"model"::"unet.down_blocks.1.resnets.1.norm1.weight"> : tensor<640xf16>
  util.global private @_params.unet.down_blocks.1.resnets.1.norm1.bias {noinline} = #stream.parameter.named<"model"::"unet.down_blocks.1.resnets.1.norm1.bias"> : tensor<640xf16>
  util.global private @_params.unet.down_blocks.1.resnets.1.conv1.weight {noinline} = #stream.parameter.named<"model"::"unet.down_blocks.1.resnets.1.conv1.weight"> : tensor<640x640x3x3xf16>
  util.global private @_params.unet.down_blocks.1.resnets.1.conv1.bias {noinline} = #stream.parameter.named<"model"::"unet.down_blocks.1.resnets.1.conv1.bias"> : tensor<640xf16>
  util.global private @_params.unet.down_blocks.1.resnets.1.time_emb_proj.weight {noinline} = #stream.parameter.named<"model"::"unet.down_blocks.1.resnets.1.time_emb_proj.weight"> : tensor<640x1280xf16>
  util.global private @_params.unet.down_blocks.1.resnets.1.time_emb_proj.bias {noinline} = #stream.parameter.named<"model"::"unet.down_blocks.1.resnets.1.time_emb_proj.bias"> : tensor<640xf16>
  util.global private @_params.unet.down_blocks.1.resnets.1.norm2.weight {noinline} = #stream.parameter.named<"model"::"unet.down_blocks.1.resnets.1.norm2.weight"> : tensor<640xf16>
  util.global private @_params.unet.down_blocks.1.resnets.1.norm2.bias {noinline} = #stream.parameter.named<"model"::"unet.down_blocks.1.resnets.1.norm2.bias"> : tensor<640xf16>
  util.global private @_params.unet.down_blocks.1.resnets.1.conv2.weight {noinline} = #stream.parameter.named<"model"::"unet.down_blocks.1.resnets.1.conv2.weight"> : tensor<640x640x3x3xf16>
  util.global private @_params.unet.down_blocks.1.resnets.1.conv2.bias {noinline} = #stream.parameter.named<"model"::"unet.down_blocks.1.resnets.1.conv2.bias"> : tensor<640xf16>
  util.global private @_params.unet.down_blocks.1.downsamplers.0.conv.weight {noinline} = #stream.parameter.named<"model"::"unet.down_blocks.1.downsamplers.0.conv.weight"> : tensor<640x640x3x3xf16>
  util.global private @_params.unet.down_blocks.1.downsamplers.0.conv.bias {noinline} = #stream.parameter.named<"model"::"unet.down_blocks.1.downsamplers.0.conv.bias"> : tensor<640xf16>
  util.global private @_params.unet.down_blocks.2.attentions.0.norm.weight {noinline} = #stream.parameter.named<"model"::"unet.down_blocks.2.attentions.0.norm.weight"> : tensor<1280xf16>
  util.global private @_params.unet.down_blocks.2.attentions.0.norm.bias {noinline} = #stream.parameter.named<"model"::"unet.down_blocks.2.attentions.0.norm.bias"> : tensor<1280xf16>
  util.global private @_params.unet.down_blocks.2.attentions.0.proj_in.weight {noinline} = #stream.parameter.named<"model"::"unet.down_blocks.2.attentions.0.proj_in.weight"> : tensor<1280x1280xf16>
  util.global private @_params.unet.down_blocks.2.attentions.0.proj_in.bias {noinline} = #stream.parameter.named<"model"::"unet.down_blocks.2.attentions.0.proj_in.bias"> : tensor<1280xf16>
  util.global private @_params.unet.down_blocks.2.attentions.0.transformer_blocks.0.norm1.weight {noinline} = #stream.parameter.named<"model"::"unet.down_blocks.2.attentions.0.transformer_blocks.0.norm1.weight"> : tensor<1280xf16>
  util.global private @_params.unet.down_blocks.2.attentions.0.transformer_blocks.0.norm1.bias {noinline} = #stream.parameter.named<"model"::"unet.down_blocks.2.attentions.0.transformer_blocks.0.norm1.bias"> : tensor<1280xf16>
  util.global private @_params.unet.down_blocks.2.attentions.0.transformer_blocks.0.attn1.to_q.weight {noinline} = #stream.parameter.named<"model"::"unet.down_blocks.2.attentions.0.transformer_blocks.0.attn1.to_q.weight"> : tensor<1280x1280xf16>
  util.global private @_params.unet.down_blocks.2.attentions.0.transformer_blocks.0.attn1.to_k.weight {noinline} = #stream.parameter.named<"model"::"unet.down_blocks.2.attentions.0.transformer_blocks.0.attn1.to_k.weight"> : tensor<1280x1280xf16>
  util.global private @_params.unet.down_blocks.2.attentions.0.transformer_blocks.0.attn1.to_v.weight {noinline} = #stream.parameter.named<"model"::"unet.down_blocks.2.attentions.0.transformer_blocks.0.attn1.to_v.weight"> : tensor<1280x1280xf16>
  util.global private @_params.unet.down_blocks.2.attentions.0.transformer_blocks.0.attn1.to_out.0.weight {noinline} = #stream.parameter.named<"model"::"unet.down_blocks.2.attentions.0.transformer_blocks.0.attn1.to_out.0.weight"> : tensor<1280x1280xf16>
  util.global private @_params.unet.down_blocks.2.attentions.0.transformer_blocks.0.attn1.to_out.0.bias {noinline} = #stream.parameter.named<"model"::"unet.down_blocks.2.attentions.0.transformer_blocks.0.attn1.to_out.0.bias"> : tensor<1280xf16>
  util.global private @_params.unet.down_blocks.2.attentions.0.transformer_blocks.0.norm2.weight {noinline} = #stream.parameter.named<"model"::"unet.down_blocks.2.attentions.0.transformer_blocks.0.norm2.weight"> : tensor<1280xf16>
  util.global private @_params.unet.down_blocks.2.attentions.0.transformer_blocks.0.norm2.bias {noinline} = #stream.parameter.named<"model"::"unet.down_blocks.2.attentions.0.transformer_blocks.0.norm2.bias"> : tensor<1280xf16>
  util.global private @_params.unet.down_blocks.2.attentions.0.transformer_blocks.0.attn2.to_q.weight {noinline} = #stream.parameter.named<"model"::"unet.down_blocks.2.attentions.0.transformer_blocks.0.attn2.to_q.weight"> : tensor<1280x1280xf16>
  util.global private @_params.unet.down_blocks.2.attentions.0.transformer_blocks.0.attn2.to_k.weight {noinline} = #stream.parameter.named<"model"::"unet.down_blocks.2.attentions.0.transformer_blocks.0.attn2.to_k.weight"> : tensor<1280x2048xf16>
  util.global private @_params.unet.down_blocks.2.attentions.0.transformer_blocks.0.attn2.to_v.weight {noinline} = #stream.parameter.named<"model"::"unet.down_blocks.2.attentions.0.transformer_blocks.0.attn2.to_v.weight"> : tensor<1280x2048xf16>
  util.global private @_params.unet.down_blocks.2.attentions.0.transformer_blocks.0.attn2.to_out.0.weight {noinline} = #stream.parameter.named<"model"::"unet.down_blocks.2.attentions.0.transformer_blocks.0.attn2.to_out.0.weight"> : tensor<1280x1280xf16>
  util.global private @_params.unet.down_blocks.2.attentions.0.transformer_blocks.0.attn2.to_out.0.bias {noinline} = #stream.parameter.named<"model"::"unet.down_blocks.2.attentions.0.transformer_blocks.0.attn2.to_out.0.bias"> : tensor<1280xf16>
  util.global private @_params.unet.down_blocks.2.attentions.0.transformer_blocks.0.norm3.weight {noinline} = #stream.parameter.named<"model"::"unet.down_blocks.2.attentions.0.transformer_blocks.0.norm3.weight"> : tensor<1280xf16>
  util.global private @_params.unet.down_blocks.2.attentions.0.transformer_blocks.0.norm3.bias {noinline} = #stream.parameter.named<"model"::"unet.down_blocks.2.attentions.0.transformer_blocks.0.norm3.bias"> : tensor<1280xf16>
  util.global private @_params.unet.down_blocks.2.attentions.0.transformer_blocks.0.ff.net.0.proj.weight {noinline} = #stream.parameter.named<"model"::"unet.down_blocks.2.attentions.0.transformer_blocks.0.ff.net.0.proj.weight"> : tensor<10240x1280xf16>
  util.global private @_params.unet.down_blocks.2.attentions.0.transformer_blocks.0.ff.net.0.proj.bias {noinline} = #stream.parameter.named<"model"::"unet.down_blocks.2.attentions.0.transformer_blocks.0.ff.net.0.proj.bias"> : tensor<10240xf16>
  util.global private @_params.unet.down_blocks.2.attentions.0.transformer_blocks.0.ff.net.2.weight {noinline} = #stream.parameter.named<"model"::"unet.down_blocks.2.attentions.0.transformer_blocks.0.ff.net.2.weight"> : tensor<1280x5120xf16>
  util.global private @_params.unet.down_blocks.2.attentions.0.transformer_blocks.0.ff.net.2.bias {noinline} = #stream.parameter.named<"model"::"unet.down_blocks.2.attentions.0.transformer_blocks.0.ff.net.2.bias"> : tensor<1280xf16>
  util.global private @_params.unet.down_blocks.2.attentions.0.transformer_blocks.1.norm1.weight {noinline} = #stream.parameter.named<"model"::"unet.down_blocks.2.attentions.0.transformer_blocks.1.norm1.weight"> : tensor<1280xf16>
  util.global private @_params.unet.down_blocks.2.attentions.0.transformer_blocks.1.norm1.bias {noinline} = #stream.parameter.named<"model"::"unet.down_blocks.2.attentions.0.transformer_blocks.1.norm1.bias"> : tensor<1280xf16>
  util.global private @_params.unet.down_blocks.2.attentions.0.transformer_blocks.1.attn1.to_q.weight {noinline} = #stream.parameter.named<"model"::"unet.down_blocks.2.attentions.0.transformer_blocks.1.attn1.to_q.weight"> : tensor<1280x1280xf16>
  util.global private @_params.unet.down_blocks.2.attentions.0.transformer_blocks.1.attn1.to_k.weight {noinline} = #stream.parameter.named<"model"::"unet.down_blocks.2.attentions.0.transformer_blocks.1.attn1.to_k.weight"> : tensor<1280x1280xf16>
  util.global private @_params.unet.down_blocks.2.attentions.0.transformer_blocks.1.attn1.to_v.weight {noinline} = #stream.parameter.named<"model"::"unet.down_blocks.2.attentions.0.transformer_blocks.1.attn1.to_v.weight"> : tensor<1280x1280xf16>
  util.global private @_params.unet.down_blocks.2.attentions.0.transformer_blocks.1.attn1.to_out.0.weight {noinline} = #stream.parameter.named<"model"::"unet.down_blocks.2.attentions.0.transformer_blocks.1.attn1.to_out.0.weight"> : tensor<1280x1280xf16>
  util.global private @_params.unet.down_blocks.2.attentions.0.transformer_blocks.1.attn1.to_out.0.bias {noinline} = #stream.parameter.named<"model"::"unet.down_blocks.2.attentions.0.transformer_blocks.1.attn1.to_out.0.bias"> : tensor<1280xf16>
  util.global private @_params.unet.down_blocks.2.attentions.0.transformer_blocks.1.norm2.weight {noinline} = #stream.parameter.named<"model"::"unet.down_blocks.2.attentions.0.transformer_blocks.1.norm2.weight"> : tensor<1280xf16>
  util.global private @_params.unet.down_blocks.2.attentions.0.transformer_blocks.1.norm2.bias {noinline} = #stream.parameter.named<"model"::"unet.down_blocks.2.attentions.0.transformer_blocks.1.norm2.bias"> : tensor<1280xf16>
  util.global private @_params.unet.down_blocks.2.attentions.0.transformer_blocks.1.attn2.to_q.weight {noinline} = #stream.parameter.named<"model"::"unet.down_blocks.2.attentions.0.transformer_blocks.1.attn2.to_q.weight"> : tensor<1280x1280xf16>
  util.global private @_params.unet.down_blocks.2.attentions.0.transformer_blocks.1.attn2.to_k.weight {noinline} = #stream.parameter.named<"model"::"unet.down_blocks.2.attentions.0.transformer_blocks.1.attn2.to_k.weight"> : tensor<1280x2048xf16>
  util.global private @_params.unet.down_blocks.2.attentions.0.transformer_blocks.1.attn2.to_v.weight {noinline} = #stream.parameter.named<"model"::"unet.down_blocks.2.attentions.0.transformer_blocks.1.attn2.to_v.weight"> : tensor<1280x2048xf16>
  util.global private @_params.unet.down_blocks.2.attentions.0.transformer_blocks.1.attn2.to_out.0.weight {noinline} = #stream.parameter.named<"model"::"unet.down_blocks.2.attentions.0.transformer_blocks.1.attn2.to_out.0.weight"> : tensor<1280x1280xf16>
  util.global private @_params.unet.down_blocks.2.attentions.0.transformer_blocks.1.attn2.to_out.0.bias {noinline} = #stream.parameter.named<"model"::"unet.down_blocks.2.attentions.0.transformer_blocks.1.attn2.to_out.0.bias"> : tensor<1280xf16>
  util.global private @_params.unet.down_blocks.2.attentions.0.transformer_blocks.1.norm3.weight {noinline} = #stream.parameter.named<"model"::"unet.down_blocks.2.attentions.0.transformer_blocks.1.norm3.weight"> : tensor<1280xf16>
  util.global private @_params.unet.down_blocks.2.attentions.0.transformer_blocks.1.norm3.bias {noinline} = #stream.parameter.named<"model"::"unet.down_blocks.2.attentions.0.transformer_blocks.1.norm3.bias"> : tensor<1280xf16>
  util.global private @_params.unet.down_blocks.2.attentions.0.transformer_blocks.1.ff.net.0.proj.weight {noinline} = #stream.parameter.named<"model"::"unet.down_blocks.2.attentions.0.transformer_blocks.1.ff.net.0.proj.weight"> : tensor<10240x1280xf16>
  util.global private @_params.unet.down_blocks.2.attentions.0.transformer_blocks.1.ff.net.0.proj.bias {noinline} = #stream.parameter.named<"model"::"unet.down_blocks.2.attentions.0.transformer_blocks.1.ff.net.0.proj.bias"> : tensor<10240xf16>
  util.global private @_params.unet.down_blocks.2.attentions.0.transformer_blocks.1.ff.net.2.weight {noinline} = #stream.parameter.named<"model"::"unet.down_blocks.2.attentions.0.transformer_blocks.1.ff.net.2.weight"> : tensor<1280x5120xf16>
  util.global private @_params.unet.down_blocks.2.attentions.0.transformer_blocks.1.ff.net.2.bias {noinline} = #stream.parameter.named<"model"::"unet.down_blocks.2.attentions.0.transformer_blocks.1.ff.net.2.bias"> : tensor<1280xf16>
  util.global private @_params.unet.down_blocks.2.attentions.0.transformer_blocks.2.norm1.weight {noinline} = #stream.parameter.named<"model"::"unet.down_blocks.2.attentions.0.transformer_blocks.2.norm1.weight"> : tensor<1280xf16>
  util.global private @_params.unet.down_blocks.2.attentions.0.transformer_blocks.2.norm1.bias {noinline} = #stream.parameter.named<"model"::"unet.down_blocks.2.attentions.0.transformer_blocks.2.norm1.bias"> : tensor<1280xf16>
  util.global private @_params.unet.down_blocks.2.attentions.0.transformer_blocks.2.attn1.to_q.weight {noinline} = #stream.parameter.named<"model"::"unet.down_blocks.2.attentions.0.transformer_blocks.2.attn1.to_q.weight"> : tensor<1280x1280xf16>
  util.global private @_params.unet.down_blocks.2.attentions.0.transformer_blocks.2.attn1.to_k.weight {noinline} = #stream.parameter.named<"model"::"unet.down_blocks.2.attentions.0.transformer_blocks.2.attn1.to_k.weight"> : tensor<1280x1280xf16>
  util.global private @_params.unet.down_blocks.2.attentions.0.transformer_blocks.2.attn1.to_v.weight {noinline} = #stream.parameter.named<"model"::"unet.down_blocks.2.attentions.0.transformer_blocks.2.attn1.to_v.weight"> : tensor<1280x1280xf16>
  util.global private @_params.unet.down_blocks.2.attentions.0.transformer_blocks.2.attn1.to_out.0.weight {noinline} = #stream.parameter.named<"model"::"unet.down_blocks.2.attentions.0.transformer_blocks.2.attn1.to_out.0.weight"> : tensor<1280x1280xf16>
  util.global private @_params.unet.down_blocks.2.attentions.0.transformer_blocks.2.attn1.to_out.0.bias {noinline} = #stream.parameter.named<"model"::"unet.down_blocks.2.attentions.0.transformer_blocks.2.attn1.to_out.0.bias"> : tensor<1280xf16>
  util.global private @_params.unet.down_blocks.2.attentions.0.transformer_blocks.2.norm2.weight {noinline} = #stream.parameter.named<"model"::"unet.down_blocks.2.attentions.0.transformer_blocks.2.norm2.weight"> : tensor<1280xf16>
  util.global private @_params.unet.down_blocks.2.attentions.0.transformer_blocks.2.norm2.bias {noinline} = #stream.parameter.named<"model"::"unet.down_blocks.2.attentions.0.transformer_blocks.2.norm2.bias"> : tensor<1280xf16>
  util.global private @_params.unet.down_blocks.2.attentions.0.transformer_blocks.2.attn2.to_q.weight {noinline} = #stream.parameter.named<"model"::"unet.down_blocks.2.attentions.0.transformer_blocks.2.attn2.to_q.weight"> : tensor<1280x1280xf16>
  util.global private @_params.unet.down_blocks.2.attentions.0.transformer_blocks.2.attn2.to_k.weight {noinline} = #stream.parameter.named<"model"::"unet.down_blocks.2.attentions.0.transformer_blocks.2.attn2.to_k.weight"> : tensor<1280x2048xf16>
  util.global private @_params.unet.down_blocks.2.attentions.0.transformer_blocks.2.attn2.to_v.weight {noinline} = #stream.parameter.named<"model"::"unet.down_blocks.2.attentions.0.transformer_blocks.2.attn2.to_v.weight"> : tensor<1280x2048xf16>
  util.global private @_params.unet.down_blocks.2.attentions.0.transformer_blocks.2.attn2.to_out.0.weight {noinline} = #stream.parameter.named<"model"::"unet.down_blocks.2.attentions.0.transformer_blocks.2.attn2.to_out.0.weight"> : tensor<1280x1280xf16>
  util.global private @_params.unet.down_blocks.2.attentions.0.transformer_blocks.2.attn2.to_out.0.bias {noinline} = #stream.parameter.named<"model"::"unet.down_blocks.2.attentions.0.transformer_blocks.2.attn2.to_out.0.bias"> : tensor<1280xf16>
  util.global private @_params.unet.down_blocks.2.attentions.0.transformer_blocks.2.norm3.weight {noinline} = #stream.parameter.named<"model"::"unet.down_blocks.2.attentions.0.transformer_blocks.2.norm3.weight"> : tensor<1280xf16>
  util.global private @_params.unet.down_blocks.2.attentions.0.transformer_blocks.2.norm3.bias {noinline} = #stream.parameter.named<"model"::"unet.down_blocks.2.attentions.0.transformer_blocks.2.norm3.bias"> : tensor<1280xf16>
  util.global private @_params.unet.down_blocks.2.attentions.0.transformer_blocks.2.ff.net.0.proj.weight {noinline} = #stream.parameter.named<"model"::"unet.down_blocks.2.attentions.0.transformer_blocks.2.ff.net.0.proj.weight"> : tensor<10240x1280xf16>
  util.global private @_params.unet.down_blocks.2.attentions.0.transformer_blocks.2.ff.net.0.proj.bias {noinline} = #stream.parameter.named<"model"::"unet.down_blocks.2.attentions.0.transformer_blocks.2.ff.net.0.proj.bias"> : tensor<10240xf16>
  util.global private @_params.unet.down_blocks.2.attentions.0.transformer_blocks.2.ff.net.2.weight {noinline} = #stream.parameter.named<"model"::"unet.down_blocks.2.attentions.0.transformer_blocks.2.ff.net.2.weight"> : tensor<1280x5120xf16>
  util.global private @_params.unet.down_blocks.2.attentions.0.transformer_blocks.2.ff.net.2.bias {noinline} = #stream.parameter.named<"model"::"unet.down_blocks.2.attentions.0.transformer_blocks.2.ff.net.2.bias"> : tensor<1280xf16>
  util.global private @_params.unet.down_blocks.2.attentions.0.transformer_blocks.3.norm1.weight {noinline} = #stream.parameter.named<"model"::"unet.down_blocks.2.attentions.0.transformer_blocks.3.norm1.weight"> : tensor<1280xf16>
  util.global private @_params.unet.down_blocks.2.attentions.0.transformer_blocks.3.norm1.bias {noinline} = #stream.parameter.named<"model"::"unet.down_blocks.2.attentions.0.transformer_blocks.3.norm1.bias"> : tensor<1280xf16>
  util.global private @_params.unet.down_blocks.2.attentions.0.transformer_blocks.3.attn1.to_q.weight {noinline} = #stream.parameter.named<"model"::"unet.down_blocks.2.attentions.0.transformer_blocks.3.attn1.to_q.weight"> : tensor<1280x1280xf16>
  util.global private @_params.unet.down_blocks.2.attentions.0.transformer_blocks.3.attn1.to_k.weight {noinline} = #stream.parameter.named<"model"::"unet.down_blocks.2.attentions.0.transformer_blocks.3.attn1.to_k.weight"> : tensor<1280x1280xf16>
  util.global private @_params.unet.down_blocks.2.attentions.0.transformer_blocks.3.attn1.to_v.weight {noinline} = #stream.parameter.named<"model"::"unet.down_blocks.2.attentions.0.transformer_blocks.3.attn1.to_v.weight"> : tensor<1280x1280xf16>
  util.global private @_params.unet.down_blocks.2.attentions.0.transformer_blocks.3.attn1.to_out.0.weight {noinline} = #stream.parameter.named<"model"::"unet.down_blocks.2.attentions.0.transformer_blocks.3.attn1.to_out.0.weight"> : tensor<1280x1280xf16>
  util.global private @_params.unet.down_blocks.2.attentions.0.transformer_blocks.3.attn1.to_out.0.bias {noinline} = #stream.parameter.named<"model"::"unet.down_blocks.2.attentions.0.transformer_blocks.3.attn1.to_out.0.bias"> : tensor<1280xf16>
  util.global private @_params.unet.down_blocks.2.attentions.0.transformer_blocks.3.norm2.weight {noinline} = #stream.parameter.named<"model"::"unet.down_blocks.2.attentions.0.transformer_blocks.3.norm2.weight"> : tensor<1280xf16>
  util.global private @_params.unet.down_blocks.2.attentions.0.transformer_blocks.3.norm2.bias {noinline} = #stream.parameter.named<"model"::"unet.down_blocks.2.attentions.0.transformer_blocks.3.norm2.bias"> : tensor<1280xf16>
  util.global private @_params.unet.down_blocks.2.attentions.0.transformer_blocks.3.attn2.to_q.weight {noinline} = #stream.parameter.named<"model"::"unet.down_blocks.2.attentions.0.transformer_blocks.3.attn2.to_q.weight"> : tensor<1280x1280xf16>
  util.global private @_params.unet.down_blocks.2.attentions.0.transformer_blocks.3.attn2.to_k.weight {noinline} = #stream.parameter.named<"model"::"unet.down_blocks.2.attentions.0.transformer_blocks.3.attn2.to_k.weight"> : tensor<1280x2048xf16>
  util.global private @_params.unet.down_blocks.2.attentions.0.transformer_blocks.3.attn2.to_v.weight {noinline} = #stream.parameter.named<"model"::"unet.down_blocks.2.attentions.0.transformer_blocks.3.attn2.to_v.weight"> : tensor<1280x2048xf16>
  util.global private @_params.unet.down_blocks.2.attentions.0.transformer_blocks.3.attn2.to_out.0.weight {noinline} = #stream.parameter.named<"model"::"unet.down_blocks.2.attentions.0.transformer_blocks.3.attn2.to_out.0.weight"> : tensor<1280x1280xf16>
  util.global private @_params.unet.down_blocks.2.attentions.0.transformer_blocks.3.attn2.to_out.0.bias {noinline} = #stream.parameter.named<"model"::"unet.down_blocks.2.attentions.0.transformer_blocks.3.attn2.to_out.0.bias"> : tensor<1280xf16>
  util.global private @_params.unet.down_blocks.2.attentions.0.transformer_blocks.3.norm3.weight {noinline} = #stream.parameter.named<"model"::"unet.down_blocks.2.attentions.0.transformer_blocks.3.norm3.weight"> : tensor<1280xf16>
  util.global private @_params.unet.down_blocks.2.attentions.0.transformer_blocks.3.norm3.bias {noinline} = #stream.parameter.named<"model"::"unet.down_blocks.2.attentions.0.transformer_blocks.3.norm3.bias"> : tensor<1280xf16>
  util.global private @_params.unet.down_blocks.2.attentions.0.transformer_blocks.3.ff.net.0.proj.weight {noinline} = #stream.parameter.named<"model"::"unet.down_blocks.2.attentions.0.transformer_blocks.3.ff.net.0.proj.weight"> : tensor<10240x1280xf16>
  util.global private @_params.unet.down_blocks.2.attentions.0.transformer_blocks.3.ff.net.0.proj.bias {noinline} = #stream.parameter.named<"model"::"unet.down_blocks.2.attentions.0.transformer_blocks.3.ff.net.0.proj.bias"> : tensor<10240xf16>
  util.global private @_params.unet.down_blocks.2.attentions.0.transformer_blocks.3.ff.net.2.weight {noinline} = #stream.parameter.named<"model"::"unet.down_blocks.2.attentions.0.transformer_blocks.3.ff.net.2.weight"> : tensor<1280x5120xf16>
  util.global private @_params.unet.down_blocks.2.attentions.0.transformer_blocks.3.ff.net.2.bias {noinline} = #stream.parameter.named<"model"::"unet.down_blocks.2.attentions.0.transformer_blocks.3.ff.net.2.bias"> : tensor<1280xf16>
  util.global private @_params.unet.down_blocks.2.attentions.0.transformer_blocks.4.norm1.weight {noinline} = #stream.parameter.named<"model"::"unet.down_blocks.2.attentions.0.transformer_blocks.4.norm1.weight"> : tensor<1280xf16>
  util.global private @_params.unet.down_blocks.2.attentions.0.transformer_blocks.4.norm1.bias {noinline} = #stream.parameter.named<"model"::"unet.down_blocks.2.attentions.0.transformer_blocks.4.norm1.bias"> : tensor<1280xf16>
  util.global private @_params.unet.down_blocks.2.attentions.0.transformer_blocks.4.attn1.to_q.weight {noinline} = #stream.parameter.named<"model"::"unet.down_blocks.2.attentions.0.transformer_blocks.4.attn1.to_q.weight"> : tensor<1280x1280xf16>
  util.global private @_params.unet.down_blocks.2.attentions.0.transformer_blocks.4.attn1.to_k.weight {noinline} = #stream.parameter.named<"model"::"unet.down_blocks.2.attentions.0.transformer_blocks.4.attn1.to_k.weight"> : tensor<1280x1280xf16>
  util.global private @_params.unet.down_blocks.2.attentions.0.transformer_blocks.4.attn1.to_v.weight {noinline} = #stream.parameter.named<"model"::"unet.down_blocks.2.attentions.0.transformer_blocks.4.attn1.to_v.weight"> : tensor<1280x1280xf16>
  util.global private @_params.unet.down_blocks.2.attentions.0.transformer_blocks.4.attn1.to_out.0.weight {noinline} = #stream.parameter.named<"model"::"unet.down_blocks.2.attentions.0.transformer_blocks.4.attn1.to_out.0.weight"> : tensor<1280x1280xf16>
  util.global private @_params.unet.down_blocks.2.attentions.0.transformer_blocks.4.attn1.to_out.0.bias {noinline} = #stream.parameter.named<"model"::"unet.down_blocks.2.attentions.0.transformer_blocks.4.attn1.to_out.0.bias"> : tensor<1280xf16>
  util.global private @_params.unet.down_blocks.2.attentions.0.transformer_blocks.4.norm2.weight {noinline} = #stream.parameter.named<"model"::"unet.down_blocks.2.attentions.0.transformer_blocks.4.norm2.weight"> : tensor<1280xf16>
  util.global private @_params.unet.down_blocks.2.attentions.0.transformer_blocks.4.norm2.bias {noinline} = #stream.parameter.named<"model"::"unet.down_blocks.2.attentions.0.transformer_blocks.4.norm2.bias"> : tensor<1280xf16>
  util.global private @_params.unet.down_blocks.2.attentions.0.transformer_blocks.4.attn2.to_q.weight {noinline} = #stream.parameter.named<"model"::"unet.down_blocks.2.attentions.0.transformer_blocks.4.attn2.to_q.weight"> : tensor<1280x1280xf16>
  util.global private @_params.unet.down_blocks.2.attentions.0.transformer_blocks.4.attn2.to_k.weight {noinline} = #stream.parameter.named<"model"::"unet.down_blocks.2.attentions.0.transformer_blocks.4.attn2.to_k.weight"> : tensor<1280x2048xf16>
  util.global private @_params.unet.down_blocks.2.attentions.0.transformer_blocks.4.attn2.to_v.weight {noinline} = #stream.parameter.named<"model"::"unet.down_blocks.2.attentions.0.transformer_blocks.4.attn2.to_v.weight"> : tensor<1280x2048xf16>
  util.global private @_params.unet.down_blocks.2.attentions.0.transformer_blocks.4.attn2.to_out.0.weight {noinline} = #stream.parameter.named<"model"::"unet.down_blocks.2.attentions.0.transformer_blocks.4.attn2.to_out.0.weight"> : tensor<1280x1280xf16>
  util.global private @_params.unet.down_blocks.2.attentions.0.transformer_blocks.4.attn2.to_out.0.bias {noinline} = #stream.parameter.named<"model"::"unet.down_blocks.2.attentions.0.transformer_blocks.4.attn2.to_out.0.bias"> : tensor<1280xf16>
  util.global private @_params.unet.down_blocks.2.attentions.0.transformer_blocks.4.norm3.weight {noinline} = #stream.parameter.named<"model"::"unet.down_blocks.2.attentions.0.transformer_blocks.4.norm3.weight"> : tensor<1280xf16>
  util.global private @_params.unet.down_blocks.2.attentions.0.transformer_blocks.4.norm3.bias {noinline} = #stream.parameter.named<"model"::"unet.down_blocks.2.attentions.0.transformer_blocks.4.norm3.bias"> : tensor<1280xf16>
  util.global private @_params.unet.down_blocks.2.attentions.0.transformer_blocks.4.ff.net.0.proj.weight {noinline} = #stream.parameter.named<"model"::"unet.down_blocks.2.attentions.0.transformer_blocks.4.ff.net.0.proj.weight"> : tensor<10240x1280xf16>
  util.global private @_params.unet.down_blocks.2.attentions.0.transformer_blocks.4.ff.net.0.proj.bias {noinline} = #stream.parameter.named<"model"::"unet.down_blocks.2.attentions.0.transformer_blocks.4.ff.net.0.proj.bias"> : tensor<10240xf16>
  util.global private @_params.unet.down_blocks.2.attentions.0.transformer_blocks.4.ff.net.2.weight {noinline} = #stream.parameter.named<"model"::"unet.down_blocks.2.attentions.0.transformer_blocks.4.ff.net.2.weight"> : tensor<1280x5120xf16>
  util.global private @_params.unet.down_blocks.2.attentions.0.transformer_blocks.4.ff.net.2.bias {noinline} = #stream.parameter.named<"model"::"unet.down_blocks.2.attentions.0.transformer_blocks.4.ff.net.2.bias"> : tensor<1280xf16>
  util.global private @_params.unet.down_blocks.2.attentions.0.transformer_blocks.5.norm1.weight {noinline} = #stream.parameter.named<"model"::"unet.down_blocks.2.attentions.0.transformer_blocks.5.norm1.weight"> : tensor<1280xf16>
  util.global private @_params.unet.down_blocks.2.attentions.0.transformer_blocks.5.norm1.bias {noinline} = #stream.parameter.named<"model"::"unet.down_blocks.2.attentions.0.transformer_blocks.5.norm1.bias"> : tensor<1280xf16>
  util.global private @_params.unet.down_blocks.2.attentions.0.transformer_blocks.5.attn1.to_q.weight {noinline} = #stream.parameter.named<"model"::"unet.down_blocks.2.attentions.0.transformer_blocks.5.attn1.to_q.weight"> : tensor<1280x1280xf16>
  util.global private @_params.unet.down_blocks.2.attentions.0.transformer_blocks.5.attn1.to_k.weight {noinline} = #stream.parameter.named<"model"::"unet.down_blocks.2.attentions.0.transformer_blocks.5.attn1.to_k.weight"> : tensor<1280x1280xf16>
  util.global private @_params.unet.down_blocks.2.attentions.0.transformer_blocks.5.attn1.to_v.weight {noinline} = #stream.parameter.named<"model"::"unet.down_blocks.2.attentions.0.transformer_blocks.5.attn1.to_v.weight"> : tensor<1280x1280xf16>
  util.global private @_params.unet.down_blocks.2.attentions.0.transformer_blocks.5.attn1.to_out.0.weight {noinline} = #stream.parameter.named<"model"::"unet.down_blocks.2.attentions.0.transformer_blocks.5.attn1.to_out.0.weight"> : tensor<1280x1280xf16>
  util.global private @_params.unet.down_blocks.2.attentions.0.transformer_blocks.5.attn1.to_out.0.bias {noinline} = #stream.parameter.named<"model"::"unet.down_blocks.2.attentions.0.transformer_blocks.5.attn1.to_out.0.bias"> : tensor<1280xf16>
  util.global private @_params.unet.down_blocks.2.attentions.0.transformer_blocks.5.norm2.weight {noinline} = #stream.parameter.named<"model"::"unet.down_blocks.2.attentions.0.transformer_blocks.5.norm2.weight"> : tensor<1280xf16>
  util.global private @_params.unet.down_blocks.2.attentions.0.transformer_blocks.5.norm2.bias {noinline} = #stream.parameter.named<"model"::"unet.down_blocks.2.attentions.0.transformer_blocks.5.norm2.bias"> : tensor<1280xf16>
  util.global private @_params.unet.down_blocks.2.attentions.0.transformer_blocks.5.attn2.to_q.weight {noinline} = #stream.parameter.named<"model"::"unet.down_blocks.2.attentions.0.transformer_blocks.5.attn2.to_q.weight"> : tensor<1280x1280xf16>
  util.global private @_params.unet.down_blocks.2.attentions.0.transformer_blocks.5.attn2.to_k.weight {noinline} = #stream.parameter.named<"model"::"unet.down_blocks.2.attentions.0.transformer_blocks.5.attn2.to_k.weight"> : tensor<1280x2048xf16>
  util.global private @_params.unet.down_blocks.2.attentions.0.transformer_blocks.5.attn2.to_v.weight {noinline} = #stream.parameter.named<"model"::"unet.down_blocks.2.attentions.0.transformer_blocks.5.attn2.to_v.weight"> : tensor<1280x2048xf16>
  util.global private @_params.unet.down_blocks.2.attentions.0.transformer_blocks.5.attn2.to_out.0.weight {noinline} = #stream.parameter.named<"model"::"unet.down_blocks.2.attentions.0.transformer_blocks.5.attn2.to_out.0.weight"> : tensor<1280x1280xf16>
  util.global private @_params.unet.down_blocks.2.attentions.0.transformer_blocks.5.attn2.to_out.0.bias {noinline} = #stream.parameter.named<"model"::"unet.down_blocks.2.attentions.0.transformer_blocks.5.attn2.to_out.0.bias"> : tensor<1280xf16>
  util.global private @_params.unet.down_blocks.2.attentions.0.transformer_blocks.5.norm3.weight {noinline} = #stream.parameter.named<"model"::"unet.down_blocks.2.attentions.0.transformer_blocks.5.norm3.weight"> : tensor<1280xf16>
  util.global private @_params.unet.down_blocks.2.attentions.0.transformer_blocks.5.norm3.bias {noinline} = #stream.parameter.named<"model"::"unet.down_blocks.2.attentions.0.transformer_blocks.5.norm3.bias"> : tensor<1280xf16>
  util.global private @_params.unet.down_blocks.2.attentions.0.transformer_blocks.5.ff.net.0.proj.weight {noinline} = #stream.parameter.named<"model"::"unet.down_blocks.2.attentions.0.transformer_blocks.5.ff.net.0.proj.weight"> : tensor<10240x1280xf16>
  util.global private @_params.unet.down_blocks.2.attentions.0.transformer_blocks.5.ff.net.0.proj.bias {noinline} = #stream.parameter.named<"model"::"unet.down_blocks.2.attentions.0.transformer_blocks.5.ff.net.0.proj.bias"> : tensor<10240xf16>
  util.global private @_params.unet.down_blocks.2.attentions.0.transformer_blocks.5.ff.net.2.weight {noinline} = #stream.parameter.named<"model"::"unet.down_blocks.2.attentions.0.transformer_blocks.5.ff.net.2.weight"> : tensor<1280x5120xf16>
  util.global private @_params.unet.down_blocks.2.attentions.0.transformer_blocks.5.ff.net.2.bias {noinline} = #stream.parameter.named<"model"::"unet.down_blocks.2.attentions.0.transformer_blocks.5.ff.net.2.bias"> : tensor<1280xf16>
  util.global private @_params.unet.down_blocks.2.attentions.0.transformer_blocks.6.norm1.weight {noinline} = #stream.parameter.named<"model"::"unet.down_blocks.2.attentions.0.transformer_blocks.6.norm1.weight"> : tensor<1280xf16>
  util.global private @_params.unet.down_blocks.2.attentions.0.transformer_blocks.6.norm1.bias {noinline} = #stream.parameter.named<"model"::"unet.down_blocks.2.attentions.0.transformer_blocks.6.norm1.bias"> : tensor<1280xf16>
  util.global private @_params.unet.down_blocks.2.attentions.0.transformer_blocks.6.attn1.to_q.weight {noinline} = #stream.parameter.named<"model"::"unet.down_blocks.2.attentions.0.transformer_blocks.6.attn1.to_q.weight"> : tensor<1280x1280xf16>
  util.global private @_params.unet.down_blocks.2.attentions.0.transformer_blocks.6.attn1.to_k.weight {noinline} = #stream.parameter.named<"model"::"unet.down_blocks.2.attentions.0.transformer_blocks.6.attn1.to_k.weight"> : tensor<1280x1280xf16>
  util.global private @_params.unet.down_blocks.2.attentions.0.transformer_blocks.6.attn1.to_v.weight {noinline} = #stream.parameter.named<"model"::"unet.down_blocks.2.attentions.0.transformer_blocks.6.attn1.to_v.weight"> : tensor<1280x1280xf16>
  util.global private @_params.unet.down_blocks.2.attentions.0.transformer_blocks.6.attn1.to_out.0.weight {noinline} = #stream.parameter.named<"model"::"unet.down_blocks.2.attentions.0.transformer_blocks.6.attn1.to_out.0.weight"> : tensor<1280x1280xf16>
  util.global private @_params.unet.down_blocks.2.attentions.0.transformer_blocks.6.attn1.to_out.0.bias {noinline} = #stream.parameter.named<"model"::"unet.down_blocks.2.attentions.0.transformer_blocks.6.attn1.to_out.0.bias"> : tensor<1280xf16>
  util.global private @_params.unet.down_blocks.2.attentions.0.transformer_blocks.6.norm2.weight {noinline} = #stream.parameter.named<"model"::"unet.down_blocks.2.attentions.0.transformer_blocks.6.norm2.weight"> : tensor<1280xf16>
  util.global private @_params.unet.down_blocks.2.attentions.0.transformer_blocks.6.norm2.bias {noinline} = #stream.parameter.named<"model"::"unet.down_blocks.2.attentions.0.transformer_blocks.6.norm2.bias"> : tensor<1280xf16>
  util.global private @_params.unet.down_blocks.2.attentions.0.transformer_blocks.6.attn2.to_q.weight {noinline} = #stream.parameter.named<"model"::"unet.down_blocks.2.attentions.0.transformer_blocks.6.attn2.to_q.weight"> : tensor<1280x1280xf16>
  util.global private @_params.unet.down_blocks.2.attentions.0.transformer_blocks.6.attn2.to_k.weight {noinline} = #stream.parameter.named<"model"::"unet.down_blocks.2.attentions.0.transformer_blocks.6.attn2.to_k.weight"> : tensor<1280x2048xf16>
  util.global private @_params.unet.down_blocks.2.attentions.0.transformer_blocks.6.attn2.to_v.weight {noinline} = #stream.parameter.named<"model"::"unet.down_blocks.2.attentions.0.transformer_blocks.6.attn2.to_v.weight"> : tensor<1280x2048xf16>
  util.global private @_params.unet.down_blocks.2.attentions.0.transformer_blocks.6.attn2.to_out.0.weight {noinline} = #stream.parameter.named<"model"::"unet.down_blocks.2.attentions.0.transformer_blocks.6.attn2.to_out.0.weight"> : tensor<1280x1280xf16>
  util.global private @_params.unet.down_blocks.2.attentions.0.transformer_blocks.6.attn2.to_out.0.bias {noinline} = #stream.parameter.named<"model"::"unet.down_blocks.2.attentions.0.transformer_blocks.6.attn2.to_out.0.bias"> : tensor<1280xf16>
  util.global private @_params.unet.down_blocks.2.attentions.0.transformer_blocks.6.norm3.weight {noinline} = #stream.parameter.named<"model"::"unet.down_blocks.2.attentions.0.transformer_blocks.6.norm3.weight"> : tensor<1280xf16>
  util.global private @_params.unet.down_blocks.2.attentions.0.transformer_blocks.6.norm3.bias {noinline} = #stream.parameter.named<"model"::"unet.down_blocks.2.attentions.0.transformer_blocks.6.norm3.bias"> : tensor<1280xf16>
  util.global private @_params.unet.down_blocks.2.attentions.0.transformer_blocks.6.ff.net.0.proj.weight {noinline} = #stream.parameter.named<"model"::"unet.down_blocks.2.attentions.0.transformer_blocks.6.ff.net.0.proj.weight"> : tensor<10240x1280xf16>
  util.global private @_params.unet.down_blocks.2.attentions.0.transformer_blocks.6.ff.net.0.proj.bias {noinline} = #stream.parameter.named<"model"::"unet.down_blocks.2.attentions.0.transformer_blocks.6.ff.net.0.proj.bias"> : tensor<10240xf16>
  util.global private @_params.unet.down_blocks.2.attentions.0.transformer_blocks.6.ff.net.2.weight {noinline} = #stream.parameter.named<"model"::"unet.down_blocks.2.attentions.0.transformer_blocks.6.ff.net.2.weight"> : tensor<1280x5120xf16>
  util.global private @_params.unet.down_blocks.2.attentions.0.transformer_blocks.6.ff.net.2.bias {noinline} = #stream.parameter.named<"model"::"unet.down_blocks.2.attentions.0.transformer_blocks.6.ff.net.2.bias"> : tensor<1280xf16>
  util.global private @_params.unet.down_blocks.2.attentions.0.transformer_blocks.7.norm1.weight {noinline} = #stream.parameter.named<"model"::"unet.down_blocks.2.attentions.0.transformer_blocks.7.norm1.weight"> : tensor<1280xf16>
  util.global private @_params.unet.down_blocks.2.attentions.0.transformer_blocks.7.norm1.bias {noinline} = #stream.parameter.named<"model"::"unet.down_blocks.2.attentions.0.transformer_blocks.7.norm1.bias"> : tensor<1280xf16>
  util.global private @_params.unet.down_blocks.2.attentions.0.transformer_blocks.7.attn1.to_q.weight {noinline} = #stream.parameter.named<"model"::"unet.down_blocks.2.attentions.0.transformer_blocks.7.attn1.to_q.weight"> : tensor<1280x1280xf16>
  util.global private @_params.unet.down_blocks.2.attentions.0.transformer_blocks.7.attn1.to_k.weight {noinline} = #stream.parameter.named<"model"::"unet.down_blocks.2.attentions.0.transformer_blocks.7.attn1.to_k.weight"> : tensor<1280x1280xf16>
  util.global private @_params.unet.down_blocks.2.attentions.0.transformer_blocks.7.attn1.to_v.weight {noinline} = #stream.parameter.named<"model"::"unet.down_blocks.2.attentions.0.transformer_blocks.7.attn1.to_v.weight"> : tensor<1280x1280xf16>
  util.global private @_params.unet.down_blocks.2.attentions.0.transformer_blocks.7.attn1.to_out.0.weight {noinline} = #stream.parameter.named<"model"::"unet.down_blocks.2.attentions.0.transformer_blocks.7.attn1.to_out.0.weight"> : tensor<1280x1280xf16>
  util.global private @_params.unet.down_blocks.2.attentions.0.transformer_blocks.7.attn1.to_out.0.bias {noinline} = #stream.parameter.named<"model"::"unet.down_blocks.2.attentions.0.transformer_blocks.7.attn1.to_out.0.bias"> : tensor<1280xf16>
  util.global private @_params.unet.down_blocks.2.attentions.0.transformer_blocks.7.norm2.weight {noinline} = #stream.parameter.named<"model"::"unet.down_blocks.2.attentions.0.transformer_blocks.7.norm2.weight"> : tensor<1280xf16>
  util.global private @_params.unet.down_blocks.2.attentions.0.transformer_blocks.7.norm2.bias {noinline} = #stream.parameter.named<"model"::"unet.down_blocks.2.attentions.0.transformer_blocks.7.norm2.bias"> : tensor<1280xf16>
  util.global private @_params.unet.down_blocks.2.attentions.0.transformer_blocks.7.attn2.to_q.weight {noinline} = #stream.parameter.named<"model"::"unet.down_blocks.2.attentions.0.transformer_blocks.7.attn2.to_q.weight"> : tensor<1280x1280xf16>
  util.global private @_params.unet.down_blocks.2.attentions.0.transformer_blocks.7.attn2.to_k.weight {noinline} = #stream.parameter.named<"model"::"unet.down_blocks.2.attentions.0.transformer_blocks.7.attn2.to_k.weight"> : tensor<1280x2048xf16>
  util.global private @_params.unet.down_blocks.2.attentions.0.transformer_blocks.7.attn2.to_v.weight {noinline} = #stream.parameter.named<"model"::"unet.down_blocks.2.attentions.0.transformer_blocks.7.attn2.to_v.weight"> : tensor<1280x2048xf16>
  util.global private @_params.unet.down_blocks.2.attentions.0.transformer_blocks.7.attn2.to_out.0.weight {noinline} = #stream.parameter.named<"model"::"unet.down_blocks.2.attentions.0.transformer_blocks.7.attn2.to_out.0.weight"> : tensor<1280x1280xf16>
  util.global private @_params.unet.down_blocks.2.attentions.0.transformer_blocks.7.attn2.to_out.0.bias {noinline} = #stream.parameter.named<"model"::"unet.down_blocks.2.attentions.0.transformer_blocks.7.attn2.to_out.0.bias"> : tensor<1280xf16>
  util.global private @_params.unet.down_blocks.2.attentions.0.transformer_blocks.7.norm3.weight {noinline} = #stream.parameter.named<"model"::"unet.down_blocks.2.attentions.0.transformer_blocks.7.norm3.weight"> : tensor<1280xf16>
  util.global private @_params.unet.down_blocks.2.attentions.0.transformer_blocks.7.norm3.bias {noinline} = #stream.parameter.named<"model"::"unet.down_blocks.2.attentions.0.transformer_blocks.7.norm3.bias"> : tensor<1280xf16>
  util.global private @_params.unet.down_blocks.2.attentions.0.transformer_blocks.7.ff.net.0.proj.weight {noinline} = #stream.parameter.named<"model"::"unet.down_blocks.2.attentions.0.transformer_blocks.7.ff.net.0.proj.weight"> : tensor<10240x1280xf16>
  util.global private @_params.unet.down_blocks.2.attentions.0.transformer_blocks.7.ff.net.0.proj.bias {noinline} = #stream.parameter.named<"model"::"unet.down_blocks.2.attentions.0.transformer_blocks.7.ff.net.0.proj.bias"> : tensor<10240xf16>
  util.global private @_params.unet.down_blocks.2.attentions.0.transformer_blocks.7.ff.net.2.weight {noinline} = #stream.parameter.named<"model"::"unet.down_blocks.2.attentions.0.transformer_blocks.7.ff.net.2.weight"> : tensor<1280x5120xf16>
  util.global private @_params.unet.down_blocks.2.attentions.0.transformer_blocks.7.ff.net.2.bias {noinline} = #stream.parameter.named<"model"::"unet.down_blocks.2.attentions.0.transformer_blocks.7.ff.net.2.bias"> : tensor<1280xf16>
  util.global private @_params.unet.down_blocks.2.attentions.0.transformer_blocks.8.norm1.weight {noinline} = #stream.parameter.named<"model"::"unet.down_blocks.2.attentions.0.transformer_blocks.8.norm1.weight"> : tensor<1280xf16>
  util.global private @_params.unet.down_blocks.2.attentions.0.transformer_blocks.8.norm1.bias {noinline} = #stream.parameter.named<"model"::"unet.down_blocks.2.attentions.0.transformer_blocks.8.norm1.bias"> : tensor<1280xf16>
  util.global private @_params.unet.down_blocks.2.attentions.0.transformer_blocks.8.attn1.to_q.weight {noinline} = #stream.parameter.named<"model"::"unet.down_blocks.2.attentions.0.transformer_blocks.8.attn1.to_q.weight"> : tensor<1280x1280xf16>
  util.global private @_params.unet.down_blocks.2.attentions.0.transformer_blocks.8.attn1.to_k.weight {noinline} = #stream.parameter.named<"model"::"unet.down_blocks.2.attentions.0.transformer_blocks.8.attn1.to_k.weight"> : tensor<1280x1280xf16>
  util.global private @_params.unet.down_blocks.2.attentions.0.transformer_blocks.8.attn1.to_v.weight {noinline} = #stream.parameter.named<"model"::"unet.down_blocks.2.attentions.0.transformer_blocks.8.attn1.to_v.weight"> : tensor<1280x1280xf16>
  util.global private @_params.unet.down_blocks.2.attentions.0.transformer_blocks.8.attn1.to_out.0.weight {noinline} = #stream.parameter.named<"model"::"unet.down_blocks.2.attentions.0.transformer_blocks.8.attn1.to_out.0.weight"> : tensor<1280x1280xf16>
  util.global private @_params.unet.down_blocks.2.attentions.0.transformer_blocks.8.attn1.to_out.0.bias {noinline} = #stream.parameter.named<"model"::"unet.down_blocks.2.attentions.0.transformer_blocks.8.attn1.to_out.0.bias"> : tensor<1280xf16>
  util.global private @_params.unet.down_blocks.2.attentions.0.transformer_blocks.8.norm2.weight {noinline} = #stream.parameter.named<"model"::"unet.down_blocks.2.attentions.0.transformer_blocks.8.norm2.weight"> : tensor<1280xf16>
  util.global private @_params.unet.down_blocks.2.attentions.0.transformer_blocks.8.norm2.bias {noinline} = #stream.parameter.named<"model"::"unet.down_blocks.2.attentions.0.transformer_blocks.8.norm2.bias"> : tensor<1280xf16>
  util.global private @_params.unet.down_blocks.2.attentions.0.transformer_blocks.8.attn2.to_q.weight {noinline} = #stream.parameter.named<"model"::"unet.down_blocks.2.attentions.0.transformer_blocks.8.attn2.to_q.weight"> : tensor<1280x1280xf16>
  util.global private @_params.unet.down_blocks.2.attentions.0.transformer_blocks.8.attn2.to_k.weight {noinline} = #stream.parameter.named<"model"::"unet.down_blocks.2.attentions.0.transformer_blocks.8.attn2.to_k.weight"> : tensor<1280x2048xf16>
  util.global private @_params.unet.down_blocks.2.attentions.0.transformer_blocks.8.attn2.to_v.weight {noinline} = #stream.parameter.named<"model"::"unet.down_blocks.2.attentions.0.transformer_blocks.8.attn2.to_v.weight"> : tensor<1280x2048xf16>
  util.global private @_params.unet.down_blocks.2.attentions.0.transformer_blocks.8.attn2.to_out.0.weight {noinline} = #stream.parameter.named<"model"::"unet.down_blocks.2.attentions.0.transformer_blocks.8.attn2.to_out.0.weight"> : tensor<1280x1280xf16>
  util.global private @_params.unet.down_blocks.2.attentions.0.transformer_blocks.8.attn2.to_out.0.bias {noinline} = #stream.parameter.named<"model"::"unet.down_blocks.2.attentions.0.transformer_blocks.8.attn2.to_out.0.bias"> : tensor<1280xf16>
  util.global private @_params.unet.down_blocks.2.attentions.0.transformer_blocks.8.norm3.weight {noinline} = #stream.parameter.named<"model"::"unet.down_blocks.2.attentions.0.transformer_blocks.8.norm3.weight"> : tensor<1280xf16>
  util.global private @_params.unet.down_blocks.2.attentions.0.transformer_blocks.8.norm3.bias {noinline} = #stream.parameter.named<"model"::"unet.down_blocks.2.attentions.0.transformer_blocks.8.norm3.bias"> : tensor<1280xf16>
  util.global private @_params.unet.down_blocks.2.attentions.0.transformer_blocks.8.ff.net.0.proj.weight {noinline} = #stream.parameter.named<"model"::"unet.down_blocks.2.attentions.0.transformer_blocks.8.ff.net.0.proj.weight"> : tensor<10240x1280xf16>
  util.global private @_params.unet.down_blocks.2.attentions.0.transformer_blocks.8.ff.net.0.proj.bias {noinline} = #stream.parameter.named<"model"::"unet.down_blocks.2.attentions.0.transformer_blocks.8.ff.net.0.proj.bias"> : tensor<10240xf16>
  util.global private @_params.unet.down_blocks.2.attentions.0.transformer_blocks.8.ff.net.2.weight {noinline} = #stream.parameter.named<"model"::"unet.down_blocks.2.attentions.0.transformer_blocks.8.ff.net.2.weight"> : tensor<1280x5120xf16>
  util.global private @_params.unet.down_blocks.2.attentions.0.transformer_blocks.8.ff.net.2.bias {noinline} = #stream.parameter.named<"model"::"unet.down_blocks.2.attentions.0.transformer_blocks.8.ff.net.2.bias"> : tensor<1280xf16>
  util.global private @_params.unet.down_blocks.2.attentions.0.transformer_blocks.9.norm1.weight {noinline} = #stream.parameter.named<"model"::"unet.down_blocks.2.attentions.0.transformer_blocks.9.norm1.weight"> : tensor<1280xf16>
  util.global private @_params.unet.down_blocks.2.attentions.0.transformer_blocks.9.norm1.bias {noinline} = #stream.parameter.named<"model"::"unet.down_blocks.2.attentions.0.transformer_blocks.9.norm1.bias"> : tensor<1280xf16>
  util.global private @_params.unet.down_blocks.2.attentions.0.transformer_blocks.9.attn1.to_q.weight {noinline} = #stream.parameter.named<"model"::"unet.down_blocks.2.attentions.0.transformer_blocks.9.attn1.to_q.weight"> : tensor<1280x1280xf16>
  util.global private @_params.unet.down_blocks.2.attentions.0.transformer_blocks.9.attn1.to_k.weight {noinline} = #stream.parameter.named<"model"::"unet.down_blocks.2.attentions.0.transformer_blocks.9.attn1.to_k.weight"> : tensor<1280x1280xf16>
  util.global private @_params.unet.down_blocks.2.attentions.0.transformer_blocks.9.attn1.to_v.weight {noinline} = #stream.parameter.named<"model"::"unet.down_blocks.2.attentions.0.transformer_blocks.9.attn1.to_v.weight"> : tensor<1280x1280xf16>
  util.global private @_params.unet.down_blocks.2.attentions.0.transformer_blocks.9.attn1.to_out.0.weight {noinline} = #stream.parameter.named<"model"::"unet.down_blocks.2.attentions.0.transformer_blocks.9.attn1.to_out.0.weight"> : tensor<1280x1280xf16>
  util.global private @_params.unet.down_blocks.2.attentions.0.transformer_blocks.9.attn1.to_out.0.bias {noinline} = #stream.parameter.named<"model"::"unet.down_blocks.2.attentions.0.transformer_blocks.9.attn1.to_out.0.bias"> : tensor<1280xf16>
  util.global private @_params.unet.down_blocks.2.attentions.0.transformer_blocks.9.norm2.weight {noinline} = #stream.parameter.named<"model"::"unet.down_blocks.2.attentions.0.transformer_blocks.9.norm2.weight"> : tensor<1280xf16>
  util.global private @_params.unet.down_blocks.2.attentions.0.transformer_blocks.9.norm2.bias {noinline} = #stream.parameter.named<"model"::"unet.down_blocks.2.attentions.0.transformer_blocks.9.norm2.bias"> : tensor<1280xf16>
  util.global private @_params.unet.down_blocks.2.attentions.0.transformer_blocks.9.attn2.to_q.weight {noinline} = #stream.parameter.named<"model"::"unet.down_blocks.2.attentions.0.transformer_blocks.9.attn2.to_q.weight"> : tensor<1280x1280xf16>
  util.global private @_params.unet.down_blocks.2.attentions.0.transformer_blocks.9.attn2.to_k.weight {noinline} = #stream.parameter.named<"model"::"unet.down_blocks.2.attentions.0.transformer_blocks.9.attn2.to_k.weight"> : tensor<1280x2048xf16>
  util.global private @_params.unet.down_blocks.2.attentions.0.transformer_blocks.9.attn2.to_v.weight {noinline} = #stream.parameter.named<"model"::"unet.down_blocks.2.attentions.0.transformer_blocks.9.attn2.to_v.weight"> : tensor<1280x2048xf16>
  util.global private @_params.unet.down_blocks.2.attentions.0.transformer_blocks.9.attn2.to_out.0.weight {noinline} = #stream.parameter.named<"model"::"unet.down_blocks.2.attentions.0.transformer_blocks.9.attn2.to_out.0.weight"> : tensor<1280x1280xf16>
  util.global private @_params.unet.down_blocks.2.attentions.0.transformer_blocks.9.attn2.to_out.0.bias {noinline} = #stream.parameter.named<"model"::"unet.down_blocks.2.attentions.0.transformer_blocks.9.attn2.to_out.0.bias"> : tensor<1280xf16>
  util.global private @_params.unet.down_blocks.2.attentions.0.transformer_blocks.9.norm3.weight {noinline} = #stream.parameter.named<"model"::"unet.down_blocks.2.attentions.0.transformer_blocks.9.norm3.weight"> : tensor<1280xf16>
  util.global private @_params.unet.down_blocks.2.attentions.0.transformer_blocks.9.norm3.bias {noinline} = #stream.parameter.named<"model"::"unet.down_blocks.2.attentions.0.transformer_blocks.9.norm3.bias"> : tensor<1280xf16>
  util.global private @_params.unet.down_blocks.2.attentions.0.transformer_blocks.9.ff.net.0.proj.weight {noinline} = #stream.parameter.named<"model"::"unet.down_blocks.2.attentions.0.transformer_blocks.9.ff.net.0.proj.weight"> : tensor<10240x1280xf16>
  util.global private @_params.unet.down_blocks.2.attentions.0.transformer_blocks.9.ff.net.0.proj.bias {noinline} = #stream.parameter.named<"model"::"unet.down_blocks.2.attentions.0.transformer_blocks.9.ff.net.0.proj.bias"> : tensor<10240xf16>
  util.global private @_params.unet.down_blocks.2.attentions.0.transformer_blocks.9.ff.net.2.weight {noinline} = #stream.parameter.named<"model"::"unet.down_blocks.2.attentions.0.transformer_blocks.9.ff.net.2.weight"> : tensor<1280x5120xf16>
  util.global private @_params.unet.down_blocks.2.attentions.0.transformer_blocks.9.ff.net.2.bias {noinline} = #stream.parameter.named<"model"::"unet.down_blocks.2.attentions.0.transformer_blocks.9.ff.net.2.bias"> : tensor<1280xf16>
  util.global private @_params.unet.down_blocks.2.attentions.0.proj_out.weight {noinline} = #stream.parameter.named<"model"::"unet.down_blocks.2.attentions.0.proj_out.weight"> : tensor<1280x1280xf16>
  util.global private @_params.unet.down_blocks.2.attentions.0.proj_out.bias {noinline} = #stream.parameter.named<"model"::"unet.down_blocks.2.attentions.0.proj_out.bias"> : tensor<1280xf16>
  util.global private @_params.unet.down_blocks.2.attentions.1.norm.weight {noinline} = #stream.parameter.named<"model"::"unet.down_blocks.2.attentions.1.norm.weight"> : tensor<1280xf16>
  util.global private @_params.unet.down_blocks.2.attentions.1.norm.bias {noinline} = #stream.parameter.named<"model"::"unet.down_blocks.2.attentions.1.norm.bias"> : tensor<1280xf16>
  util.global private @_params.unet.down_blocks.2.attentions.1.proj_in.weight {noinline} = #stream.parameter.named<"model"::"unet.down_blocks.2.attentions.1.proj_in.weight"> : tensor<1280x1280xf16>
  util.global private @_params.unet.down_blocks.2.attentions.1.proj_in.bias {noinline} = #stream.parameter.named<"model"::"unet.down_blocks.2.attentions.1.proj_in.bias"> : tensor<1280xf16>
  util.global private @_params.unet.down_blocks.2.attentions.1.transformer_blocks.0.norm1.weight {noinline} = #stream.parameter.named<"model"::"unet.down_blocks.2.attentions.1.transformer_blocks.0.norm1.weight"> : tensor<1280xf16>
  util.global private @_params.unet.down_blocks.2.attentions.1.transformer_blocks.0.norm1.bias {noinline} = #stream.parameter.named<"model"::"unet.down_blocks.2.attentions.1.transformer_blocks.0.norm1.bias"> : tensor<1280xf16>
  util.global private @_params.unet.down_blocks.2.attentions.1.transformer_blocks.0.attn1.to_q.weight {noinline} = #stream.parameter.named<"model"::"unet.down_blocks.2.attentions.1.transformer_blocks.0.attn1.to_q.weight"> : tensor<1280x1280xf16>
  util.global private @_params.unet.down_blocks.2.attentions.1.transformer_blocks.0.attn1.to_k.weight {noinline} = #stream.parameter.named<"model"::"unet.down_blocks.2.attentions.1.transformer_blocks.0.attn1.to_k.weight"> : tensor<1280x1280xf16>
  util.global private @_params.unet.down_blocks.2.attentions.1.transformer_blocks.0.attn1.to_v.weight {noinline} = #stream.parameter.named<"model"::"unet.down_blocks.2.attentions.1.transformer_blocks.0.attn1.to_v.weight"> : tensor<1280x1280xf16>
  util.global private @_params.unet.down_blocks.2.attentions.1.transformer_blocks.0.attn1.to_out.0.weight {noinline} = #stream.parameter.named<"model"::"unet.down_blocks.2.attentions.1.transformer_blocks.0.attn1.to_out.0.weight"> : tensor<1280x1280xf16>
  util.global private @_params.unet.down_blocks.2.attentions.1.transformer_blocks.0.attn1.to_out.0.bias {noinline} = #stream.parameter.named<"model"::"unet.down_blocks.2.attentions.1.transformer_blocks.0.attn1.to_out.0.bias"> : tensor<1280xf16>
  util.global private @_params.unet.down_blocks.2.attentions.1.transformer_blocks.0.norm2.weight {noinline} = #stream.parameter.named<"model"::"unet.down_blocks.2.attentions.1.transformer_blocks.0.norm2.weight"> : tensor<1280xf16>
  util.global private @_params.unet.down_blocks.2.attentions.1.transformer_blocks.0.norm2.bias {noinline} = #stream.parameter.named<"model"::"unet.down_blocks.2.attentions.1.transformer_blocks.0.norm2.bias"> : tensor<1280xf16>
  util.global private @_params.unet.down_blocks.2.attentions.1.transformer_blocks.0.attn2.to_q.weight {noinline} = #stream.parameter.named<"model"::"unet.down_blocks.2.attentions.1.transformer_blocks.0.attn2.to_q.weight"> : tensor<1280x1280xf16>
  util.global private @_params.unet.down_blocks.2.attentions.1.transformer_blocks.0.attn2.to_k.weight {noinline} = #stream.parameter.named<"model"::"unet.down_blocks.2.attentions.1.transformer_blocks.0.attn2.to_k.weight"> : tensor<1280x2048xf16>
  util.global private @_params.unet.down_blocks.2.attentions.1.transformer_blocks.0.attn2.to_v.weight {noinline} = #stream.parameter.named<"model"::"unet.down_blocks.2.attentions.1.transformer_blocks.0.attn2.to_v.weight"> : tensor<1280x2048xf16>
  util.global private @_params.unet.down_blocks.2.attentions.1.transformer_blocks.0.attn2.to_out.0.weight {noinline} = #stream.parameter.named<"model"::"unet.down_blocks.2.attentions.1.transformer_blocks.0.attn2.to_out.0.weight"> : tensor<1280x1280xf16>
  util.global private @_params.unet.down_blocks.2.attentions.1.transformer_blocks.0.attn2.to_out.0.bias {noinline} = #stream.parameter.named<"model"::"unet.down_blocks.2.attentions.1.transformer_blocks.0.attn2.to_out.0.bias"> : tensor<1280xf16>
  util.global private @_params.unet.down_blocks.2.attentions.1.transformer_blocks.0.norm3.weight {noinline} = #stream.parameter.named<"model"::"unet.down_blocks.2.attentions.1.transformer_blocks.0.norm3.weight"> : tensor<1280xf16>
  util.global private @_params.unet.down_blocks.2.attentions.1.transformer_blocks.0.norm3.bias {noinline} = #stream.parameter.named<"model"::"unet.down_blocks.2.attentions.1.transformer_blocks.0.norm3.bias"> : tensor<1280xf16>
  util.global private @_params.unet.down_blocks.2.attentions.1.transformer_blocks.0.ff.net.0.proj.weight {noinline} = #stream.parameter.named<"model"::"unet.down_blocks.2.attentions.1.transformer_blocks.0.ff.net.0.proj.weight"> : tensor<10240x1280xf16>
  util.global private @_params.unet.down_blocks.2.attentions.1.transformer_blocks.0.ff.net.0.proj.bias {noinline} = #stream.parameter.named<"model"::"unet.down_blocks.2.attentions.1.transformer_blocks.0.ff.net.0.proj.bias"> : tensor<10240xf16>
  util.global private @_params.unet.down_blocks.2.attentions.1.transformer_blocks.0.ff.net.2.weight {noinline} = #stream.parameter.named<"model"::"unet.down_blocks.2.attentions.1.transformer_blocks.0.ff.net.2.weight"> : tensor<1280x5120xf16>
  util.global private @_params.unet.down_blocks.2.attentions.1.transformer_blocks.0.ff.net.2.bias {noinline} = #stream.parameter.named<"model"::"unet.down_blocks.2.attentions.1.transformer_blocks.0.ff.net.2.bias"> : tensor<1280xf16>
  util.global private @_params.unet.down_blocks.2.attentions.1.transformer_blocks.1.norm1.weight {noinline} = #stream.parameter.named<"model"::"unet.down_blocks.2.attentions.1.transformer_blocks.1.norm1.weight"> : tensor<1280xf16>
  util.global private @_params.unet.down_blocks.2.attentions.1.transformer_blocks.1.norm1.bias {noinline} = #stream.parameter.named<"model"::"unet.down_blocks.2.attentions.1.transformer_blocks.1.norm1.bias"> : tensor<1280xf16>
  util.global private @_params.unet.down_blocks.2.attentions.1.transformer_blocks.1.attn1.to_q.weight {noinline} = #stream.parameter.named<"model"::"unet.down_blocks.2.attentions.1.transformer_blocks.1.attn1.to_q.weight"> : tensor<1280x1280xf16>
  util.global private @_params.unet.down_blocks.2.attentions.1.transformer_blocks.1.attn1.to_k.weight {noinline} = #stream.parameter.named<"model"::"unet.down_blocks.2.attentions.1.transformer_blocks.1.attn1.to_k.weight"> : tensor<1280x1280xf16>
  util.global private @_params.unet.down_blocks.2.attentions.1.transformer_blocks.1.attn1.to_v.weight {noinline} = #stream.parameter.named<"model"::"unet.down_blocks.2.attentions.1.transformer_blocks.1.attn1.to_v.weight"> : tensor<1280x1280xf16>
  util.global private @_params.unet.down_blocks.2.attentions.1.transformer_blocks.1.attn1.to_out.0.weight {noinline} = #stream.parameter.named<"model"::"unet.down_blocks.2.attentions.1.transformer_blocks.1.attn1.to_out.0.weight"> : tensor<1280x1280xf16>
  util.global private @_params.unet.down_blocks.2.attentions.1.transformer_blocks.1.attn1.to_out.0.bias {noinline} = #stream.parameter.named<"model"::"unet.down_blocks.2.attentions.1.transformer_blocks.1.attn1.to_out.0.bias"> : tensor<1280xf16>
  util.global private @_params.unet.down_blocks.2.attentions.1.transformer_blocks.1.norm2.weight {noinline} = #stream.parameter.named<"model"::"unet.down_blocks.2.attentions.1.transformer_blocks.1.norm2.weight"> : tensor<1280xf16>
  util.global private @_params.unet.down_blocks.2.attentions.1.transformer_blocks.1.norm2.bias {noinline} = #stream.parameter.named<"model"::"unet.down_blocks.2.attentions.1.transformer_blocks.1.norm2.bias"> : tensor<1280xf16>
  util.global private @_params.unet.down_blocks.2.attentions.1.transformer_blocks.1.attn2.to_q.weight {noinline} = #stream.parameter.named<"model"::"unet.down_blocks.2.attentions.1.transformer_blocks.1.attn2.to_q.weight"> : tensor<1280x1280xf16>
  util.global private @_params.unet.down_blocks.2.attentions.1.transformer_blocks.1.attn2.to_k.weight {noinline} = #stream.parameter.named<"model"::"unet.down_blocks.2.attentions.1.transformer_blocks.1.attn2.to_k.weight"> : tensor<1280x2048xf16>
  util.global private @_params.unet.down_blocks.2.attentions.1.transformer_blocks.1.attn2.to_v.weight {noinline} = #stream.parameter.named<"model"::"unet.down_blocks.2.attentions.1.transformer_blocks.1.attn2.to_v.weight"> : tensor<1280x2048xf16>
  util.global private @_params.unet.down_blocks.2.attentions.1.transformer_blocks.1.attn2.to_out.0.weight {noinline} = #stream.parameter.named<"model"::"unet.down_blocks.2.attentions.1.transformer_blocks.1.attn2.to_out.0.weight"> : tensor<1280x1280xf16>
  util.global private @_params.unet.down_blocks.2.attentions.1.transformer_blocks.1.attn2.to_out.0.bias {noinline} = #stream.parameter.named<"model"::"unet.down_blocks.2.attentions.1.transformer_blocks.1.attn2.to_out.0.bias"> : tensor<1280xf16>
  util.global private @_params.unet.down_blocks.2.attentions.1.transformer_blocks.1.norm3.weight {noinline} = #stream.parameter.named<"model"::"unet.down_blocks.2.attentions.1.transformer_blocks.1.norm3.weight"> : tensor<1280xf16>
  util.global private @_params.unet.down_blocks.2.attentions.1.transformer_blocks.1.norm3.bias {noinline} = #stream.parameter.named<"model"::"unet.down_blocks.2.attentions.1.transformer_blocks.1.norm3.bias"> : tensor<1280xf16>
  util.global private @_params.unet.down_blocks.2.attentions.1.transformer_blocks.1.ff.net.0.proj.weight {noinline} = #stream.parameter.named<"model"::"unet.down_blocks.2.attentions.1.transformer_blocks.1.ff.net.0.proj.weight"> : tensor<10240x1280xf16>
  util.global private @_params.unet.down_blocks.2.attentions.1.transformer_blocks.1.ff.net.0.proj.bias {noinline} = #stream.parameter.named<"model"::"unet.down_blocks.2.attentions.1.transformer_blocks.1.ff.net.0.proj.bias"> : tensor<10240xf16>
  util.global private @_params.unet.down_blocks.2.attentions.1.transformer_blocks.1.ff.net.2.weight {noinline} = #stream.parameter.named<"model"::"unet.down_blocks.2.attentions.1.transformer_blocks.1.ff.net.2.weight"> : tensor<1280x5120xf16>
  util.global private @_params.unet.down_blocks.2.attentions.1.transformer_blocks.1.ff.net.2.bias {noinline} = #stream.parameter.named<"model"::"unet.down_blocks.2.attentions.1.transformer_blocks.1.ff.net.2.bias"> : tensor<1280xf16>
  util.global private @_params.unet.down_blocks.2.attentions.1.transformer_blocks.2.norm1.weight {noinline} = #stream.parameter.named<"model"::"unet.down_blocks.2.attentions.1.transformer_blocks.2.norm1.weight"> : tensor<1280xf16>
  util.global private @_params.unet.down_blocks.2.attentions.1.transformer_blocks.2.norm1.bias {noinline} = #stream.parameter.named<"model"::"unet.down_blocks.2.attentions.1.transformer_blocks.2.norm1.bias"> : tensor<1280xf16>
  util.global private @_params.unet.down_blocks.2.attentions.1.transformer_blocks.2.attn1.to_q.weight {noinline} = #stream.parameter.named<"model"::"unet.down_blocks.2.attentions.1.transformer_blocks.2.attn1.to_q.weight"> : tensor<1280x1280xf16>
  util.global private @_params.unet.down_blocks.2.attentions.1.transformer_blocks.2.attn1.to_k.weight {noinline} = #stream.parameter.named<"model"::"unet.down_blocks.2.attentions.1.transformer_blocks.2.attn1.to_k.weight"> : tensor<1280x1280xf16>
  util.global private @_params.unet.down_blocks.2.attentions.1.transformer_blocks.2.attn1.to_v.weight {noinline} = #stream.parameter.named<"model"::"unet.down_blocks.2.attentions.1.transformer_blocks.2.attn1.to_v.weight"> : tensor<1280x1280xf16>
  util.global private @_params.unet.down_blocks.2.attentions.1.transformer_blocks.2.attn1.to_out.0.weight {noinline} = #stream.parameter.named<"model"::"unet.down_blocks.2.attentions.1.transformer_blocks.2.attn1.to_out.0.weight"> : tensor<1280x1280xf16>
  util.global private @_params.unet.down_blocks.2.attentions.1.transformer_blocks.2.attn1.to_out.0.bias {noinline} = #stream.parameter.named<"model"::"unet.down_blocks.2.attentions.1.transformer_blocks.2.attn1.to_out.0.bias"> : tensor<1280xf16>
  util.global private @_params.unet.down_blocks.2.attentions.1.transformer_blocks.2.norm2.weight {noinline} = #stream.parameter.named<"model"::"unet.down_blocks.2.attentions.1.transformer_blocks.2.norm2.weight"> : tensor<1280xf16>
  util.global private @_params.unet.down_blocks.2.attentions.1.transformer_blocks.2.norm2.bias {noinline} = #stream.parameter.named<"model"::"unet.down_blocks.2.attentions.1.transformer_blocks.2.norm2.bias"> : tensor<1280xf16>
  util.global private @_params.unet.down_blocks.2.attentions.1.transformer_blocks.2.attn2.to_q.weight {noinline} = #stream.parameter.named<"model"::"unet.down_blocks.2.attentions.1.transformer_blocks.2.attn2.to_q.weight"> : tensor<1280x1280xf16>
  util.global private @_params.unet.down_blocks.2.attentions.1.transformer_blocks.2.attn2.to_k.weight {noinline} = #stream.parameter.named<"model"::"unet.down_blocks.2.attentions.1.transformer_blocks.2.attn2.to_k.weight"> : tensor<1280x2048xf16>
  util.global private @_params.unet.down_blocks.2.attentions.1.transformer_blocks.2.attn2.to_v.weight {noinline} = #stream.parameter.named<"model"::"unet.down_blocks.2.attentions.1.transformer_blocks.2.attn2.to_v.weight"> : tensor<1280x2048xf16>
  util.global private @_params.unet.down_blocks.2.attentions.1.transformer_blocks.2.attn2.to_out.0.weight {noinline} = #stream.parameter.named<"model"::"unet.down_blocks.2.attentions.1.transformer_blocks.2.attn2.to_out.0.weight"> : tensor<1280x1280xf16>
  util.global private @_params.unet.down_blocks.2.attentions.1.transformer_blocks.2.attn2.to_out.0.bias {noinline} = #stream.parameter.named<"model"::"unet.down_blocks.2.attentions.1.transformer_blocks.2.attn2.to_out.0.bias"> : tensor<1280xf16>
  util.global private @_params.unet.down_blocks.2.attentions.1.transformer_blocks.2.norm3.weight {noinline} = #stream.parameter.named<"model"::"unet.down_blocks.2.attentions.1.transformer_blocks.2.norm3.weight"> : tensor<1280xf16>
  util.global private @_params.unet.down_blocks.2.attentions.1.transformer_blocks.2.norm3.bias {noinline} = #stream.parameter.named<"model"::"unet.down_blocks.2.attentions.1.transformer_blocks.2.norm3.bias"> : tensor<1280xf16>
  util.global private @_params.unet.down_blocks.2.attentions.1.transformer_blocks.2.ff.net.0.proj.weight {noinline} = #stream.parameter.named<"model"::"unet.down_blocks.2.attentions.1.transformer_blocks.2.ff.net.0.proj.weight"> : tensor<10240x1280xf16>
  util.global private @_params.unet.down_blocks.2.attentions.1.transformer_blocks.2.ff.net.0.proj.bias {noinline} = #stream.parameter.named<"model"::"unet.down_blocks.2.attentions.1.transformer_blocks.2.ff.net.0.proj.bias"> : tensor<10240xf16>
  util.global private @_params.unet.down_blocks.2.attentions.1.transformer_blocks.2.ff.net.2.weight {noinline} = #stream.parameter.named<"model"::"unet.down_blocks.2.attentions.1.transformer_blocks.2.ff.net.2.weight"> : tensor<1280x5120xf16>
  util.global private @_params.unet.down_blocks.2.attentions.1.transformer_blocks.2.ff.net.2.bias {noinline} = #stream.parameter.named<"model"::"unet.down_blocks.2.attentions.1.transformer_blocks.2.ff.net.2.bias"> : tensor<1280xf16>
  util.global private @_params.unet.down_blocks.2.attentions.1.transformer_blocks.3.norm1.weight {noinline} = #stream.parameter.named<"model"::"unet.down_blocks.2.attentions.1.transformer_blocks.3.norm1.weight"> : tensor<1280xf16>
  util.global private @_params.unet.down_blocks.2.attentions.1.transformer_blocks.3.norm1.bias {noinline} = #stream.parameter.named<"model"::"unet.down_blocks.2.attentions.1.transformer_blocks.3.norm1.bias"> : tensor<1280xf16>
  util.global private @_params.unet.down_blocks.2.attentions.1.transformer_blocks.3.attn1.to_q.weight {noinline} = #stream.parameter.named<"model"::"unet.down_blocks.2.attentions.1.transformer_blocks.3.attn1.to_q.weight"> : tensor<1280x1280xf16>
  util.global private @_params.unet.down_blocks.2.attentions.1.transformer_blocks.3.attn1.to_k.weight {noinline} = #stream.parameter.named<"model"::"unet.down_blocks.2.attentions.1.transformer_blocks.3.attn1.to_k.weight"> : tensor<1280x1280xf16>
  util.global private @_params.unet.down_blocks.2.attentions.1.transformer_blocks.3.attn1.to_v.weight {noinline} = #stream.parameter.named<"model"::"unet.down_blocks.2.attentions.1.transformer_blocks.3.attn1.to_v.weight"> : tensor<1280x1280xf16>
  util.global private @_params.unet.down_blocks.2.attentions.1.transformer_blocks.3.attn1.to_out.0.weight {noinline} = #stream.parameter.named<"model"::"unet.down_blocks.2.attentions.1.transformer_blocks.3.attn1.to_out.0.weight"> : tensor<1280x1280xf16>
  util.global private @_params.unet.down_blocks.2.attentions.1.transformer_blocks.3.attn1.to_out.0.bias {noinline} = #stream.parameter.named<"model"::"unet.down_blocks.2.attentions.1.transformer_blocks.3.attn1.to_out.0.bias"> : tensor<1280xf16>
  util.global private @_params.unet.down_blocks.2.attentions.1.transformer_blocks.3.norm2.weight {noinline} = #stream.parameter.named<"model"::"unet.down_blocks.2.attentions.1.transformer_blocks.3.norm2.weight"> : tensor<1280xf16>
  util.global private @_params.unet.down_blocks.2.attentions.1.transformer_blocks.3.norm2.bias {noinline} = #stream.parameter.named<"model"::"unet.down_blocks.2.attentions.1.transformer_blocks.3.norm2.bias"> : tensor<1280xf16>
  util.global private @_params.unet.down_blocks.2.attentions.1.transformer_blocks.3.attn2.to_q.weight {noinline} = #stream.parameter.named<"model"::"unet.down_blocks.2.attentions.1.transformer_blocks.3.attn2.to_q.weight"> : tensor<1280x1280xf16>
  util.global private @_params.unet.down_blocks.2.attentions.1.transformer_blocks.3.attn2.to_k.weight {noinline} = #stream.parameter.named<"model"::"unet.down_blocks.2.attentions.1.transformer_blocks.3.attn2.to_k.weight"> : tensor<1280x2048xf16>
  util.global private @_params.unet.down_blocks.2.attentions.1.transformer_blocks.3.attn2.to_v.weight {noinline} = #stream.parameter.named<"model"::"unet.down_blocks.2.attentions.1.transformer_blocks.3.attn2.to_v.weight"> : tensor<1280x2048xf16>
  util.global private @_params.unet.down_blocks.2.attentions.1.transformer_blocks.3.attn2.to_out.0.weight {noinline} = #stream.parameter.named<"model"::"unet.down_blocks.2.attentions.1.transformer_blocks.3.attn2.to_out.0.weight"> : tensor<1280x1280xf16>
  util.global private @_params.unet.down_blocks.2.attentions.1.transformer_blocks.3.attn2.to_out.0.bias {noinline} = #stream.parameter.named<"model"::"unet.down_blocks.2.attentions.1.transformer_blocks.3.attn2.to_out.0.bias"> : tensor<1280xf16>
  util.global private @_params.unet.down_blocks.2.attentions.1.transformer_blocks.3.norm3.weight {noinline} = #stream.parameter.named<"model"::"unet.down_blocks.2.attentions.1.transformer_blocks.3.norm3.weight"> : tensor<1280xf16>
  util.global private @_params.unet.down_blocks.2.attentions.1.transformer_blocks.3.norm3.bias {noinline} = #stream.parameter.named<"model"::"unet.down_blocks.2.attentions.1.transformer_blocks.3.norm3.bias"> : tensor<1280xf16>
  util.global private @_params.unet.down_blocks.2.attentions.1.transformer_blocks.3.ff.net.0.proj.weight {noinline} = #stream.parameter.named<"model"::"unet.down_blocks.2.attentions.1.transformer_blocks.3.ff.net.0.proj.weight"> : tensor<10240x1280xf16>
  util.global private @_params.unet.down_blocks.2.attentions.1.transformer_blocks.3.ff.net.0.proj.bias {noinline} = #stream.parameter.named<"model"::"unet.down_blocks.2.attentions.1.transformer_blocks.3.ff.net.0.proj.bias"> : tensor<10240xf16>
  util.global private @_params.unet.down_blocks.2.attentions.1.transformer_blocks.3.ff.net.2.weight {noinline} = #stream.parameter.named<"model"::"unet.down_blocks.2.attentions.1.transformer_blocks.3.ff.net.2.weight"> : tensor<1280x5120xf16>
  util.global private @_params.unet.down_blocks.2.attentions.1.transformer_blocks.3.ff.net.2.bias {noinline} = #stream.parameter.named<"model"::"unet.down_blocks.2.attentions.1.transformer_blocks.3.ff.net.2.bias"> : tensor<1280xf16>
  util.global private @_params.unet.down_blocks.2.attentions.1.transformer_blocks.4.norm1.weight {noinline} = #stream.parameter.named<"model"::"unet.down_blocks.2.attentions.1.transformer_blocks.4.norm1.weight"> : tensor<1280xf16>
  util.global private @_params.unet.down_blocks.2.attentions.1.transformer_blocks.4.norm1.bias {noinline} = #stream.parameter.named<"model"::"unet.down_blocks.2.attentions.1.transformer_blocks.4.norm1.bias"> : tensor<1280xf16>
  util.global private @_params.unet.down_blocks.2.attentions.1.transformer_blocks.4.attn1.to_q.weight {noinline} = #stream.parameter.named<"model"::"unet.down_blocks.2.attentions.1.transformer_blocks.4.attn1.to_q.weight"> : tensor<1280x1280xf16>
  util.global private @_params.unet.down_blocks.2.attentions.1.transformer_blocks.4.attn1.to_k.weight {noinline} = #stream.parameter.named<"model"::"unet.down_blocks.2.attentions.1.transformer_blocks.4.attn1.to_k.weight"> : tensor<1280x1280xf16>
  util.global private @_params.unet.down_blocks.2.attentions.1.transformer_blocks.4.attn1.to_v.weight {noinline} = #stream.parameter.named<"model"::"unet.down_blocks.2.attentions.1.transformer_blocks.4.attn1.to_v.weight"> : tensor<1280x1280xf16>
  util.global private @_params.unet.down_blocks.2.attentions.1.transformer_blocks.4.attn1.to_out.0.weight {noinline} = #stream.parameter.named<"model"::"unet.down_blocks.2.attentions.1.transformer_blocks.4.attn1.to_out.0.weight"> : tensor<1280x1280xf16>
  util.global private @_params.unet.down_blocks.2.attentions.1.transformer_blocks.4.attn1.to_out.0.bias {noinline} = #stream.parameter.named<"model"::"unet.down_blocks.2.attentions.1.transformer_blocks.4.attn1.to_out.0.bias"> : tensor<1280xf16>
  util.global private @_params.unet.down_blocks.2.attentions.1.transformer_blocks.4.norm2.weight {noinline} = #stream.parameter.named<"model"::"unet.down_blocks.2.attentions.1.transformer_blocks.4.norm2.weight"> : tensor<1280xf16>
  util.global private @_params.unet.down_blocks.2.attentions.1.transformer_blocks.4.norm2.bias {noinline} = #stream.parameter.named<"model"::"unet.down_blocks.2.attentions.1.transformer_blocks.4.norm2.bias"> : tensor<1280xf16>
  util.global private @_params.unet.down_blocks.2.attentions.1.transformer_blocks.4.attn2.to_q.weight {noinline} = #stream.parameter.named<"model"::"unet.down_blocks.2.attentions.1.transformer_blocks.4.attn2.to_q.weight"> : tensor<1280x1280xf16>
  util.global private @_params.unet.down_blocks.2.attentions.1.transformer_blocks.4.attn2.to_k.weight {noinline} = #stream.parameter.named<"model"::"unet.down_blocks.2.attentions.1.transformer_blocks.4.attn2.to_k.weight"> : tensor<1280x2048xf16>
  util.global private @_params.unet.down_blocks.2.attentions.1.transformer_blocks.4.attn2.to_v.weight {noinline} = #stream.parameter.named<"model"::"unet.down_blocks.2.attentions.1.transformer_blocks.4.attn2.to_v.weight"> : tensor<1280x2048xf16>
  util.global private @_params.unet.down_blocks.2.attentions.1.transformer_blocks.4.attn2.to_out.0.weight {noinline} = #stream.parameter.named<"model"::"unet.down_blocks.2.attentions.1.transformer_blocks.4.attn2.to_out.0.weight"> : tensor<1280x1280xf16>
  util.global private @_params.unet.down_blocks.2.attentions.1.transformer_blocks.4.attn2.to_out.0.bias {noinline} = #stream.parameter.named<"model"::"unet.down_blocks.2.attentions.1.transformer_blocks.4.attn2.to_out.0.bias"> : tensor<1280xf16>
  util.global private @_params.unet.down_blocks.2.attentions.1.transformer_blocks.4.norm3.weight {noinline} = #stream.parameter.named<"model"::"unet.down_blocks.2.attentions.1.transformer_blocks.4.norm3.weight"> : tensor<1280xf16>
  util.global private @_params.unet.down_blocks.2.attentions.1.transformer_blocks.4.norm3.bias {noinline} = #stream.parameter.named<"model"::"unet.down_blocks.2.attentions.1.transformer_blocks.4.norm3.bias"> : tensor<1280xf16>
  util.global private @_params.unet.down_blocks.2.attentions.1.transformer_blocks.4.ff.net.0.proj.weight {noinline} = #stream.parameter.named<"model"::"unet.down_blocks.2.attentions.1.transformer_blocks.4.ff.net.0.proj.weight"> : tensor<10240x1280xf16>
  util.global private @_params.unet.down_blocks.2.attentions.1.transformer_blocks.4.ff.net.0.proj.bias {noinline} = #stream.parameter.named<"model"::"unet.down_blocks.2.attentions.1.transformer_blocks.4.ff.net.0.proj.bias"> : tensor<10240xf16>
  util.global private @_params.unet.down_blocks.2.attentions.1.transformer_blocks.4.ff.net.2.weight {noinline} = #stream.parameter.named<"model"::"unet.down_blocks.2.attentions.1.transformer_blocks.4.ff.net.2.weight"> : tensor<1280x5120xf16>
  util.global private @_params.unet.down_blocks.2.attentions.1.transformer_blocks.4.ff.net.2.bias {noinline} = #stream.parameter.named<"model"::"unet.down_blocks.2.attentions.1.transformer_blocks.4.ff.net.2.bias"> : tensor<1280xf16>
  util.global private @_params.unet.down_blocks.2.attentions.1.transformer_blocks.5.norm1.weight {noinline} = #stream.parameter.named<"model"::"unet.down_blocks.2.attentions.1.transformer_blocks.5.norm1.weight"> : tensor<1280xf16>
  util.global private @_params.unet.down_blocks.2.attentions.1.transformer_blocks.5.norm1.bias {noinline} = #stream.parameter.named<"model"::"unet.down_blocks.2.attentions.1.transformer_blocks.5.norm1.bias"> : tensor<1280xf16>
  util.global private @_params.unet.down_blocks.2.attentions.1.transformer_blocks.5.attn1.to_q.weight {noinline} = #stream.parameter.named<"model"::"unet.down_blocks.2.attentions.1.transformer_blocks.5.attn1.to_q.weight"> : tensor<1280x1280xf16>
  util.global private @_params.unet.down_blocks.2.attentions.1.transformer_blocks.5.attn1.to_k.weight {noinline} = #stream.parameter.named<"model"::"unet.down_blocks.2.attentions.1.transformer_blocks.5.attn1.to_k.weight"> : tensor<1280x1280xf16>
  util.global private @_params.unet.down_blocks.2.attentions.1.transformer_blocks.5.attn1.to_v.weight {noinline} = #stream.parameter.named<"model"::"unet.down_blocks.2.attentions.1.transformer_blocks.5.attn1.to_v.weight"> : tensor<1280x1280xf16>
  util.global private @_params.unet.down_blocks.2.attentions.1.transformer_blocks.5.attn1.to_out.0.weight {noinline} = #stream.parameter.named<"model"::"unet.down_blocks.2.attentions.1.transformer_blocks.5.attn1.to_out.0.weight"> : tensor<1280x1280xf16>
  util.global private @_params.unet.down_blocks.2.attentions.1.transformer_blocks.5.attn1.to_out.0.bias {noinline} = #stream.parameter.named<"model"::"unet.down_blocks.2.attentions.1.transformer_blocks.5.attn1.to_out.0.bias"> : tensor<1280xf16>
  util.global private @_params.unet.down_blocks.2.attentions.1.transformer_blocks.5.norm2.weight {noinline} = #stream.parameter.named<"model"::"unet.down_blocks.2.attentions.1.transformer_blocks.5.norm2.weight"> : tensor<1280xf16>
  util.global private @_params.unet.down_blocks.2.attentions.1.transformer_blocks.5.norm2.bias {noinline} = #stream.parameter.named<"model"::"unet.down_blocks.2.attentions.1.transformer_blocks.5.norm2.bias"> : tensor<1280xf16>
  util.global private @_params.unet.down_blocks.2.attentions.1.transformer_blocks.5.attn2.to_q.weight {noinline} = #stream.parameter.named<"model"::"unet.down_blocks.2.attentions.1.transformer_blocks.5.attn2.to_q.weight"> : tensor<1280x1280xf16>
  util.global private @_params.unet.down_blocks.2.attentions.1.transformer_blocks.5.attn2.to_k.weight {noinline} = #stream.parameter.named<"model"::"unet.down_blocks.2.attentions.1.transformer_blocks.5.attn2.to_k.weight"> : tensor<1280x2048xf16>
  util.global private @_params.unet.down_blocks.2.attentions.1.transformer_blocks.5.attn2.to_v.weight {noinline} = #stream.parameter.named<"model"::"unet.down_blocks.2.attentions.1.transformer_blocks.5.attn2.to_v.weight"> : tensor<1280x2048xf16>
  util.global private @_params.unet.down_blocks.2.attentions.1.transformer_blocks.5.attn2.to_out.0.weight {noinline} = #stream.parameter.named<"model"::"unet.down_blocks.2.attentions.1.transformer_blocks.5.attn2.to_out.0.weight"> : tensor<1280x1280xf16>
  util.global private @_params.unet.down_blocks.2.attentions.1.transformer_blocks.5.attn2.to_out.0.bias {noinline} = #stream.parameter.named<"model"::"unet.down_blocks.2.attentions.1.transformer_blocks.5.attn2.to_out.0.bias"> : tensor<1280xf16>
  util.global private @_params.unet.down_blocks.2.attentions.1.transformer_blocks.5.norm3.weight {noinline} = #stream.parameter.named<"model"::"unet.down_blocks.2.attentions.1.transformer_blocks.5.norm3.weight"> : tensor<1280xf16>
  util.global private @_params.unet.down_blocks.2.attentions.1.transformer_blocks.5.norm3.bias {noinline} = #stream.parameter.named<"model"::"unet.down_blocks.2.attentions.1.transformer_blocks.5.norm3.bias"> : tensor<1280xf16>
  util.global private @_params.unet.down_blocks.2.attentions.1.transformer_blocks.5.ff.net.0.proj.weight {noinline} = #stream.parameter.named<"model"::"unet.down_blocks.2.attentions.1.transformer_blocks.5.ff.net.0.proj.weight"> : tensor<10240x1280xf16>
  util.global private @_params.unet.down_blocks.2.attentions.1.transformer_blocks.5.ff.net.0.proj.bias {noinline} = #stream.parameter.named<"model"::"unet.down_blocks.2.attentions.1.transformer_blocks.5.ff.net.0.proj.bias"> : tensor<10240xf16>
  util.global private @_params.unet.down_blocks.2.attentions.1.transformer_blocks.5.ff.net.2.weight {noinline} = #stream.parameter.named<"model"::"unet.down_blocks.2.attentions.1.transformer_blocks.5.ff.net.2.weight"> : tensor<1280x5120xf16>
  util.global private @_params.unet.down_blocks.2.attentions.1.transformer_blocks.5.ff.net.2.bias {noinline} = #stream.parameter.named<"model"::"unet.down_blocks.2.attentions.1.transformer_blocks.5.ff.net.2.bias"> : tensor<1280xf16>
  util.global private @_params.unet.down_blocks.2.attentions.1.transformer_blocks.6.norm1.weight {noinline} = #stream.parameter.named<"model"::"unet.down_blocks.2.attentions.1.transformer_blocks.6.norm1.weight"> : tensor<1280xf16>
  util.global private @_params.unet.down_blocks.2.attentions.1.transformer_blocks.6.norm1.bias {noinline} = #stream.parameter.named<"model"::"unet.down_blocks.2.attentions.1.transformer_blocks.6.norm1.bias"> : tensor<1280xf16>
  util.global private @_params.unet.down_blocks.2.attentions.1.transformer_blocks.6.attn1.to_q.weight {noinline} = #stream.parameter.named<"model"::"unet.down_blocks.2.attentions.1.transformer_blocks.6.attn1.to_q.weight"> : tensor<1280x1280xf16>
  util.global private @_params.unet.down_blocks.2.attentions.1.transformer_blocks.6.attn1.to_k.weight {noinline} = #stream.parameter.named<"model"::"unet.down_blocks.2.attentions.1.transformer_blocks.6.attn1.to_k.weight"> : tensor<1280x1280xf16>
  util.global private @_params.unet.down_blocks.2.attentions.1.transformer_blocks.6.attn1.to_v.weight {noinline} = #stream.parameter.named<"model"::"unet.down_blocks.2.attentions.1.transformer_blocks.6.attn1.to_v.weight"> : tensor<1280x1280xf16>
  util.global private @_params.unet.down_blocks.2.attentions.1.transformer_blocks.6.attn1.to_out.0.weight {noinline} = #stream.parameter.named<"model"::"unet.down_blocks.2.attentions.1.transformer_blocks.6.attn1.to_out.0.weight"> : tensor<1280x1280xf16>
  util.global private @_params.unet.down_blocks.2.attentions.1.transformer_blocks.6.attn1.to_out.0.bias {noinline} = #stream.parameter.named<"model"::"unet.down_blocks.2.attentions.1.transformer_blocks.6.attn1.to_out.0.bias"> : tensor<1280xf16>
  util.global private @_params.unet.down_blocks.2.attentions.1.transformer_blocks.6.norm2.weight {noinline} = #stream.parameter.named<"model"::"unet.down_blocks.2.attentions.1.transformer_blocks.6.norm2.weight"> : tensor<1280xf16>
  util.global private @_params.unet.down_blocks.2.attentions.1.transformer_blocks.6.norm2.bias {noinline} = #stream.parameter.named<"model"::"unet.down_blocks.2.attentions.1.transformer_blocks.6.norm2.bias"> : tensor<1280xf16>
  util.global private @_params.unet.down_blocks.2.attentions.1.transformer_blocks.6.attn2.to_q.weight {noinline} = #stream.parameter.named<"model"::"unet.down_blocks.2.attentions.1.transformer_blocks.6.attn2.to_q.weight"> : tensor<1280x1280xf16>
  util.global private @_params.unet.down_blocks.2.attentions.1.transformer_blocks.6.attn2.to_k.weight {noinline} = #stream.parameter.named<"model"::"unet.down_blocks.2.attentions.1.transformer_blocks.6.attn2.to_k.weight"> : tensor<1280x2048xf16>
  util.global private @_params.unet.down_blocks.2.attentions.1.transformer_blocks.6.attn2.to_v.weight {noinline} = #stream.parameter.named<"model"::"unet.down_blocks.2.attentions.1.transformer_blocks.6.attn2.to_v.weight"> : tensor<1280x2048xf16>
  util.global private @_params.unet.down_blocks.2.attentions.1.transformer_blocks.6.attn2.to_out.0.weight {noinline} = #stream.parameter.named<"model"::"unet.down_blocks.2.attentions.1.transformer_blocks.6.attn2.to_out.0.weight"> : tensor<1280x1280xf16>
  util.global private @_params.unet.down_blocks.2.attentions.1.transformer_blocks.6.attn2.to_out.0.bias {noinline} = #stream.parameter.named<"model"::"unet.down_blocks.2.attentions.1.transformer_blocks.6.attn2.to_out.0.bias"> : tensor<1280xf16>
  util.global private @_params.unet.down_blocks.2.attentions.1.transformer_blocks.6.norm3.weight {noinline} = #stream.parameter.named<"model"::"unet.down_blocks.2.attentions.1.transformer_blocks.6.norm3.weight"> : tensor<1280xf16>
  util.global private @_params.unet.down_blocks.2.attentions.1.transformer_blocks.6.norm3.bias {noinline} = #stream.parameter.named<"model"::"unet.down_blocks.2.attentions.1.transformer_blocks.6.norm3.bias"> : tensor<1280xf16>
  util.global private @_params.unet.down_blocks.2.attentions.1.transformer_blocks.6.ff.net.0.proj.weight {noinline} = #stream.parameter.named<"model"::"unet.down_blocks.2.attentions.1.transformer_blocks.6.ff.net.0.proj.weight"> : tensor<10240x1280xf16>
  util.global private @_params.unet.down_blocks.2.attentions.1.transformer_blocks.6.ff.net.0.proj.bias {noinline} = #stream.parameter.named<"model"::"unet.down_blocks.2.attentions.1.transformer_blocks.6.ff.net.0.proj.bias"> : tensor<10240xf16>
  util.global private @_params.unet.down_blocks.2.attentions.1.transformer_blocks.6.ff.net.2.weight {noinline} = #stream.parameter.named<"model"::"unet.down_blocks.2.attentions.1.transformer_blocks.6.ff.net.2.weight"> : tensor<1280x5120xf16>
  util.global private @_params.unet.down_blocks.2.attentions.1.transformer_blocks.6.ff.net.2.bias {noinline} = #stream.parameter.named<"model"::"unet.down_blocks.2.attentions.1.transformer_blocks.6.ff.net.2.bias"> : tensor<1280xf16>
  util.global private @_params.unet.down_blocks.2.attentions.1.transformer_blocks.7.norm1.weight {noinline} = #stream.parameter.named<"model"::"unet.down_blocks.2.attentions.1.transformer_blocks.7.norm1.weight"> : tensor<1280xf16>
  util.global private @_params.unet.down_blocks.2.attentions.1.transformer_blocks.7.norm1.bias {noinline} = #stream.parameter.named<"model"::"unet.down_blocks.2.attentions.1.transformer_blocks.7.norm1.bias"> : tensor<1280xf16>
  util.global private @_params.unet.down_blocks.2.attentions.1.transformer_blocks.7.attn1.to_q.weight {noinline} = #stream.parameter.named<"model"::"unet.down_blocks.2.attentions.1.transformer_blocks.7.attn1.to_q.weight"> : tensor<1280x1280xf16>
  util.global private @_params.unet.down_blocks.2.attentions.1.transformer_blocks.7.attn1.to_k.weight {noinline} = #stream.parameter.named<"model"::"unet.down_blocks.2.attentions.1.transformer_blocks.7.attn1.to_k.weight"> : tensor<1280x1280xf16>
  util.global private @_params.unet.down_blocks.2.attentions.1.transformer_blocks.7.attn1.to_v.weight {noinline} = #stream.parameter.named<"model"::"unet.down_blocks.2.attentions.1.transformer_blocks.7.attn1.to_v.weight"> : tensor<1280x1280xf16>
  util.global private @_params.unet.down_blocks.2.attentions.1.transformer_blocks.7.attn1.to_out.0.weight {noinline} = #stream.parameter.named<"model"::"unet.down_blocks.2.attentions.1.transformer_blocks.7.attn1.to_out.0.weight"> : tensor<1280x1280xf16>
  util.global private @_params.unet.down_blocks.2.attentions.1.transformer_blocks.7.attn1.to_out.0.bias {noinline} = #stream.parameter.named<"model"::"unet.down_blocks.2.attentions.1.transformer_blocks.7.attn1.to_out.0.bias"> : tensor<1280xf16>
  util.global private @_params.unet.down_blocks.2.attentions.1.transformer_blocks.7.norm2.weight {noinline} = #stream.parameter.named<"model"::"unet.down_blocks.2.attentions.1.transformer_blocks.7.norm2.weight"> : tensor<1280xf16>
  util.global private @_params.unet.down_blocks.2.attentions.1.transformer_blocks.7.norm2.bias {noinline} = #stream.parameter.named<"model"::"unet.down_blocks.2.attentions.1.transformer_blocks.7.norm2.bias"> : tensor<1280xf16>
  util.global private @_params.unet.down_blocks.2.attentions.1.transformer_blocks.7.attn2.to_q.weight {noinline} = #stream.parameter.named<"model"::"unet.down_blocks.2.attentions.1.transformer_blocks.7.attn2.to_q.weight"> : tensor<1280x1280xf16>
  util.global private @_params.unet.down_blocks.2.attentions.1.transformer_blocks.7.attn2.to_k.weight {noinline} = #stream.parameter.named<"model"::"unet.down_blocks.2.attentions.1.transformer_blocks.7.attn2.to_k.weight"> : tensor<1280x2048xf16>
  util.global private @_params.unet.down_blocks.2.attentions.1.transformer_blocks.7.attn2.to_v.weight {noinline} = #stream.parameter.named<"model"::"unet.down_blocks.2.attentions.1.transformer_blocks.7.attn2.to_v.weight"> : tensor<1280x2048xf16>
  util.global private @_params.unet.down_blocks.2.attentions.1.transformer_blocks.7.attn2.to_out.0.weight {noinline} = #stream.parameter.named<"model"::"unet.down_blocks.2.attentions.1.transformer_blocks.7.attn2.to_out.0.weight"> : tensor<1280x1280xf16>
  util.global private @_params.unet.down_blocks.2.attentions.1.transformer_blocks.7.attn2.to_out.0.bias {noinline} = #stream.parameter.named<"model"::"unet.down_blocks.2.attentions.1.transformer_blocks.7.attn2.to_out.0.bias"> : tensor<1280xf16>
  util.global private @_params.unet.down_blocks.2.attentions.1.transformer_blocks.7.norm3.weight {noinline} = #stream.parameter.named<"model"::"unet.down_blocks.2.attentions.1.transformer_blocks.7.norm3.weight"> : tensor<1280xf16>
  util.global private @_params.unet.down_blocks.2.attentions.1.transformer_blocks.7.norm3.bias {noinline} = #stream.parameter.named<"model"::"unet.down_blocks.2.attentions.1.transformer_blocks.7.norm3.bias"> : tensor<1280xf16>
  util.global private @_params.unet.down_blocks.2.attentions.1.transformer_blocks.7.ff.net.0.proj.weight {noinline} = #stream.parameter.named<"model"::"unet.down_blocks.2.attentions.1.transformer_blocks.7.ff.net.0.proj.weight"> : tensor<10240x1280xf16>
  util.global private @_params.unet.down_blocks.2.attentions.1.transformer_blocks.7.ff.net.0.proj.bias {noinline} = #stream.parameter.named<"model"::"unet.down_blocks.2.attentions.1.transformer_blocks.7.ff.net.0.proj.bias"> : tensor<10240xf16>
  util.global private @_params.unet.down_blocks.2.attentions.1.transformer_blocks.7.ff.net.2.weight {noinline} = #stream.parameter.named<"model"::"unet.down_blocks.2.attentions.1.transformer_blocks.7.ff.net.2.weight"> : tensor<1280x5120xf16>
  util.global private @_params.unet.down_blocks.2.attentions.1.transformer_blocks.7.ff.net.2.bias {noinline} = #stream.parameter.named<"model"::"unet.down_blocks.2.attentions.1.transformer_blocks.7.ff.net.2.bias"> : tensor<1280xf16>
  util.global private @_params.unet.down_blocks.2.attentions.1.transformer_blocks.8.norm1.weight {noinline} = #stream.parameter.named<"model"::"unet.down_blocks.2.attentions.1.transformer_blocks.8.norm1.weight"> : tensor<1280xf16>
  util.global private @_params.unet.down_blocks.2.attentions.1.transformer_blocks.8.norm1.bias {noinline} = #stream.parameter.named<"model"::"unet.down_blocks.2.attentions.1.transformer_blocks.8.norm1.bias"> : tensor<1280xf16>
  util.global private @_params.unet.down_blocks.2.attentions.1.transformer_blocks.8.attn1.to_q.weight {noinline} = #stream.parameter.named<"model"::"unet.down_blocks.2.attentions.1.transformer_blocks.8.attn1.to_q.weight"> : tensor<1280x1280xf16>
  util.global private @_params.unet.down_blocks.2.attentions.1.transformer_blocks.8.attn1.to_k.weight {noinline} = #stream.parameter.named<"model"::"unet.down_blocks.2.attentions.1.transformer_blocks.8.attn1.to_k.weight"> : tensor<1280x1280xf16>
  util.global private @_params.unet.down_blocks.2.attentions.1.transformer_blocks.8.attn1.to_v.weight {noinline} = #stream.parameter.named<"model"::"unet.down_blocks.2.attentions.1.transformer_blocks.8.attn1.to_v.weight"> : tensor<1280x1280xf16>
  util.global private @_params.unet.down_blocks.2.attentions.1.transformer_blocks.8.attn1.to_out.0.weight {noinline} = #stream.parameter.named<"model"::"unet.down_blocks.2.attentions.1.transformer_blocks.8.attn1.to_out.0.weight"> : tensor<1280x1280xf16>
  util.global private @_params.unet.down_blocks.2.attentions.1.transformer_blocks.8.attn1.to_out.0.bias {noinline} = #stream.parameter.named<"model"::"unet.down_blocks.2.attentions.1.transformer_blocks.8.attn1.to_out.0.bias"> : tensor<1280xf16>
  util.global private @_params.unet.down_blocks.2.attentions.1.transformer_blocks.8.norm2.weight {noinline} = #stream.parameter.named<"model"::"unet.down_blocks.2.attentions.1.transformer_blocks.8.norm2.weight"> : tensor<1280xf16>
  util.global private @_params.unet.down_blocks.2.attentions.1.transformer_blocks.8.norm2.bias {noinline} = #stream.parameter.named<"model"::"unet.down_blocks.2.attentions.1.transformer_blocks.8.norm2.bias"> : tensor<1280xf16>
  util.global private @_params.unet.down_blocks.2.attentions.1.transformer_blocks.8.attn2.to_q.weight {noinline} = #stream.parameter.named<"model"::"unet.down_blocks.2.attentions.1.transformer_blocks.8.attn2.to_q.weight"> : tensor<1280x1280xf16>
  util.global private @_params.unet.down_blocks.2.attentions.1.transformer_blocks.8.attn2.to_k.weight {noinline} = #stream.parameter.named<"model"::"unet.down_blocks.2.attentions.1.transformer_blocks.8.attn2.to_k.weight"> : tensor<1280x2048xf16>
  util.global private @_params.unet.down_blocks.2.attentions.1.transformer_blocks.8.attn2.to_v.weight {noinline} = #stream.parameter.named<"model"::"unet.down_blocks.2.attentions.1.transformer_blocks.8.attn2.to_v.weight"> : tensor<1280x2048xf16>
  util.global private @_params.unet.down_blocks.2.attentions.1.transformer_blocks.8.attn2.to_out.0.weight {noinline} = #stream.parameter.named<"model"::"unet.down_blocks.2.attentions.1.transformer_blocks.8.attn2.to_out.0.weight"> : tensor<1280x1280xf16>
  util.global private @_params.unet.down_blocks.2.attentions.1.transformer_blocks.8.attn2.to_out.0.bias {noinline} = #stream.parameter.named<"model"::"unet.down_blocks.2.attentions.1.transformer_blocks.8.attn2.to_out.0.bias"> : tensor<1280xf16>
  util.global private @_params.unet.down_blocks.2.attentions.1.transformer_blocks.8.norm3.weight {noinline} = #stream.parameter.named<"model"::"unet.down_blocks.2.attentions.1.transformer_blocks.8.norm3.weight"> : tensor<1280xf16>
  util.global private @_params.unet.down_blocks.2.attentions.1.transformer_blocks.8.norm3.bias {noinline} = #stream.parameter.named<"model"::"unet.down_blocks.2.attentions.1.transformer_blocks.8.norm3.bias"> : tensor<1280xf16>
  util.global private @_params.unet.down_blocks.2.attentions.1.transformer_blocks.8.ff.net.0.proj.weight {noinline} = #stream.parameter.named<"model"::"unet.down_blocks.2.attentions.1.transformer_blocks.8.ff.net.0.proj.weight"> : tensor<10240x1280xf16>
  util.global private @_params.unet.down_blocks.2.attentions.1.transformer_blocks.8.ff.net.0.proj.bias {noinline} = #stream.parameter.named<"model"::"unet.down_blocks.2.attentions.1.transformer_blocks.8.ff.net.0.proj.bias"> : tensor<10240xf16>
  util.global private @_params.unet.down_blocks.2.attentions.1.transformer_blocks.8.ff.net.2.weight {noinline} = #stream.parameter.named<"model"::"unet.down_blocks.2.attentions.1.transformer_blocks.8.ff.net.2.weight"> : tensor<1280x5120xf16>
  util.global private @_params.unet.down_blocks.2.attentions.1.transformer_blocks.8.ff.net.2.bias {noinline} = #stream.parameter.named<"model"::"unet.down_blocks.2.attentions.1.transformer_blocks.8.ff.net.2.bias"> : tensor<1280xf16>
  util.global private @_params.unet.down_blocks.2.attentions.1.transformer_blocks.9.norm1.weight {noinline} = #stream.parameter.named<"model"::"unet.down_blocks.2.attentions.1.transformer_blocks.9.norm1.weight"> : tensor<1280xf16>
  util.global private @_params.unet.down_blocks.2.attentions.1.transformer_blocks.9.norm1.bias {noinline} = #stream.parameter.named<"model"::"unet.down_blocks.2.attentions.1.transformer_blocks.9.norm1.bias"> : tensor<1280xf16>
  util.global private @_params.unet.down_blocks.2.attentions.1.transformer_blocks.9.attn1.to_q.weight {noinline} = #stream.parameter.named<"model"::"unet.down_blocks.2.attentions.1.transformer_blocks.9.attn1.to_q.weight"> : tensor<1280x1280xf16>
  util.global private @_params.unet.down_blocks.2.attentions.1.transformer_blocks.9.attn1.to_k.weight {noinline} = #stream.parameter.named<"model"::"unet.down_blocks.2.attentions.1.transformer_blocks.9.attn1.to_k.weight"> : tensor<1280x1280xf16>
  util.global private @_params.unet.down_blocks.2.attentions.1.transformer_blocks.9.attn1.to_v.weight {noinline} = #stream.parameter.named<"model"::"unet.down_blocks.2.attentions.1.transformer_blocks.9.attn1.to_v.weight"> : tensor<1280x1280xf16>
  util.global private @_params.unet.down_blocks.2.attentions.1.transformer_blocks.9.attn1.to_out.0.weight {noinline} = #stream.parameter.named<"model"::"unet.down_blocks.2.attentions.1.transformer_blocks.9.attn1.to_out.0.weight"> : tensor<1280x1280xf16>
  util.global private @_params.unet.down_blocks.2.attentions.1.transformer_blocks.9.attn1.to_out.0.bias {noinline} = #stream.parameter.named<"model"::"unet.down_blocks.2.attentions.1.transformer_blocks.9.attn1.to_out.0.bias"> : tensor<1280xf16>
  util.global private @_params.unet.down_blocks.2.attentions.1.transformer_blocks.9.norm2.weight {noinline} = #stream.parameter.named<"model"::"unet.down_blocks.2.attentions.1.transformer_blocks.9.norm2.weight"> : tensor<1280xf16>
  util.global private @_params.unet.down_blocks.2.attentions.1.transformer_blocks.9.norm2.bias {noinline} = #stream.parameter.named<"model"::"unet.down_blocks.2.attentions.1.transformer_blocks.9.norm2.bias"> : tensor<1280xf16>
  util.global private @_params.unet.down_blocks.2.attentions.1.transformer_blocks.9.attn2.to_q.weight {noinline} = #stream.parameter.named<"model"::"unet.down_blocks.2.attentions.1.transformer_blocks.9.attn2.to_q.weight"> : tensor<1280x1280xf16>
  util.global private @_params.unet.down_blocks.2.attentions.1.transformer_blocks.9.attn2.to_k.weight {noinline} = #stream.parameter.named<"model"::"unet.down_blocks.2.attentions.1.transformer_blocks.9.attn2.to_k.weight"> : tensor<1280x2048xf16>
  util.global private @_params.unet.down_blocks.2.attentions.1.transformer_blocks.9.attn2.to_v.weight {noinline} = #stream.parameter.named<"model"::"unet.down_blocks.2.attentions.1.transformer_blocks.9.attn2.to_v.weight"> : tensor<1280x2048xf16>
  util.global private @_params.unet.down_blocks.2.attentions.1.transformer_blocks.9.attn2.to_out.0.weight {noinline} = #stream.parameter.named<"model"::"unet.down_blocks.2.attentions.1.transformer_blocks.9.attn2.to_out.0.weight"> : tensor<1280x1280xf16>
  util.global private @_params.unet.down_blocks.2.attentions.1.transformer_blocks.9.attn2.to_out.0.bias {noinline} = #stream.parameter.named<"model"::"unet.down_blocks.2.attentions.1.transformer_blocks.9.attn2.to_out.0.bias"> : tensor<1280xf16>
  util.global private @_params.unet.down_blocks.2.attentions.1.transformer_blocks.9.norm3.weight {noinline} = #stream.parameter.named<"model"::"unet.down_blocks.2.attentions.1.transformer_blocks.9.norm3.weight"> : tensor<1280xf16>
  util.global private @_params.unet.down_blocks.2.attentions.1.transformer_blocks.9.norm3.bias {noinline} = #stream.parameter.named<"model"::"unet.down_blocks.2.attentions.1.transformer_blocks.9.norm3.bias"> : tensor<1280xf16>
  util.global private @_params.unet.down_blocks.2.attentions.1.transformer_blocks.9.ff.net.0.proj.weight {noinline} = #stream.parameter.named<"model"::"unet.down_blocks.2.attentions.1.transformer_blocks.9.ff.net.0.proj.weight"> : tensor<10240x1280xf16>
  util.global private @_params.unet.down_blocks.2.attentions.1.transformer_blocks.9.ff.net.0.proj.bias {noinline} = #stream.parameter.named<"model"::"unet.down_blocks.2.attentions.1.transformer_blocks.9.ff.net.0.proj.bias"> : tensor<10240xf16>
  util.global private @_params.unet.down_blocks.2.attentions.1.transformer_blocks.9.ff.net.2.weight {noinline} = #stream.parameter.named<"model"::"unet.down_blocks.2.attentions.1.transformer_blocks.9.ff.net.2.weight"> : tensor<1280x5120xf16>
  util.global private @_params.unet.down_blocks.2.attentions.1.transformer_blocks.9.ff.net.2.bias {noinline} = #stream.parameter.named<"model"::"unet.down_blocks.2.attentions.1.transformer_blocks.9.ff.net.2.bias"> : tensor<1280xf16>
  util.global private @_params.unet.down_blocks.2.attentions.1.proj_out.weight {noinline} = #stream.parameter.named<"model"::"unet.down_blocks.2.attentions.1.proj_out.weight"> : tensor<1280x1280xf16>
  util.global private @_params.unet.down_blocks.2.attentions.1.proj_out.bias {noinline} = #stream.parameter.named<"model"::"unet.down_blocks.2.attentions.1.proj_out.bias"> : tensor<1280xf16>
  util.global private @_params.unet.down_blocks.2.resnets.0.norm1.weight {noinline} = #stream.parameter.named<"model"::"unet.down_blocks.2.resnets.0.norm1.weight"> : tensor<640xf16>
  util.global private @_params.unet.down_blocks.2.resnets.0.norm1.bias {noinline} = #stream.parameter.named<"model"::"unet.down_blocks.2.resnets.0.norm1.bias"> : tensor<640xf16>
  util.global private @_params.unet.down_blocks.2.resnets.0.conv1.weight {noinline} = #stream.parameter.named<"model"::"unet.down_blocks.2.resnets.0.conv1.weight"> : tensor<1280x640x3x3xf16>
  util.global private @_params.unet.down_blocks.2.resnets.0.conv1.bias {noinline} = #stream.parameter.named<"model"::"unet.down_blocks.2.resnets.0.conv1.bias"> : tensor<1280xf16>
  util.global private @_params.unet.down_blocks.2.resnets.0.time_emb_proj.weight {noinline} = #stream.parameter.named<"model"::"unet.down_blocks.2.resnets.0.time_emb_proj.weight"> : tensor<1280x1280xf16>
  util.global private @_params.unet.down_blocks.2.resnets.0.time_emb_proj.bias {noinline} = #stream.parameter.named<"model"::"unet.down_blocks.2.resnets.0.time_emb_proj.bias"> : tensor<1280xf16>
  util.global private @_params.unet.down_blocks.2.resnets.0.norm2.weight {noinline} = #stream.parameter.named<"model"::"unet.down_blocks.2.resnets.0.norm2.weight"> : tensor<1280xf16>
  util.global private @_params.unet.down_blocks.2.resnets.0.norm2.bias {noinline} = #stream.parameter.named<"model"::"unet.down_blocks.2.resnets.0.norm2.bias"> : tensor<1280xf16>
  util.global private @_params.unet.down_blocks.2.resnets.0.conv2.weight {noinline} = #stream.parameter.named<"model"::"unet.down_blocks.2.resnets.0.conv2.weight"> : tensor<1280x1280x3x3xf16>
  util.global private @_params.unet.down_blocks.2.resnets.0.conv2.bias {noinline} = #stream.parameter.named<"model"::"unet.down_blocks.2.resnets.0.conv2.bias"> : tensor<1280xf16>
  util.global private @_params.unet.down_blocks.2.resnets.0.conv_shortcut.weight {noinline} = #stream.parameter.named<"model"::"unet.down_blocks.2.resnets.0.conv_shortcut.weight"> : tensor<1280x640x1x1xf16>
  util.global private @_params.unet.down_blocks.2.resnets.0.conv_shortcut.bias {noinline} = #stream.parameter.named<"model"::"unet.down_blocks.2.resnets.0.conv_shortcut.bias"> : tensor<1280xf16>
  util.global private @_params.unet.down_blocks.2.resnets.1.norm1.weight {noinline} = #stream.parameter.named<"model"::"unet.down_blocks.2.resnets.1.norm1.weight"> : tensor<1280xf16>
  util.global private @_params.unet.down_blocks.2.resnets.1.norm1.bias {noinline} = #stream.parameter.named<"model"::"unet.down_blocks.2.resnets.1.norm1.bias"> : tensor<1280xf16>
  util.global private @_params.unet.down_blocks.2.resnets.1.conv1.weight {noinline} = #stream.parameter.named<"model"::"unet.down_blocks.2.resnets.1.conv1.weight"> : tensor<1280x1280x3x3xf16>
  util.global private @_params.unet.down_blocks.2.resnets.1.conv1.bias {noinline} = #stream.parameter.named<"model"::"unet.down_blocks.2.resnets.1.conv1.bias"> : tensor<1280xf16>
  util.global private @_params.unet.down_blocks.2.resnets.1.time_emb_proj.weight {noinline} = #stream.parameter.named<"model"::"unet.down_blocks.2.resnets.1.time_emb_proj.weight"> : tensor<1280x1280xf16>
  util.global private @_params.unet.down_blocks.2.resnets.1.time_emb_proj.bias {noinline} = #stream.parameter.named<"model"::"unet.down_blocks.2.resnets.1.time_emb_proj.bias"> : tensor<1280xf16>
  util.global private @_params.unet.down_blocks.2.resnets.1.norm2.weight {noinline} = #stream.parameter.named<"model"::"unet.down_blocks.2.resnets.1.norm2.weight"> : tensor<1280xf16>
  util.global private @_params.unet.down_blocks.2.resnets.1.norm2.bias {noinline} = #stream.parameter.named<"model"::"unet.down_blocks.2.resnets.1.norm2.bias"> : tensor<1280xf16>
  util.global private @_params.unet.down_blocks.2.resnets.1.conv2.weight {noinline} = #stream.parameter.named<"model"::"unet.down_blocks.2.resnets.1.conv2.weight"> : tensor<1280x1280x3x3xf16>
  util.global private @_params.unet.down_blocks.2.resnets.1.conv2.bias {noinline} = #stream.parameter.named<"model"::"unet.down_blocks.2.resnets.1.conv2.bias"> : tensor<1280xf16>
  util.global private @_params.unet.up_blocks.0.attentions.0.norm.weight {noinline} = #stream.parameter.named<"model"::"unet.up_blocks.0.attentions.0.norm.weight"> : tensor<1280xf16>
  util.global private @_params.unet.up_blocks.0.attentions.0.norm.bias {noinline} = #stream.parameter.named<"model"::"unet.up_blocks.0.attentions.0.norm.bias"> : tensor<1280xf16>
  util.global private @_params.unet.up_blocks.0.attentions.0.proj_in.weight {noinline} = #stream.parameter.named<"model"::"unet.up_blocks.0.attentions.0.proj_in.weight"> : tensor<1280x1280xf16>
  util.global private @_params.unet.up_blocks.0.attentions.0.proj_in.bias {noinline} = #stream.parameter.named<"model"::"unet.up_blocks.0.attentions.0.proj_in.bias"> : tensor<1280xf16>
  util.global private @_params.unet.up_blocks.0.attentions.0.transformer_blocks.0.norm1.weight {noinline} = #stream.parameter.named<"model"::"unet.up_blocks.0.attentions.0.transformer_blocks.0.norm1.weight"> : tensor<1280xf16>
  util.global private @_params.unet.up_blocks.0.attentions.0.transformer_blocks.0.norm1.bias {noinline} = #stream.parameter.named<"model"::"unet.up_blocks.0.attentions.0.transformer_blocks.0.norm1.bias"> : tensor<1280xf16>
  util.global private @_params.unet.up_blocks.0.attentions.0.transformer_blocks.0.attn1.to_q.weight {noinline} = #stream.parameter.named<"model"::"unet.up_blocks.0.attentions.0.transformer_blocks.0.attn1.to_q.weight"> : tensor<1280x1280xf16>
  util.global private @_params.unet.up_blocks.0.attentions.0.transformer_blocks.0.attn1.to_k.weight {noinline} = #stream.parameter.named<"model"::"unet.up_blocks.0.attentions.0.transformer_blocks.0.attn1.to_k.weight"> : tensor<1280x1280xf16>
  util.global private @_params.unet.up_blocks.0.attentions.0.transformer_blocks.0.attn1.to_v.weight {noinline} = #stream.parameter.named<"model"::"unet.up_blocks.0.attentions.0.transformer_blocks.0.attn1.to_v.weight"> : tensor<1280x1280xf16>
  util.global private @_params.unet.up_blocks.0.attentions.0.transformer_blocks.0.attn1.to_out.0.weight {noinline} = #stream.parameter.named<"model"::"unet.up_blocks.0.attentions.0.transformer_blocks.0.attn1.to_out.0.weight"> : tensor<1280x1280xf16>
  util.global private @_params.unet.up_blocks.0.attentions.0.transformer_blocks.0.attn1.to_out.0.bias {noinline} = #stream.parameter.named<"model"::"unet.up_blocks.0.attentions.0.transformer_blocks.0.attn1.to_out.0.bias"> : tensor<1280xf16>
  util.global private @_params.unet.up_blocks.0.attentions.0.transformer_blocks.0.norm2.weight {noinline} = #stream.parameter.named<"model"::"unet.up_blocks.0.attentions.0.transformer_blocks.0.norm2.weight"> : tensor<1280xf16>
  util.global private @_params.unet.up_blocks.0.attentions.0.transformer_blocks.0.norm2.bias {noinline} = #stream.parameter.named<"model"::"unet.up_blocks.0.attentions.0.transformer_blocks.0.norm2.bias"> : tensor<1280xf16>
  util.global private @_params.unet.up_blocks.0.attentions.0.transformer_blocks.0.attn2.to_q.weight {noinline} = #stream.parameter.named<"model"::"unet.up_blocks.0.attentions.0.transformer_blocks.0.attn2.to_q.weight"> : tensor<1280x1280xf16>
  util.global private @_params.unet.up_blocks.0.attentions.0.transformer_blocks.0.attn2.to_k.weight {noinline} = #stream.parameter.named<"model"::"unet.up_blocks.0.attentions.0.transformer_blocks.0.attn2.to_k.weight"> : tensor<1280x2048xf16>
  util.global private @_params.unet.up_blocks.0.attentions.0.transformer_blocks.0.attn2.to_v.weight {noinline} = #stream.parameter.named<"model"::"unet.up_blocks.0.attentions.0.transformer_blocks.0.attn2.to_v.weight"> : tensor<1280x2048xf16>
  util.global private @_params.unet.up_blocks.0.attentions.0.transformer_blocks.0.attn2.to_out.0.weight {noinline} = #stream.parameter.named<"model"::"unet.up_blocks.0.attentions.0.transformer_blocks.0.attn2.to_out.0.weight"> : tensor<1280x1280xf16>
  util.global private @_params.unet.up_blocks.0.attentions.0.transformer_blocks.0.attn2.to_out.0.bias {noinline} = #stream.parameter.named<"model"::"unet.up_blocks.0.attentions.0.transformer_blocks.0.attn2.to_out.0.bias"> : tensor<1280xf16>
  util.global private @_params.unet.up_blocks.0.attentions.0.transformer_blocks.0.norm3.weight {noinline} = #stream.parameter.named<"model"::"unet.up_blocks.0.attentions.0.transformer_blocks.0.norm3.weight"> : tensor<1280xf16>
  util.global private @_params.unet.up_blocks.0.attentions.0.transformer_blocks.0.norm3.bias {noinline} = #stream.parameter.named<"model"::"unet.up_blocks.0.attentions.0.transformer_blocks.0.norm3.bias"> : tensor<1280xf16>
  util.global private @_params.unet.up_blocks.0.attentions.0.transformer_blocks.0.ff.net.0.proj.weight {noinline} = #stream.parameter.named<"model"::"unet.up_blocks.0.attentions.0.transformer_blocks.0.ff.net.0.proj.weight"> : tensor<10240x1280xf16>
  util.global private @_params.unet.up_blocks.0.attentions.0.transformer_blocks.0.ff.net.0.proj.bias {noinline} = #stream.parameter.named<"model"::"unet.up_blocks.0.attentions.0.transformer_blocks.0.ff.net.0.proj.bias"> : tensor<10240xf16>
  util.global private @_params.unet.up_blocks.0.attentions.0.transformer_blocks.0.ff.net.2.weight {noinline} = #stream.parameter.named<"model"::"unet.up_blocks.0.attentions.0.transformer_blocks.0.ff.net.2.weight"> : tensor<1280x5120xf16>
  util.global private @_params.unet.up_blocks.0.attentions.0.transformer_blocks.0.ff.net.2.bias {noinline} = #stream.parameter.named<"model"::"unet.up_blocks.0.attentions.0.transformer_blocks.0.ff.net.2.bias"> : tensor<1280xf16>
  util.global private @_params.unet.up_blocks.0.attentions.0.transformer_blocks.1.norm1.weight {noinline} = #stream.parameter.named<"model"::"unet.up_blocks.0.attentions.0.transformer_blocks.1.norm1.weight"> : tensor<1280xf16>
  util.global private @_params.unet.up_blocks.0.attentions.0.transformer_blocks.1.norm1.bias {noinline} = #stream.parameter.named<"model"::"unet.up_blocks.0.attentions.0.transformer_blocks.1.norm1.bias"> : tensor<1280xf16>
  util.global private @_params.unet.up_blocks.0.attentions.0.transformer_blocks.1.attn1.to_q.weight {noinline} = #stream.parameter.named<"model"::"unet.up_blocks.0.attentions.0.transformer_blocks.1.attn1.to_q.weight"> : tensor<1280x1280xf16>
  util.global private @_params.unet.up_blocks.0.attentions.0.transformer_blocks.1.attn1.to_k.weight {noinline} = #stream.parameter.named<"model"::"unet.up_blocks.0.attentions.0.transformer_blocks.1.attn1.to_k.weight"> : tensor<1280x1280xf16>
  util.global private @_params.unet.up_blocks.0.attentions.0.transformer_blocks.1.attn1.to_v.weight {noinline} = #stream.parameter.named<"model"::"unet.up_blocks.0.attentions.0.transformer_blocks.1.attn1.to_v.weight"> : tensor<1280x1280xf16>
  util.global private @_params.unet.up_blocks.0.attentions.0.transformer_blocks.1.attn1.to_out.0.weight {noinline} = #stream.parameter.named<"model"::"unet.up_blocks.0.attentions.0.transformer_blocks.1.attn1.to_out.0.weight"> : tensor<1280x1280xf16>
  util.global private @_params.unet.up_blocks.0.attentions.0.transformer_blocks.1.attn1.to_out.0.bias {noinline} = #stream.parameter.named<"model"::"unet.up_blocks.0.attentions.0.transformer_blocks.1.attn1.to_out.0.bias"> : tensor<1280xf16>
  util.global private @_params.unet.up_blocks.0.attentions.0.transformer_blocks.1.norm2.weight {noinline} = #stream.parameter.named<"model"::"unet.up_blocks.0.attentions.0.transformer_blocks.1.norm2.weight"> : tensor<1280xf16>
  util.global private @_params.unet.up_blocks.0.attentions.0.transformer_blocks.1.norm2.bias {noinline} = #stream.parameter.named<"model"::"unet.up_blocks.0.attentions.0.transformer_blocks.1.norm2.bias"> : tensor<1280xf16>
  util.global private @_params.unet.up_blocks.0.attentions.0.transformer_blocks.1.attn2.to_q.weight {noinline} = #stream.parameter.named<"model"::"unet.up_blocks.0.attentions.0.transformer_blocks.1.attn2.to_q.weight"> : tensor<1280x1280xf16>
  util.global private @_params.unet.up_blocks.0.attentions.0.transformer_blocks.1.attn2.to_k.weight {noinline} = #stream.parameter.named<"model"::"unet.up_blocks.0.attentions.0.transformer_blocks.1.attn2.to_k.weight"> : tensor<1280x2048xf16>
  util.global private @_params.unet.up_blocks.0.attentions.0.transformer_blocks.1.attn2.to_v.weight {noinline} = #stream.parameter.named<"model"::"unet.up_blocks.0.attentions.0.transformer_blocks.1.attn2.to_v.weight"> : tensor<1280x2048xf16>
  util.global private @_params.unet.up_blocks.0.attentions.0.transformer_blocks.1.attn2.to_out.0.weight {noinline} = #stream.parameter.named<"model"::"unet.up_blocks.0.attentions.0.transformer_blocks.1.attn2.to_out.0.weight"> : tensor<1280x1280xf16>
  util.global private @_params.unet.up_blocks.0.attentions.0.transformer_blocks.1.attn2.to_out.0.bias {noinline} = #stream.parameter.named<"model"::"unet.up_blocks.0.attentions.0.transformer_blocks.1.attn2.to_out.0.bias"> : tensor<1280xf16>
  util.global private @_params.unet.up_blocks.0.attentions.0.transformer_blocks.1.norm3.weight {noinline} = #stream.parameter.named<"model"::"unet.up_blocks.0.attentions.0.transformer_blocks.1.norm3.weight"> : tensor<1280xf16>
  util.global private @_params.unet.up_blocks.0.attentions.0.transformer_blocks.1.norm3.bias {noinline} = #stream.parameter.named<"model"::"unet.up_blocks.0.attentions.0.transformer_blocks.1.norm3.bias"> : tensor<1280xf16>
  util.global private @_params.unet.up_blocks.0.attentions.0.transformer_blocks.1.ff.net.0.proj.weight {noinline} = #stream.parameter.named<"model"::"unet.up_blocks.0.attentions.0.transformer_blocks.1.ff.net.0.proj.weight"> : tensor<10240x1280xf16>
  util.global private @_params.unet.up_blocks.0.attentions.0.transformer_blocks.1.ff.net.0.proj.bias {noinline} = #stream.parameter.named<"model"::"unet.up_blocks.0.attentions.0.transformer_blocks.1.ff.net.0.proj.bias"> : tensor<10240xf16>
  util.global private @_params.unet.up_blocks.0.attentions.0.transformer_blocks.1.ff.net.2.weight {noinline} = #stream.parameter.named<"model"::"unet.up_blocks.0.attentions.0.transformer_blocks.1.ff.net.2.weight"> : tensor<1280x5120xf16>
  util.global private @_params.unet.up_blocks.0.attentions.0.transformer_blocks.1.ff.net.2.bias {noinline} = #stream.parameter.named<"model"::"unet.up_blocks.0.attentions.0.transformer_blocks.1.ff.net.2.bias"> : tensor<1280xf16>
  util.global private @_params.unet.up_blocks.0.attentions.0.transformer_blocks.2.norm1.weight {noinline} = #stream.parameter.named<"model"::"unet.up_blocks.0.attentions.0.transformer_blocks.2.norm1.weight"> : tensor<1280xf16>
  util.global private @_params.unet.up_blocks.0.attentions.0.transformer_blocks.2.norm1.bias {noinline} = #stream.parameter.named<"model"::"unet.up_blocks.0.attentions.0.transformer_blocks.2.norm1.bias"> : tensor<1280xf16>
  util.global private @_params.unet.up_blocks.0.attentions.0.transformer_blocks.2.attn1.to_q.weight {noinline} = #stream.parameter.named<"model"::"unet.up_blocks.0.attentions.0.transformer_blocks.2.attn1.to_q.weight"> : tensor<1280x1280xf16>
  util.global private @_params.unet.up_blocks.0.attentions.0.transformer_blocks.2.attn1.to_k.weight {noinline} = #stream.parameter.named<"model"::"unet.up_blocks.0.attentions.0.transformer_blocks.2.attn1.to_k.weight"> : tensor<1280x1280xf16>
  util.global private @_params.unet.up_blocks.0.attentions.0.transformer_blocks.2.attn1.to_v.weight {noinline} = #stream.parameter.named<"model"::"unet.up_blocks.0.attentions.0.transformer_blocks.2.attn1.to_v.weight"> : tensor<1280x1280xf16>
  util.global private @_params.unet.up_blocks.0.attentions.0.transformer_blocks.2.attn1.to_out.0.weight {noinline} = #stream.parameter.named<"model"::"unet.up_blocks.0.attentions.0.transformer_blocks.2.attn1.to_out.0.weight"> : tensor<1280x1280xf16>
  util.global private @_params.unet.up_blocks.0.attentions.0.transformer_blocks.2.attn1.to_out.0.bias {noinline} = #stream.parameter.named<"model"::"unet.up_blocks.0.attentions.0.transformer_blocks.2.attn1.to_out.0.bias"> : tensor<1280xf16>
  util.global private @_params.unet.up_blocks.0.attentions.0.transformer_blocks.2.norm2.weight {noinline} = #stream.parameter.named<"model"::"unet.up_blocks.0.attentions.0.transformer_blocks.2.norm2.weight"> : tensor<1280xf16>
  util.global private @_params.unet.up_blocks.0.attentions.0.transformer_blocks.2.norm2.bias {noinline} = #stream.parameter.named<"model"::"unet.up_blocks.0.attentions.0.transformer_blocks.2.norm2.bias"> : tensor<1280xf16>
  util.global private @_params.unet.up_blocks.0.attentions.0.transformer_blocks.2.attn2.to_q.weight {noinline} = #stream.parameter.named<"model"::"unet.up_blocks.0.attentions.0.transformer_blocks.2.attn2.to_q.weight"> : tensor<1280x1280xf16>
  util.global private @_params.unet.up_blocks.0.attentions.0.transformer_blocks.2.attn2.to_k.weight {noinline} = #stream.parameter.named<"model"::"unet.up_blocks.0.attentions.0.transformer_blocks.2.attn2.to_k.weight"> : tensor<1280x2048xf16>
  util.global private @_params.unet.up_blocks.0.attentions.0.transformer_blocks.2.attn2.to_v.weight {noinline} = #stream.parameter.named<"model"::"unet.up_blocks.0.attentions.0.transformer_blocks.2.attn2.to_v.weight"> : tensor<1280x2048xf16>
  util.global private @_params.unet.up_blocks.0.attentions.0.transformer_blocks.2.attn2.to_out.0.weight {noinline} = #stream.parameter.named<"model"::"unet.up_blocks.0.attentions.0.transformer_blocks.2.attn2.to_out.0.weight"> : tensor<1280x1280xf16>
  util.global private @_params.unet.up_blocks.0.attentions.0.transformer_blocks.2.attn2.to_out.0.bias {noinline} = #stream.parameter.named<"model"::"unet.up_blocks.0.attentions.0.transformer_blocks.2.attn2.to_out.0.bias"> : tensor<1280xf16>
  util.global private @_params.unet.up_blocks.0.attentions.0.transformer_blocks.2.norm3.weight {noinline} = #stream.parameter.named<"model"::"unet.up_blocks.0.attentions.0.transformer_blocks.2.norm3.weight"> : tensor<1280xf16>
  util.global private @_params.unet.up_blocks.0.attentions.0.transformer_blocks.2.norm3.bias {noinline} = #stream.parameter.named<"model"::"unet.up_blocks.0.attentions.0.transformer_blocks.2.norm3.bias"> : tensor<1280xf16>
  util.global private @_params.unet.up_blocks.0.attentions.0.transformer_blocks.2.ff.net.0.proj.weight {noinline} = #stream.parameter.named<"model"::"unet.up_blocks.0.attentions.0.transformer_blocks.2.ff.net.0.proj.weight"> : tensor<10240x1280xf16>
  util.global private @_params.unet.up_blocks.0.attentions.0.transformer_blocks.2.ff.net.0.proj.bias {noinline} = #stream.parameter.named<"model"::"unet.up_blocks.0.attentions.0.transformer_blocks.2.ff.net.0.proj.bias"> : tensor<10240xf16>
  util.global private @_params.unet.up_blocks.0.attentions.0.transformer_blocks.2.ff.net.2.weight {noinline} = #stream.parameter.named<"model"::"unet.up_blocks.0.attentions.0.transformer_blocks.2.ff.net.2.weight"> : tensor<1280x5120xf16>
  util.global private @_params.unet.up_blocks.0.attentions.0.transformer_blocks.2.ff.net.2.bias {noinline} = #stream.parameter.named<"model"::"unet.up_blocks.0.attentions.0.transformer_blocks.2.ff.net.2.bias"> : tensor<1280xf16>
…
    %17225 = torch.prims.convert_element_type %17224, %int5 : !torch.vtensor<[2,320,128,128],f32>, !torch.int -> !torch.vtensor<[2,320,128,128],f16>
    %17226 = torch.prims.convert_element_type %result1_504, %int5 : !torch.vtensor<[2,32,1,1],f32>, !torch.int -> !torch.vtensor<[2,32,1,1],f16>
    %17227 = torch.prims.convert_element_type %17210, %int5 : !torch.vtensor<[2,32,1,1],f32>, !torch.int -> !torch.vtensor<[2,32,1,1],f16>
    %17228 = torch.prim.ListConstruct %int3 : (!torch.int) -> !torch.list<int>
    %17229 = torch.prims.squeeze %17226, %17228 : !torch.vtensor<[2,32,1,1],f16>, !torch.list<int> -> !torch.vtensor<[2,32,1],f16>
    %17230 = torch.prim.ListConstruct %int2 : (!torch.int) -> !torch.list<int>
    %17231 = torch.prims.squeeze %17229, %17230 : !torch.vtensor<[2,32,1],f16>, !torch.list<int> -> !torch.vtensor<[2,32],f16>
    %17232 = torch.prim.ListConstruct %int3 : (!torch.int) -> !torch.list<int>
    %17233 = torch.prims.squeeze %17227, %17232 : !torch.vtensor<[2,32,1,1],f16>, !torch.list<int> -> !torch.vtensor<[2,32,1],f16>
    %17234 = torch.prim.ListConstruct %int2 : (!torch.int) -> !torch.list<int>
    %17235 = torch.prims.squeeze %17233, %17234 : !torch.vtensor<[2,32,1],f16>, !torch.list<int> -> !torch.vtensor<[2,32],f16>
    %17236 = torch.aten.silu %17225 : !torch.vtensor<[2,320,128,128],f16> -> !torch.vtensor<[2,320,128,128],f16>
    %_params.unet.up_blocks.2.resnets.0.conv2.weight = util.global.load @_params.unet.up_blocks.2.resnets.0.conv2.weight : tensor<320x320x3x3xf16>
    %17237 = torch_c.from_builtin_tensor %_params.unet.up_blocks.2.resnets.0.conv2.weight : tensor<320x320x3x3xf16> -> !torch.vtensor<[320,320,3,3],f16>
    %_params.unet.up_blocks.2.resnets.0.conv2.bias = util.global.load @_params.unet.up_blocks.2.resnets.0.conv2.bias : tensor<320xf16>
    %17238 = torch_c.from_builtin_tensor %_params.unet.up_blocks.2.resnets.0.conv2.bias : tensor<320xf16> -> !torch.vtensor<[320],f16>
    %17239 = torch.prim.ListConstruct %int1, %int1 : (!torch.int, !torch.int) -> !torch.list<int>
    %17240 = torch.prim.ListConstruct %int1, %int1 : (!torch.int, !torch.int) -> !torch.list<int>
    %17241 = torch.prim.ListConstruct %int1, %int1 : (!torch.int, !torch.int) -> !torch.list<int>
    %17242 = torch.prim.ListConstruct %int0, %int0 : (!torch.int, !torch.int) -> !torch.list<int>
    %17243 = torch.aten.convolution %17236, %17237, %17238, %17239, %17240, %17241, %false, %17242, %int1 : !torch.vtensor<[2,320,128,128],f16>, !torch.vtensor<[320,320,3,3],f16>, !torch.vtensor<[320],f16>, !torch.list<int>, !torch.list<int>, !torch.list<int>, !torch.bool, !torch.list<int>, !torch.int -> !torch.vtensor<[2,320,128,128],f16>
    %_params.unet.up_blocks.2.resnets.0.conv_shortcut.weight = util.global.load @_params.unet.up_blocks.2.resnets.0.conv_shortcut.weight : tensor<320x960x1x1xf16>
    %17244 = torch_c.from_builtin_tensor %_params.unet.up_blocks.2.resnets.0.conv_shortcut.weight : tensor<320x960x1x1xf16> -> !torch.vtensor<[320,960,1,1],f16>
    %_params.unet.up_blocks.2.resnets.0.conv_shortcut.bias = util.global.load @_params.unet.up_blocks.2.resnets.0.conv_shortcut.bias : tensor<320xf16>
    %17245 = torch_c.from_builtin_tensor %_params.unet.up_blocks.2.resnets.0.conv_shortcut.bias : tensor<320xf16> -> !torch.vtensor<[320],f16>
    %17246 = torch.prim.ListConstruct %int1, %int1 : (!torch.int, !torch.int) -> !torch.list<int>
    %17247 = torch.prim.ListConstruct %int0, %int0 : (!torch.int, !torch.int) -> !torch.list<int>
    %17248 = torch.prim.ListConstruct %int1, %int1 : (!torch.int, !torch.int) -> !torch.list<int>
    %17249 = torch.prim.ListConstruct %int0, %int0 : (!torch.int, !torch.int) -> !torch.list<int>
    %17250 = torch.aten.convolution %17150, %17244, %17245, %17246, %17247, %17248, %false, %17249, %int1 : !torch.vtensor<[2,960,128,128],f16>, !torch.vtensor<[320,960,1,1],f16>, !torch.vtensor<[320],f16>, !torch.list<int>, !torch.list<int>, !torch.list<int>, !torch.bool, !torch.list<int>, !torch.int -> !torch.vtensor<[2,320,128,128],f16>
    %17251 = torch.aten.add.Tensor %17250, %17243, %int1 : !torch.vtensor<[2,320,128,128],f16>, !torch.vtensor<[2,320,128,128],f16>, !torch.int -> !torch.vtensor<[2,320,128,128],f16>
    %17252 = torch.aten.div.Scalar %17251, %float1.000000e00 : !torch.vtensor<[2,320,128,128],f16>, !torch.float -> !torch.vtensor<[2,320,128,128],f16>
    %17253 = torch.prim.ListConstruct %17252, %205 : (!torch.vtensor<[2,320,128,128],f16>, !torch.vtensor<[2,320,128,128],f16>) -> !torch.list<vtensor>
    %17254 = torch.aten.cat %17253, %int1 : !torch.list<vtensor>, !torch.int -> !torch.vtensor<[2,640,128,128],f16>
    %17255 = torch.prim.ListConstruct %int2, %int32, %int20, %int16384 : (!torch.int, !torch.int, !torch.int, !torch.int) -> !torch.list<int>
    %17256 = torch.aten.view %17254, %17255 : !torch.vtensor<[2,640,128,128],f16>, !torch.list<int> -> !torch.vtensor<[2,32,20,16384],f16>
    %17257 = torch.prims.convert_element_type %17256, %int6 : !torch.vtensor<[2,32,20,16384],f16>, !torch.int -> !torch.vtensor<[2,32,20,16384],f32>
    %17258 = torch.prim.ListConstruct %int2, %int3 : (!torch.int, !torch.int) -> !torch.list<int>
    %result0_505, %result1_506 = torch.aten.var_mean.correction %17257, %17258, %int0, %true : !torch.vtensor<[2,32,20,16384],f32>, !torch.list<int>, !torch.int, !torch.bool -> !torch.vtensor<[2,32,1,1],f32>, !torch.vtensor<[2,32,1,1],f32>
    %17259 = torch.aten.add.Scalar %result0_505, %float1.000000e-05, %int1 : !torch.vtensor<[2,32,1,1],f32>, !torch.float, !torch.int -> !torch.vtensor<[2,32,1,1],f32>
    %17260 = torch.aten.rsqrt %17259 : !torch.vtensor<[2,32,1,1],f32> -> !torch.vtensor<[2,32,1,1],f32>
    %17261 = torch.aten.sub.Tensor %17256, %result1_506, %int1 : !torch.vtensor<[2,32,20,16384],f16>, !torch.vtensor<[2,32,1,1],f32>, !torch.int -> !torch.vtensor<[2,32,20,16384],f32>
    %17262 = torch.aten.mul.Tensor %17261, %17260 : !torch.vtensor<[2,32,20,16384],f32>, !torch.vtensor<[2,32,1,1],f32> -> !torch.vtensor<[2,32,20,16384],f32>
    %17263 = torch.prim.ListConstruct %int2, %int640, %int128, %int128 : (!torch.int, !torch.int, !torch.int, !torch.int) -> !torch.list<int>
    %17264 = torch.aten.view %17262, %17263 : !torch.vtensor<[2,32,20,16384],f32>, !torch.list<int> -> !torch.vtensor<[2,640,128,128],f32>
    %_params.unet.up_blocks.2.resnets.1.norm1.bias = util.global.load @_params.unet.up_blocks.2.resnets.1.norm1.bias : tensor<640xf16>
    %17265 = torch_c.from_builtin_tensor %_params.unet.up_blocks.2.resnets.1.norm1.bias : tensor<640xf16> -> !torch.vtensor<[640],f16>
    %17266 = torch.aten.unsqueeze %17265, %int0 : !torch.vtensor<[640],f16>, !torch.int -> !torch.vtensor<[1,640],f16>
    %17267 = torch.aten.unsqueeze %17266, %int2 : !torch.vtensor<[1,640],f16>, !torch.int -> !torch.vtensor<[1,640,1],f16>
    %17268 = torch.aten.unsqueeze %17267, %int3 : !torch.vtensor<[1,640,1],f16>, !torch.int -> !torch.vtensor<[1,640,1,1],f16>
    %_params.unet.up_blocks.2.resnets.1.norm1.weight = util.global.load @_params.unet.up_blocks.2.resnets.1.norm1.weight : tensor<640xf16>
    %17269 = torch_c.from_builtin_tensor %_params.unet.up_blocks.2.resnets.1.norm1.weight : tensor<640xf16> -> !torch.vtensor<[640],f16>
    %17270 = torch.aten.unsqueeze %17269, %int0 : !torch.vtensor<[640],f16>, !torch.int -> !torch.vtensor<[1,640],f16>
    %17271 = torch.aten.unsqueeze %17270, %int2 : !torch.vtensor<[1,640],f16>, !torch.int -> !torch.vtensor<[1,640,1],f16>
    %17272 = torch.aten.unsqueeze %17271, %int3 : !torch.vtensor<[1,640,1],f16>, !torch.int -> !torch.vtensor<[1,640,1,1],f16>
    %17273 = torch.aten.mul.Tensor %17264, %17272 : !torch.vtensor<[2,640,128,128],f32>, !torch.vtensor<[1,640,1,1],f16> -> !torch.vtensor<[2,640,128,128],f32>
    %17274 = torch.aten.add.Tensor %17273, %17268, %int1 : !torch.vtensor<[2,640,128,128],f32>, !torch.vtensor<[1,640,1,1],f16>, !torch.int -> !torch.vtensor<[2,640,128,128],f32>
    %17275 = torch.prims.convert_element_type %17274, %int5 : !torch.vtensor<[2,640,128,128],f32>, !torch.int -> !torch.vtensor<[2,640,128,128],f16>
    %17276 = torch.prims.convert_element_type %result1_506, %int5 : !torch.vtensor<[2,32,1,1],f32>, !torch.int -> !torch.vtensor<[2,32,1,1],f16>
    %17277 = torch.prims.convert_element_type %17260, %int5 : !torch.vtensor<[2,32,1,1],f32>, !torch.int -> !torch.vtensor<[2,32,1,1],f16>
    %17278 = torch.prim.ListConstruct %int3 : (!torch.int) -> !torch.list<int>
    %17279 = torch.prims.squeeze %17276, %17278 : !torch.vtensor<[2,32,1,1],f16>, !torch.list<int> -> !torch.vtensor<[2,32,1],f16>
    %17280 = torch.prim.ListConstruct %int2 : (!torch.int) -> !torch.list<int>
    %17281 = torch.prims.squeeze %17279, %17280 : !torch.vtensor<[2,32,1],f16>, !torch.list<int> -> !torch.vtensor<[2,32],f16>
    %17282 = torch.prim.ListConstruct %int3 : (!torch.int) -> !torch.list<int>
    %17283 = torch.prims.squeeze %17277, %17282 : !torch.vtensor<[2,32,1,1],f16>, !torch.list<int> -> !torch.vtensor<[2,32,1],f16>
    %17284 = torch.prim.ListConstruct %int2 : (!torch.int) -> !torch.list<int>
    %17285 = torch.prims.squeeze %17283, %17284 : !torch.vtensor<[2,32,1],f16>, !torch.list<int> -> !torch.vtensor<[2,32],f16>
    %17286 = torch.aten.silu %17275 : !torch.vtensor<[2,640,128,128],f16> -> !torch.vtensor<[2,640,128,128],f16>
    %_params.unet.up_blocks.2.resnets.1.conv1.weight = util.global.load @_params.unet.up_blocks.2.resnets.1.conv1.weight : tensor<320x640x3x3xf16>
    %17287 = torch_c.from_builtin_tensor %_params.unet.up_blocks.2.resnets.1.conv1.weight : tensor<320x640x3x3xf16> -> !torch.vtensor<[320,640,3,3],f16>
    %_params.unet.up_blocks.2.resnets.1.conv1.bias = util.global.load @_params.unet.up_blocks.2.resnets.1.conv1.bias : tensor<320xf16>
    %17288 = torch_c.from_builtin_tensor %_params.unet.up_blocks.2.resnets.1.conv1.bias : tensor<320xf16> -> !torch.vtensor<[320],f16>
    %17289 = torch.prim.ListConstruct %int1, %int1 : (!torch.int, !torch.int) -> !torch.list<int>
    %17290 = torch.prim.ListConstruct %int1, %int1 : (!torch.int, !torch.int) -> !torch.list<int>
    %17291 = torch.prim.ListConstruct %int1, %int1 : (!torch.int, !torch.int) -> !torch.list<int>
    %17292 = torch.prim.ListConstruct %int0, %int0 : (!torch.int, !torch.int) -> !torch.list<int>
    %17293 = torch.aten.convolution %17286, %17287, %17288, %17289, %17290, %17291, %false, %17292, %int1 : !torch.vtensor<[2,640,128,128],f16>, !torch.vtensor<[320,640,3,3],f16>, !torch.vtensor<[320],f16>, !torch.list<int>, !torch.list<int>, !torch.list<int>, !torch.bool, !torch.list<int>, !torch.int -> !torch.vtensor<[2,320,128,128],f16>
    %17294 = torch.aten.silu %103 : !torch.vtensor<[2,1280],f16> -> !torch.vtensor<[2,1280],f16>
    %_params.unet.up_blocks.2.resnets.1.time_emb_proj.weight = util.global.load @_params.unet.up_blocks.2.resnets.1.time_emb_proj.weight : tensor<320x1280xf16>
    %17295 = torch_c.from_builtin_tensor %_params.unet.up_blocks.2.resnets.1.time_emb_proj.weight : tensor<320x1280xf16> -> !torch.vtensor<[320,1280],f16>
    %17296 = torch.aten.transpose.int %17295, %int0, %int1 : !torch.vtensor<[320,1280],f16>, !torch.int, !torch.int -> !torch.vtensor<[1280,320],f16>
    %_params.unet.up_blocks.2.resnets.1.time_emb_proj.bias = util.global.load @_params.unet.up_blocks.2.resnets.1.time_emb_proj.bias : tensor<320xf16>
    %17297 = torch_c.from_builtin_tensor %_params.unet.up_blocks.2.resnets.1.time_emb_proj.bias : tensor<320xf16> -> !torch.vtensor<[320],f16>
    %17298 = torch.prims.convert_element_type %17297, %int6 : !torch.vtensor<[320],f16>, !torch.int -> !torch.vtensor<[320],f32>
    %17299 = torch.prims.convert_element_type %17294, %int6 : !torch.vtensor<[2,1280],f16>, !torch.int -> !torch.vtensor<[2,1280],f32>
    %17300 = torch.prims.convert_element_type %17296, %int6 : !torch.vtensor<[1280,320],f16>, !torch.int -> !torch.vtensor<[1280,320],f32>
    %17301 = torch.aten.mm %17299, %17300 : !torch.vtensor<[2,1280],f32>, !torch.vtensor<[1280,320],f32> -> !torch.vtensor<[2,320],f32>
    %17302 = torch.aten.mul.Scalar %17301, %int1 : !torch.vtensor<[2,320],f32>, !torch.int -> !torch.vtensor<[2,320],f32>
    %17303 = torch.aten.mul.Scalar %17298, %int1 : !torch.vtensor<[320],f32>, !torch.int -> !torch.vtensor<[320],f32>
    %17304 = torch.aten.add.Tensor %17302, %17303, %int1 : !torch.vtensor<[2,320],f32>, !torch.vtensor<[320],f32>, !torch.int -> !torch.vtensor<[2,320],f32>
    %17305 = torch.prims.convert_element_type %17304, %int5 : !torch.vtensor<[2,320],f32>, !torch.int -> !torch.vtensor<[2,320],f16>
    %17306 = torch.aten.unsqueeze %17305, %int2 : !torch.vtensor<[2,320],f16>, !torch.int -> !torch.vtensor<[2,320,1],f16>
    %17307 = torch.aten.unsqueeze %17306, %int3 : !torch.vtensor<[2,320,1],f16>, !torch.int -> !torch.vtensor<[2,320,1,1],f16>
    %17308 = torch.aten.add.Tensor %17293, %17307, %int1 : !torch.vtensor<[2,320,128,128],f16>, !torch.vtensor<[2,320,1,1],f16>, !torch.int -> !torch.vtensor<[2,320,128,128],f16>
    %17309 = torch.prim.ListConstruct %int2, %int32, %int10, %int16384 : (!torch.int, !torch.int, !torch.int, !torch.int) -> !torch.list<int>
    %17310 = torch.aten.view %17308, %17309 : !torch.vtensor<[2,320,128,128],f16>, !torch.list<int> -> !torch.vtensor<[2,32,10,16384],f16>
    %17311 = torch.prims.convert_element_type %17310, %int6 : !torch.vtensor<[2,32,10,16384],f16>, !torch.int -> !torch.vtensor<[2,32,10,16384],f32>
    %17312 = torch.prim.ListConstruct %int2, %int3 : (!torch.int, !torch.int) -> !torch.list<int>
    %result0_507, %result1_508 = torch.aten.var_mean.correction %17311, %17312, %int0, %true : !torch.vtensor<[2,32,10,16384],f32>, !torch.list<int>, !torch.int, !torch.bool -> !torch.vtensor<[2,32,1,1],f32>, !torch.vtensor<[2,32,1,1],f32>
    %17313 = torch.aten.add.Scalar %result0_507, %float1.000000e-05, %int1 : !torch.vtensor<[2,32,1,1],f32>, !torch.float, !torch.int -> !torch.vtensor<[2,32,1,1],f32>
    %17314 = torch.aten.rsqrt %17313 : !torch.vtensor<[2,32,1,1],f32> -> !torch.vtensor<[2,32,1,1],f32>
    %17315 = torch.aten.sub.Tensor %17310, %result1_508, %int1 : !torch.vtensor<[2,32,10,16384],f16>, !torch.vtensor<[2,32,1,1],f32>, !torch.int -> !torch.vtensor<[2,32,10,16384],f32>
    %17316 = torch.aten.mul.Tensor %17315, %17314 : !torch.vtensor<[2,32,10,16384],f32>, !torch.vtensor<[2,32,1,1],f32> -> !torch.vtensor<[2,32,10,16384],f32>
    %17317 = torch.prim.ListConstruct %int2, %int320, %int128, %int128 : (!torch.int, !torch.int, !torch.int, !torch.int) -> !torch.list<int>
    %17318 = torch.aten.view %17316, %17317 : !torch.vtensor<[2,32,10,16384],f32>, !torch.list<int> -> !torch.vtensor<[2,320,128,128],f32>
    %_params.unet.up_blocks.2.resnets.1.norm2.bias = util.global.load @_params.unet.up_blocks.2.resnets.1.norm2.bias : tensor<320xf16>
    %17319 = torch_c.from_builtin_tensor %_params.unet.up_blocks.2.resnets.1.norm2.bias : tensor<320xf16> -> !torch.vtensor<[320],f16>
    %17320 = torch.aten.unsqueeze %17319, %int0 : !torch.vtensor<[320],f16>, !torch.int -> !torch.vtensor<[1,320],f16>
    %17321 = torch.aten.unsqueeze %17320, %int2 : !torch.vtensor<[1,320],f16>, !torch.int -> !torch.vtensor<[1,320,1],f16>
    %17322 = torch.aten.unsqueeze %17321, %int3 : !torch.vtensor<[1,320,1],f16>, !torch.int -> !torch.vtensor<[1,320,1,1],f16>
    %_params.unet.up_blocks.2.resnets.1.norm2.weight = util.global.load @_params.unet.up_blocks.2.resnets.1.norm2.weight : tensor<320xf16>
    %17323 = torch_c.from_builtin_tensor %_params.unet.up_blocks.2.resnets.1.norm2.weight : tensor<320xf16> -> !torch.vtensor<[320],f16>
    %17324 = torch.aten.unsqueeze %17323, %int0 : !torch.vtensor<[320],f16>, !torch.int -> !torch.vtensor<[1,320],f16>
    %17325 = torch.aten.unsqueeze %17324, %int2 : !torch.vtensor<[1,320],f16>, !torch.int -> !torch.vtensor<[1,320,1],f16>
    %17326 = torch.aten.unsqueeze %17325, %int3 : !torch.vtensor<[1,320,1],f16>, !torch.int -> !torch.vtensor<[1,320,1,1],f16>
    %17327 = torch.aten.mul.Tensor %17318, %17326 : !torch.vtensor<[2,320,128,128],f32>, !torch.vtensor<[1,320,1,1],f16> -> !torch.vtensor<[2,320,128,128],f32>
    %17328 = torch.aten.add.Tensor %17327, %17322, %int1 : !torch.vtensor<[2,320,128,128],f32>, !torch.vtensor<[1,320,1,1],f16>, !torch.int -> !torch.vtensor<[2,320,128,128],f32>
    %17329 = torch.prims.convert_element_type %17328, %int5 : !torch.vtensor<[2,320,128,128],f32>, !torch.int -> !torch.vtensor<[2,320,128,128],f16>
    %17330 = torch.prims.convert_element_type %result1_508, %int5 : !torch.vtensor<[2,32,1,1],f32>, !torch.int -> !torch.vtensor<[2,32,1,1],f16>
    %17331 = torch.prims.convert_element_type %17314, %int5 : !torch.vtensor<[2,32,1,1],f32>, !torch.int -> !torch.vtensor<[2,32,1,1],f16>
    %17332 = torch.prim.ListConstruct %int3 : (!torch.int) -> !torch.list<int>
    %17333 = torch.prims.squeeze %17330, %17332 : !torch.vtensor<[2,32,1,1],f16>, !torch.list<int> -> !torch.vtensor<[2,32,1],f16>
    %17334 = torch.prim.ListConstruct %int2 : (!torch.int) -> !torch.list<int>
    %17335 = torch.prims.squeeze %17333, %17334 : !torch.vtensor<[2,32,1],f16>, !torch.list<int> -> !torch.vtensor<[2,32],f16>
    %17336 = torch.prim.ListConstruct %int3 : (!torch.int) -> !torch.list<int>
    %17337 = torch.prims.squeeze %17331, %17336 : !torch.vtensor<[2,32,1,1],f16>, !torch.list<int> -> !torch.vtensor<[2,32,1],f16>
    %17338 = torch.prim.ListConstruct %int2 : (!torch.int) -> !torch.list<int>
    %17339 = torch.prims.squeeze %17337, %17338 : !torch.vtensor<[2,32,1],f16>, !torch.list<int> -> !torch.vtensor<[2,32],f16>
    %17340 = torch.aten.silu %17329 : !torch.vtensor<[2,320,128,128],f16> -> !torch.vtensor<[2,320,128,128],f16>
    %_params.unet.up_blocks.2.resnets.1.conv2.weight = util.global.load @_params.unet.up_blocks.2.resnets.1.conv2.weight : tensor<320x320x3x3xf16>
    %17341 = torch_c.from_builtin_tensor %_params.unet.up_blocks.2.resnets.1.conv2.weight : tensor<320x320x3x3xf16> -> !torch.vtensor<[320,320,3,3],f16>
    %_params.unet.up_blocks.2.resnets.1.conv2.bias = util.global.load @_params.unet.up_blocks.2.resnets.1.conv2.bias : tensor<320xf16>
    %17342 = torch_c.from_builtin_tensor %_params.unet.up_blocks.2.resnets.1.conv2.bias : tensor<320xf16> -> !torch.vtensor<[320],f16>
    %17343 = torch.prim.ListConstruct %int1, %int1 : (!torch.int, !torch.int) -> !torch.list<int>
    %17344 = torch.prim.ListConstruct %int1, %int1 : (!torch.int, !torch.int) -> !torch.list<int>
    %17345 = torch.prim.ListConstruct %int1, %int1 : (!torch.int, !torch.int) -> !torch.list<int>
    %17346 = torch.prim.ListConstruct %int0, %int0 : (!torch.int, !torch.int) -> !torch.list<int>
    %17347 = torch.aten.convolution %17340, %17341, %17342, %17343, %17344, %17345, %false, %17346, %int1 : !torch.vtensor<[2,320,128,128],f16>, !torch.vtensor<[320,320,3,3],f16>, !torch.vtensor<[320],f16>, !torch.list<int>, !torch.list<int>, !torch.list<int>, !torch.bool, !torch.list<int>, !torch.int -> !torch.vtensor<[2,320,128,128],f16>
    %_params.unet.up_blocks.2.resnets.1.conv_shortcut.weight = util.global.load @_params.unet.up_blocks.2.resnets.1.conv_shortcut.weight : tensor<320x640x1x1xf16>
    %17348 = torch_c.from_builtin_tensor %_params.unet.up_blocks.2.resnets.1.conv_shortcut.weight : tensor<320x640x1x1xf16> -> !torch.vtensor<[320,640,1,1],f16>
    %_params.unet.up_blocks.2.resnets.1.conv_shortcut.bias = util.global.load @_params.unet.up_blocks.2.resnets.1.conv_shortcut.bias : tensor<320xf16>
    %17349 = torch_c.from_builtin_tensor %_params.unet.up_blocks.2.resnets.1.conv_shortcut.bias : tensor<320xf16> -> !torch.vtensor<[320],f16>
    %17350 = torch.prim.ListConstruct %int1, %int1 : (!torch.int, !torch.int) -> !torch.list<int>
    %17351 = torch.prim.ListConstruct %int0, %int0 : (!torch.int, !torch.int) -> !torch.list<int>
    %17352 = torch.prim.ListConstruct %int1, %int1 : (!torch.int, !torch.int) -> !torch.list<int>
    %17353 = torch.prim.ListConstruct %int0, %int0 : (!torch.int, !torch.int) -> !torch.list<int>
    %17354 = torch.aten.convolution %17254, %17348, %17349, %17350, %17351, %17352, %false, %17353, %int1 : !torch.vtensor<[2,640,128,128],f16>, !torch.vtensor<[320,640,1,1],f16>, !torch.vtensor<[320],f16>, !torch.list<int>, !torch.list<int>, !torch.list<int>, !torch.bool, !torch.list<int>, !torch.int -> !torch.vtensor<[2,320,128,128],f16>
    %17355 = torch.aten.add.Tensor %17354, %17347, %int1 : !torch.vtensor<[2,320,128,128],f16>, !torch.vtensor<[2,320,128,128],f16>, !torch.int -> !torch.vtensor<[2,320,128,128],f16>
    %17356 = torch.aten.div.Scalar %17355, %float1.000000e00 : !torch.vtensor<[2,320,128,128],f16>, !torch.float -> !torch.vtensor<[2,320,128,128],f16>
    %17357 = torch.prim.ListConstruct %17356, %110 : (!torch.vtensor<[2,320,128,128],f16>, !torch.vtensor<[2,320,128,128],f16>) -> !torch.list<vtensor>
    %17358 = torch.aten.cat %17357, %int1 : !torch.list<vtensor>, !torch.int -> !torch.vtensor<[2,640,128,128],f16>
    %17359 = torch.prim.ListConstruct %int2, %int32, %int20, %int16384 : (!torch.int, !torch.int, !torch.int, !torch.int) -> !torch.list<int>
    %17360 = torch.aten.view %17358, %17359 : !torch.vtensor<[2,640,128,128],f16>, !torch.list<int> -> !torch.vtensor<[2,32,20,16384],f16>
    %17361 = torch.prims.convert_element_type %17360, %int6 : !torch.vtensor<[2,32,20,16384],f16>, !torch.int -> !torch.vtensor<[2,32,20,16384],f32>
    %17362 = torch.prim.ListConstruct %int2, %int3 : (!torch.int, !torch.int) -> !torch.list<int>
    %result0_509, %result1_510 = torch.aten.var_mean.correction %17361, %17362, %int0, %true : !torch.vtensor<[2,32,20,16384],f32>, !torch.list<int>, !torch.int, !torch.bool -> !torch.vtensor<[2,32,1,1],f32>, !torch.vtensor<[2,32,1,1],f32>
    %17363 = torch.aten.add.Scalar %result0_509, %float1.000000e-05, %int1 : !torch.vtensor<[2,32,1,1],f32>, !torch.float, !torch.int -> !torch.vtensor<[2,32,1,1],f32>
    %17364 = torch.aten.rsqrt %17363 : !torch.vtensor<[2,32,1,1],f32> -> !torch.vtensor<[2,32,1,1],f32>
    %17365 = torch.aten.sub.Tensor %17360, %result1_510, %int1 : !torch.vtensor<[2,32,20,16384],f16>, !torch.vtensor<[2,32,1,1],f32>, !torch.int -> !torch.vtensor<[2,32,20,16384],f32>
    %17366 = torch.aten.mul.Tensor %17365, %17364 : !torch.vtensor<[2,32,20,16384],f32>, !torch.vtensor<[2,32,1,1],f32> -> !torch.vtensor<[2,32,20,16384],f32>
    %17367 = torch.prim.ListConstruct %int2, %int640, %int128, %int128 : (!torch.int, !torch.int, !torch.int, !torch.int) -> !torch.list<int>
    %17368 = torch.aten.view %17366, %17367 : !torch.vtensor<[2,32,20,16384],f32>, !torch.list<int> -> !torch.vtensor<[2,640,128,128],f32>
    %_params.unet.up_blocks.2.resnets.2.norm1.bias = util.global.load @_params.unet.up_blocks.2.resnets.2.norm1.bias : tensor<640xf16>
    %17369 = torch_c.from_builtin_tensor %_params.unet.up_blocks.2.resnets.2.norm1.bias : tensor<640xf16> -> !torch.vtensor<[640],f16>
    %17370 = torch.aten.unsqueeze %17369, %int0 : !torch.vtensor<[640],f16>, !torch.int -> !torch.vtensor<[1,640],f16>
    %17371 = torch.aten.unsqueeze %17370, %int2 : !torch.vtensor<[1,640],f16>, !torch.int -> !torch.vtensor<[1,640,1],f16>
    %17372 = torch.aten.unsqueeze %17371, %int3 : !torch.vtensor<[1,640,1],f16>, !torch.int -> !torch.vtensor<[1,640,1,1],f16>
    %_params.unet.up_blocks.2.resnets.2.norm1.weight = util.global.load @_params.unet.up_blocks.2.resnets.2.norm1.weight : tensor<640xf16>
    %17373 = torch_c.from_builtin_tensor %_params.unet.up_blocks.2.resnets.2.norm1.weight : tensor<640xf16> -> !torch.vtensor<[640],f16>
    %17374 = torch.aten.unsqueeze %17373, %int0 : !torch.vtensor<[640],f16>, !torch.int -> !torch.vtensor<[1,640],f16>
    %17375 = torch.aten.unsqueeze %17374, %int2 : !torch.vtensor<[1,640],f16>, !torch.int -> !torch.vtensor<[1,640,1],f16>
    %17376 = torch.aten.unsqueeze %17375, %int3 : !torch.vtensor<[1,640,1],f16>, !torch.int -> !torch.vtensor<[1,640,1,1],f16>
    %17377 = torch.aten.mul.Tensor %17368, %17376 : !torch.vtensor<[2,640,128,128],f32>, !torch.vtensor<[1,640,1,1],f16> -> !torch.vtensor<[2,640,128,128],f32>
    %17378 = torch.aten.add.Tensor %17377, %17372, %int1 : !torch.vtensor<[2,640,128,128],f32>, !torch.vtensor<[1,640,1,1],f16>, !torch.int -> !torch.vtensor<[2,640,128,128],f32>
    %17379 = torch.prims.convert_element_type %17378, %int5 : !torch.vtensor<[2,640,128,128],f32>, !torch.int -> !torch.vtensor<[2,640,128,128],f16>
    %17380 = torch.prims.convert_element_type %result1_510, %int5 : !torch.vtensor<[2,32,1,1],f32>, !torch.int -> !torch.vtensor<[2,32,1,1],f16>
    %17381 = torch.prims.convert_element_type %17364, %int5 : !torch.vtensor<[2,32,1,1],f32>, !torch.int -> !torch.vtensor<[2,32,1,1],f16>
    %17382 = torch.prim.ListConstruct %int3 : (!torch.int) -> !torch.list<int>
    %17383 = torch.prims.squeeze %17380, %17382 : !torch.vtensor<[2,32,1,1],f16>, !torch.list<int> -> !torch.vtensor<[2,32,1],f16>
    %17384 = torch.prim.ListConstruct %int2 : (!torch.int) -> !torch.list<int>
    %17385 = torch.prims.squeeze %17383, %17384 : !torch.vtensor<[2,32,1],f16>, !torch.list<int> -> !torch.vtensor<[2,32],f16>
    %17386 = torch.prim.ListConstruct %int3 : (!torch.int) -> !torch.list<int>
    %17387 = torch.prims.squeeze %17381, %17386 : !torch.vtensor<[2,32,1,1],f16>, !torch.list<int> -> !torch.vtensor<[2,32,1],f16>
    %17388 = torch.prim.ListConstruct %int2 : (!torch.int) -> !torch.list<int>
    %17389 = torch.prims.squeeze %17387, %17388 : !torch.vtensor<[2,32,1],f16>, !torch.list<int> -> !torch.vtensor<[2,32],f16>
    %17390 = torch.aten.silu %17379 : !torch.vtensor<[2,640,128,128],f16> -> !torch.vtensor<[2,640,128,128],f16>
    %_params.unet.up_blocks.2.resnets.2.conv1.weight = util.global.load @_params.unet.up_blocks.2.resnets.2.conv1.weight : tensor<320x640x3x3xf16>
    %17391 = torch_c.from_builtin_tensor %_params.unet.up_blocks.2.resnets.2.conv1.weight : tensor<320x640x3x3xf16> -> !torch.vtensor<[320,640,3,3],f16>
    %_params.unet.up_blocks.2.resnets.2.conv1.bias = util.global.load @_params.unet.up_blocks.2.resnets.2.conv1.bias : tensor<320xf16>
    %17392 = torch_c.from_builtin_tensor %_params.unet.up_blocks.2.resnets.2.conv1.bias : tensor<320xf16> -> !torch.vtensor<[320],f16>
    %17393 = torch.prim.ListConstruct %int1, %int1 : (!torch.int, !torch.int) -> !torch.list<int>
    %17394 = torch.prim.ListConstruct %int1, %int1 : (!torch.int, !torch.int) -> !torch.list<int>
    %17395 = torch.prim.ListConstruct %int1, %int1 : (!torch.int, !torch.int) -> !torch.list<int>
    %17396 = torch.prim.ListConstruct %int0, %int0 : (!torch.int, !torch.int) -> !torch.list<int>
    %17397 = torch.aten.convolution %17390, %17391, %17392, %17393, %17394, %17395, %false, %17396, %int1 : !torch.vtensor<[2,640,128,128],f16>, !torch.vtensor<[320,640,3,3],f16>, !torch.vtensor<[320],f16>, !torch.list<int>, !torch.list<int>, !torch.list<int>, !torch.bool, !torch.list<int>, !torch.int -> !torch.vtensor<[2,320,128,128],f16>
    %17398 = torch.aten.silu %103 : !torch.vtensor<[2,1280],f16> -> !torch.vtensor<[2,1280],f16>
    %_params.unet.up_blocks.2.resnets.2.time_emb_proj.weight = util.global.load @_params.unet.up_blocks.2.resnets.2.time_emb_proj.weight : tensor<320x1280xf16>
    %17399 = torch_c.from_builtin_tensor %_params.unet.up_blocks.2.resnets.2.time_emb_proj.weight : tensor<320x1280xf16> -> !torch.vtensor<[320,1280],f16>
    %17400 = torch.aten.transpose.int %17399, %int0, %int1 : !torch.vtensor<[320,1280],f16>, !torch.int, !torch.int -> !torch.vtensor<[1280,320],f16>
    %_params.unet.up_blocks.2.resnets.2.time_emb_proj.bias = util.global.load @_params.unet.up_blocks.2.resnets.2.time_emb_proj.bias : tensor<320xf16>
    %17401 = torch_c.from_builtin_tensor %_params.unet.up_blocks.2.resnets.2.time_emb_proj.bias : tensor<320xf16> -> !torch.vtensor<[320],f16>
    %17402 = torch.prims.convert_element_type %17401, %int6 : !torch.vtensor<[320],f16>, !torch.int -> !torch.vtensor<[320],f32>
    %17403 = torch.prims.convert_element_type %17398, %int6 : !torch.vtensor<[2,1280],f16>, !torch.int -> !torch.vtensor<[2,1280],f32>
    %17404 = torch.prims.convert_element_type %17400, %int6 : !torch.vtensor<[1280,320],f16>, !torch.int -> !torch.vtensor<[1280,320],f32>
    %17405 = torch.aten.mm %17403, %17404 : !torch.vtensor<[2,1280],f32>, !torch.vtensor<[1280,320],f32> -> !torch.vtensor<[2,320],f32>
    %17406 = torch.aten.mul.Scalar %17405, %int1 : !torch.vtensor<[2,320],f32>, !torch.int -> !torch.vtensor<[2,320],f32>
    %17407 = torch.aten.mul.Scalar %17402, %int1 : !torch.vtensor<[320],f32>, !torch.int -> !torch.vtensor<[320],f32>
    %17408 = torch.aten.add.Tensor %17406, %17407, %int1 : !torch.vtensor<[2,320],f32>, !torch.vtensor<[320],f32>, !torch.int -> !torch.vtensor<[2,320],f32>
    %17409 = torch.prims.convert_element_type %17408, %int5 : !torch.vtensor<[2,320],f32>, !torch.int -> !torch.vtensor<[2,320],f16>
    %17410 = torch.aten.unsqueeze %17409, %int2 : !torch.vtensor<[2,320],f16>, !torch.int -> !torch.vtensor<[2,320,1],f16>
    %17411 = torch.aten.unsqueeze %17410, %int3 : !torch.vtensor<[2,320,1],f16>, !torch.int -> !torch.vtensor<[2,320,1,1],f16>
    %17412 = torch.aten.add.Tensor %17397, %17411, %int1 : !torch.vtensor<[2,320,128,128],f16>, !torch.vtensor<[2,320,1,1],f16>, !torch.int -> !torch.vtensor<[2,320,128,128],f16>
    %17413 = torch.prim.ListConstruct %int2, %int32, %int10, %int16384 : (!torch.int, !torch.int, !torch.int, !torch.int) -> !torch.list<int>
    %17414 = torch.aten.view %17412, %17413 : !torch.vtensor<[2,320,128,128],f16>, !torch.list<int> -> !torch.vtensor<[2,32,10,16384],f16>
    %17415 = torch.prims.convert_element_type %17414, %int6 : !torch.vtensor<[2,32,10,16384],f16>, !torch.int -> !torch.vtensor<[2,32,10,16384],f32>
    %17416 = torch.prim.ListConstruct %int2, %int3 : (!torch.int, !torch.int) -> !torch.list<int>
    %result0_511, %result1_512 = torch.aten.var_mean.correction %17415, %17416, %int0, %true : !torch.vtensor<[2,32,10,16384],f32>, !torch.list<int>, !torch.int, !torch.bool -> !torch.vtensor<[2,32,1,1],f32>, !torch.vtensor<[2,32,1,1],f32>
    %17417 = torch.aten.add.Scalar %result0_511, %float1.000000e-05, %int1 : !torch.vtensor<[2,32,1,1],f32>, !torch.float, !torch.int -> !torch.vtensor<[2,32,1,1],f32>
    %17418 = torch.aten.rsqrt %17417 : !torch.vtensor<[2,32,1,1],f32> -> !torch.vtensor<[2,32,1,1],f32>
    %17419 = torch.aten.sub.Tensor %17414, %result1_512, %int1 : !torch.vtensor<[2,32,10,16384],f16>, !torch.vtensor<[2,32,1,1],f32>, !torch.int -> !torch.vtensor<[2,32,10,16384],f32>
    %17420 = torch.aten.mul.Tensor %17419, %17418 : !torch.vtensor<[2,32,10,16384],f32>, !torch.vtensor<[2,32,1,1],f32> -> !torch.vtensor<[2,32,10,16384],f32>
    %17421 = torch.prim.ListConstruct %int2, %int320, %int128, %int128 : (!torch.int, !torch.int, !torch.int, !torch.int) -> !torch.list<int>
    %17422 = torch.aten.view %17420, %17421 : !torch.vtensor<[2,32,10,16384],f32>, !torch.list<int> -> !torch.vtensor<[2,320,128,128],f32>
    %_params.unet.up_blocks.2.resnets.2.norm2.bias = util.global.load @_params.unet.up_blocks.2.resnets.2.norm2.bias : tensor<320xf16>
    %17423 = torch_c.from_builtin_tensor %_params.unet.up_blocks.2.resnets.2.norm2.bias : tensor<320xf16> -> !torch.vtensor<[320],f16>
    %17424 = torch.aten.unsqueeze %17423, %int0 : !torch.vtensor<[320],f16>, !torch.int -> !torch.vtensor<[1,320],f16>
    %17425 = torch.aten.unsqueeze %17424, %int2 : !torch.vtensor<[1,320],f16>, !torch.int -> !torch.vtensor<[1,320,1],f16>
    %17426 = torch.aten.unsqueeze %17425, %int3 : !torch.vtensor<[1,320,1],f16>, !torch.int -> !torch.vtensor<[1,320,1,1],f16>
    %_params.unet.up_blocks.2.resnets.2.norm2.weight = util.global.load @_params.unet.up_blocks.2.resnets.2.norm2.weight : tensor<320xf16>
    %17427 = torch_c.from_builtin_tensor %_params.unet.up_blocks.2.resnets.2.norm2.weight : tensor<320xf16> -> !torch.vtensor<[320],f16>
    %17428 = torch.aten.unsqueeze %17427, %int0 : !torch.vtensor<[320],f16>, !torch.int -> !torch.vtensor<[1,320],f16>
    %17429 = torch.aten.unsqueeze %17428, %int2 : !torch.vtensor<[1,320],f16>, !torch.int -> !torch.vtensor<[1,320,1],f16>
    %17430 = torch.aten.unsqueeze %17429, %int3 : !torch.vtensor<[1,320,1],f16>, !torch.int -> !torch.vtensor<[1,320,1,1],f16>
    %17431 = torch.aten.mul.Tensor %17422, %17430 : !torch.vtensor<[2,320,128,128],f32>, !torch.vtensor<[1,320,1,1],f16> -> !torch.vtensor<[2,320,128,128],f32>
    %17432 = torch.aten.add.Tensor %17431, %17426, %int1 : !torch.vtensor<[2,320,128,128],f32>, !torch.vtensor<[1,320,1,1],f16>, !torch.int -> !torch.vtensor<[2,320,128,128],f32>
    %17433 = torch.prims.convert_element_type %17432, %int5 : !torch.vtensor<[2,320,128,128],f32>, !torch.int -> !torch.vtensor<[2,320,128,128],f16>
    %17434 = torch.prims.convert_element_type %result1_512, %int5 : !torch.vtensor<[2,32,1,1],f32>, !torch.int -> !torch.vtensor<[2,32,1,1],f16>
    %17435 = torch.prims.convert_element_type %17418, %int5 : !torch.vtensor<[2,32,1,1],f32>, !torch.int -> !torch.vtensor<[2,32,1,1],f16>
    %17436 = torch.prim.ListConstruct %int3 : (!torch.int) -> !torch.list<int>
    %17437 = torch.prims.squeeze %17434, %17436 : !torch.vtensor<[2,32,1,1],f16>, !torch.list<int> -> !torch.vtensor<[2,32,1],f16>
    %17438 = torch.prim.ListConstruct %int2 : (!torch.int) -> !torch.list<int>
    %17439 = torch.prims.squeeze %17437, %17438 : !torch.vtensor<[2,32,1],f16>, !torch.list<int> -> !torch.vtensor<[2,32],f16>
    %17440 = torch.prim.ListConstruct %int3 : (!torch.int) -> !torch.list<int>
    %17441 = torch.prims.squeeze %17435, %17440 : !torch.vtensor<[2,32,1,1],f16>, !torch.list<int> -> !torch.vtensor<[2,32,1],f16>
    %17442 = torch.prim.ListConstruct %int2 : (!torch.int) -> !torch.list<int>
    %17443 = torch.prims.squeeze %17441, %17442 : !torch.vtensor<[2,32,1],f16>, !torch.list<int> -> !torch.vtensor<[2,32],f16>
    %17444 = torch.aten.silu %17433 : !torch.vtensor<[2,320,128,128],f16> -> !torch.vtensor<[2,320,128,128],f16>
    %_params.unet.up_blocks.2.resnets.2.conv2.weight = util.global.load @_params.unet.up_blocks.2.resnets.2.conv2.weight : tensor<320x320x3x3xf16>
    %17445 = torch_c.from_builtin_tensor %_params.unet.up_blocks.2.resnets.2.conv2.weight : tensor<320x320x3x3xf16> -> !torch.vtensor<[320,320,3,3],f16>
    %_params.unet.up_blocks.2.resnets.2.conv2.bias = util.global.load @_params.unet.up_blocks.2.resnets.2.conv2.bias : tensor<320xf16>
    %17446 = torch_c.from_builtin_tensor %_params.unet.up_blocks.2.resnets.2.conv2.bias : tensor<320xf16> -> !torch.vtensor<[320],f16>
    %17447 = torch.prim.ListConstruct %int1, %int1 : (!torch.int, !torch.int) -> !torch.list<int>
    %17448 = torch.prim.ListConstruct %int1, %int1 : (!torch.int, !torch.int) -> !torch.list<int>
    %17449 = torch.prim.ListConstruct %int1, %int1 : (!torch.int, !torch.int) -> !torch.list<int>
    %17450 = torch.prim.ListConstruct %int0, %int0 : (!torch.int, !torch.int) -> !torch.list<int>
    %17451 = torch.aten.convolution %17444, %17445, %17446, %17447, %17448, %17449, %false, %17450, %int1 : !torch.vtensor<[2,320,128,128],f16>, !torch.vtensor<[320,320,3,3],f16>, !torch.vtensor<[320],f16>, !torch.list<int>, !torch.list<int>, !torch.list<int>, !torch.bool, !torch.list<int>, !torch.int -> !torch.vtensor<[2,320,128,128],f16>
    %_params.unet.up_blocks.2.resnets.2.conv_shortcut.weight = util.global.load @_params.unet.up_blocks.2.resnets.2.conv_shortcut.weight : tensor<320x640x1x1xf16>
    %17452 = torch_c.from_builtin_tensor %_params.unet.up_blocks.2.resnets.2.conv_shortcut.weight : tensor<320x640x1x1xf16> -> !torch.vtensor<[320,640,1,1],f16>
    %_params.unet.up_blocks.2.resnets.2.conv_shortcut.bias = util.global.load @_params.unet.up_blocks.2.resnets.2.conv_shortcut.bias : tensor<320xf16>
    %17453 = torch_c.from_builtin_tensor %_params.unet.up_blocks.2.resnets.2.conv_shortcut.bias : tensor<320xf16> -> !torch.vtensor<[320],f16>
    %17454 = torch.prim.ListConstruct %int1, %int1 : (!torch.int, !torch.int) -> !torch.list<int>
    %17455 = torch.prim.ListConstruct %int0, %int0 : (!torch.int, !torch.int) -> !torch.list<int>
    %17456 = torch.prim.ListConstruct %int1, %int1 : (!torch.int, !torch.int) -> !torch.list<int>
    %17457 = torch.prim.ListConstruct %int0, %int0 : (!torch.int, !torch.int) -> !torch.list<int>
    %17458 = torch.aten.convolution %17358, %17452, %17453, %17454, %17455, %17456, %false, %17457, %int1 : !torch.vtensor<[2,640,128,128],f16>, !torch.vtensor<[320,640,1,1],f16>, !torch.vtensor<[320],f16>, !torch.list<int>, !torch.list<int>, !torch.list<int>, !torch.bool, !torch.list<int>, !torch.int -> !torch.vtensor<[2,320,128,128],f16>
    %17459 = torch.aten.add.Tensor %17458, %17451, %int1 : !torch.vtensor<[2,320,128,128],f16>, !torch.vtensor<[2,320,128,128],f16>, !torch.int -> !torch.vtensor<[2,320,128,128],f16>
    %17460 = torch.aten.div.Scalar %17459, %float1.000000e00 : !torch.vtensor<[2,320,128,128],f16>, !torch.float -> !torch.vtensor<[2,320,128,128],f16>
    %17461 = torch.prim.ListConstruct %int2, %int32, %int10, %int16384 : (!torch.int, !torch.int, !torch.int, !torch.int) -> !torch.list<int>
    %17462 = torch.aten.view %17460, %17461 : !torch.vtensor<[2,320,128,128],f16>, !torch.list<int> -> !torch.vtensor<[2,32,10,16384],f16>
    %17463 = torch.prims.convert_element_type %17462, %int6 : !torch.vtensor<[2,32,10,16384],f16>, !torch.int -> !torch.vtensor<[2,32,10,16384],f32>
    %17464 = torch.prim.ListConstruct %int2, %int3 : (!torch.int, !torch.int) -> !torch.list<int>
    %result0_513, %result1_514 = torch.aten.var_mean.correction %17463, %17464, %int0, %true : !torch.vtensor<[2,32,10,16384],f32>, !torch.list<int>, !torch.int, !torch.bool -> !torch.vtensor<[2,32,1,1],f32>, !torch.vtensor<[2,32,1,1],f32>
    %17465 = torch.aten.add.Scalar %result0_513, %float1.000000e-05, %int1 : !torch.vtensor<[2,32,1,1],f32>, !torch.float, !torch.int -> !torch.vtensor<[2,32,1,1],f32>
    %17466 = torch.aten.rsqrt %17465 : !torch.vtensor<[2,32,1,1],f32> -> !torch.vtensor<[2,32,1,1],f32>
    %17467 = torch.aten.sub.Tensor %17462, %result1_514, %int1 : !torch.vtensor<[2,32,10,16384],f16>, !torch.vtensor<[2,32,1,1],f32>, !torch.int -> !torch.vtensor<[2,32,10,16384],f32>
    %17468 = torch.aten.mul.Tensor %17467, %17466 : !torch.vtensor<[2,32,10,16384],f32>, !torch.vtensor<[2,32,1,1],f32> -> !torch.vtensor<[2,32,10,16384],f32>
    %17469 = torch.prim.ListConstruct %int2, %int320, %int128, %int128 : (!torch.int, !torch.int, !torch.int, !torch.int) -> !torch.list<int>
    %17470 = torch.aten.view %17468, %17469 : !torch.vtensor<[2,32,10,16384],f32>, !torch.list<int> -> !torch.vtensor<[2,320,128,128],f32>
    %_params.unet.conv_norm_out.bias = util.global.load @_params.unet.conv_norm_out.bias : tensor<320xf16>
    %17471 = torch_c.from_builtin_tensor %_params.unet.conv_norm_out.bias : tensor<320xf16> -> !torch.vtensor<[320],f16>
    %17472 = torch.aten.unsqueeze %17471, %int0 : !torch.vtensor<[320],f16>, !torch.int -> !torch.vtensor<[1,320],f16>
    %17473 = torch.aten.unsqueeze %17472, %int2 : !torch.vtensor<[1,320],f16>, !torch.int -> !torch.vtensor<[1,320,1],f16>
    %17474 = torch.aten.unsqueeze %17473, %int3 : !torch.vtensor<[1,320,1],f16>, !torch.int -> !torch.vtensor<[1,320,1,1],f16>
    %_params.unet.conv_norm_out.weight = util.global.load @_params.unet.conv_norm_out.weight : tensor<320xf16>
    %17475 = torch_c.from_builtin_tensor %_params.unet.conv_norm_out.weight : tensor<320xf16> -> !torch.vtensor<[320],f16>
    %17476 = torch.aten.unsqueeze %17475, %int0 : !torch.vtensor<[320],f16>, !torch.int -> !torch.vtensor<[1,320],f16>
    %17477 = torch.aten.unsqueeze %17476, %int2 : !torch.vtensor<[1,320],f16>, !torch.int -> !torch.vtensor<[1,320,1],f16>
    %17478 = torch.aten.unsqueeze %17477, %int3 : !torch.vtensor<[1,320,1],f16>, !torch.int -> !torch.vtensor<[1,320,1,1],f16>
    %17479 = torch.aten.mul.Tensor %17470, %17478 : !torch.vtensor<[2,320,128,128],f32>, !torch.vtensor<[1,320,1,1],f16> -> !torch.vtensor<[2,320,128,128],f32>
    %17480 = torch.aten.add.Tensor %17479, %17474, %int1 : !torch.vtensor<[2,320,128,128],f32>, !torch.vtensor<[1,320,1,1],f16>, !torch.int -> !torch.vtensor<[2,320,128,128],f32>
    %17481 = torch.prims.convert_element_type %17480, %int5 : !torch.vtensor<[2,320,128,128],f32>, !torch.int -> !torch.vtensor<[2,320,128,128],f16>
    %17482 = torch.prims.convert_element_type %result1_514, %int5 : !torch.vtensor<[2,32,1,1],f32>, !torch.int -> !torch.vtensor<[2,32,1,1],f16>
    %17483 = torch.prims.convert_element_type %17466, %int5 : !torch.vtensor<[2,32,1,1],f32>, !torch.int -> !torch.vtensor<[2,32,1,1],f16>
    %17484 = torch.prim.ListConstruct %int3 : (!torch.int) -> !torch.list<int>
    %17485 = torch.prims.squeeze %17482, %17484 : !torch.vtensor<[2,32,1,1],f16>, !torch.list<int> -> !torch.vtensor<[2,32,1],f16>
    %17486 = torch.prim.ListConstruct %int2 : (!torch.int) -> !torch.list<int>
    %17487 = torch.prims.squeeze %17485, %17486 : !torch.vtensor<[2,32,1],f16>, !torch.list<int> -> !torch.vtensor<[2,32],f16>
    %17488 = torch.prim.ListConstruct %int3 : (!torch.int) -> !torch.list<int>
    %17489 = torch.prims.squeeze %17483, %17488 : !torch.vtensor<[2,32,1,1],f16>, !torch.list<int> -> !torch.vtensor<[2,32,1],f16>
    %17490 = torch.prim.ListConstruct %int2 : (!torch.int) -> !torch.list<int>
    %17491 = torch.prims.squeeze %17489, %17490 : !torch.vtensor<[2,32,1],f16>, !torch.list<int> -> !torch.vtensor<[2,32],f16>
    %17492 = torch.aten.silu %17481 : !torch.vtensor<[2,320,128,128],f16> -> !torch.vtensor<[2,320,128,128],f16>
    %_params.unet.conv_out.weight = util.global.load @_params.unet.conv_out.weight : tensor<4x320x3x3xf16>
    %17493 = torch_c.from_builtin_tensor %_params.unet.conv_out.weight : tensor<4x320x3x3xf16> -> !torch.vtensor<[4,320,3,3],f16>
    %_params.unet.conv_out.bias = util.global.load @_params.unet.conv_out.bias : tensor<4xf16>
    %17494 = torch_c.from_builtin_tensor %_params.unet.conv_out.bias : tensor<4xf16> -> !torch.vtensor<[4],f16>
    %17495 = torch.prim.ListConstruct %int1, %int1 : (!torch.int, !torch.int) -> !torch.list<int>
    %17496 = torch.prim.ListConstruct %int1, %int1 : (!torch.int, !torch.int) -> !torch.list<int>
    %17497 = torch.prim.ListConstruct %int1, %int1 : (!torch.int, !torch.int) -> !torch.list<int>
    %17498 = torch.prim.ListConstruct %int0, %int0 : (!torch.int, !torch.int) -> !torch.list<int>
    %17499 = torch.aten.convolution %17492, %17493, %17494, %17495, %17496, %17497, %false, %17498, %int1 : !torch.vtensor<[2,320,128,128],f16>, !torch.vtensor<[4,320,3,3],f16>, !torch.vtensor<[4],f16>, !torch.list<int>, !torch.list<int>, !torch.list<int>, !torch.bool, !torch.list<int>, !torch.int -> !torch.vtensor<[2,4,128,128],f16>
    %17500 = torch.aten.slice.Tensor %17499, %int0, %int0, %int1, %int1 : !torch.vtensor<[2,4,128,128],f16>, !torch.int, !torch.int, !torch.int, !torch.int -> !torch.vtensor<[1,4,128,128],f16>
    %17501 = torch.aten.slice.Tensor %17499, %int0, %int1, %int2, %int1 : !torch.vtensor<[2,4,128,128],f16>, !torch.int, !torch.int, !torch.int, !torch.int -> !torch.vtensor<[1,4,128,128],f16>
    %17502 = torch.aten.sub.Tensor %17501, %17500, %int1 : !torch.vtensor<[1,4,128,128],f16>, !torch.vtensor<[1,4,128,128],f16>, !torch.int -> !torch.vtensor<[1,4,128,128],f16>
    %17503 = torch.aten.mul.Tensor %7, %17502 : !torch.vtensor<[1],f16>, !torch.vtensor<[1,4,128,128],f16> -> !torch.vtensor<[1,4,128,128],f16>
    %17504 = torch.aten.add.Tensor %17500, %17503, %int1 : !torch.vtensor<[1,4,128,128],f16>, !torch.vtensor<[1,4,128,128],f16>, !torch.int -> !torch.vtensor<[1,4,128,128],f16>
    %17505 = torch.aten.sub.Scalar %10, %int34, %int1 : !torch.vtensor<[1],si64>, !torch.int, !torch.int -> !torch.vtensor<[1],si64>
    %17506 = torch.aten.index_select %1, %int0, %10 : !torch.vtensor<[1000],f32>, !torch.int, !torch.vtensor<[1],si64> -> !torch.vtensor<[1],f32>
    %17507 = torch.aten.ge.Scalar %17505, %int0 : !torch.vtensor<[1],si64>, !torch.int -> !torch.vtensor<[1],i1>
    %17508 = torch.aten.add.Scalar %17505, %int1000, %int1 : !torch.vtensor<[1],si64>, !torch.int, !torch.int -> !torch.vtensor<[1],si64>
    %17509 = torch.aten.where.self %17507, %17505, %17508 : !torch.vtensor<[1],i1>, !torch.vtensor<[1],si64>, !torch.vtensor<[1],si64> -> !torch.vtensor<[1],si64>
    %17510 = torch.aten.ge.Scalar %17505, %int0 : !torch.vtensor<[1],si64>, !torch.int -> !torch.vtensor<[1],i1>
    %17511 = torch.aten.index_select %1, %int0, %17509 : !torch.vtensor<[1000],f32>, !torch.int, !torch.vtensor<[1],si64> -> !torch.vtensor<[1],f32>
    %17512 = torch.aten.where.self %17510, %17511, %2 : !torch.vtensor<[1],i1>, !torch.vtensor<[1],f32>, !torch.vtensor<[],f32> -> !torch.vtensor<[1],f32>
    %17513 = torch.aten.rsub.Scalar %17506, %int1, %int1 : !torch.vtensor<[1],f32>, !torch.int, !torch.int -> !torch.vtensor<[1],f32>
    %17514 = torch.aten.rsub.Scalar %17512, %int1, %int1 : !torch.vtensor<[1],f32>, !torch.int, !torch.int -> !torch.vtensor<[1],f32>
    %17515 = torch.aten.div.Tensor %17512, %17506 : !torch.vtensor<[1],f32>, !torch.vtensor<[1],f32> -> !torch.vtensor<[1],f32>
    %17516 = torch.aten.pow.Tensor_Scalar %17515, %float5.000000e-01 : !torch.vtensor<[1],f32>, !torch.float -> !torch.vtensor<[1],f32>
    %17517 = torch.aten.pow.Tensor_Scalar %17514, %float5.000000e-01 : !torch.vtensor<[1],f32>, !torch.float -> !torch.vtensor<[1],f32>
    %17518 = torch.aten.mul.Tensor %17506, %17517 : !torch.vtensor<[1],f32>, !torch.vtensor<[1],f32> -> !torch.vtensor<[1],f32>
    %17519 = torch.aten.mul.Tensor %17506, %17513 : !torch.vtensor<[1],f32>, !torch.vtensor<[1],f32> -> !torch.vtensor<[1],f32>
    %17520 = torch.aten.mul.Tensor %17519, %17512 : !torch.vtensor<[1],f32>, !torch.vtensor<[1],f32> -> !torch.vtensor<[1],f32>
    %17521 = torch.aten.pow.Tensor_Scalar %17520, %float5.000000e-01 : !torch.vtensor<[1],f32>, !torch.float -> !torch.vtensor<[1],f32>
    %17522 = torch.aten.add.Tensor %17518, %17521, %int1 : !torch.vtensor<[1],f32>, !torch.vtensor<[1],f32>, !torch.int -> !torch.vtensor<[1],f32>
    %17523 = torch.aten.mul.Tensor %17516, %3 : !torch.vtensor<[1],f32>, !torch.vtensor<[1,4,128,128],f16> -> !torch.vtensor<[1,4,128,128],f32>
    %17524 = torch.aten.sub.Tensor %17512, %17506, %int1 : !torch.vtensor<[1],f32>, !torch.vtensor<[1],f32>, !torch.int -> !torch.vtensor<[1],f32>
    %17525 = torch.aten.mul.Tensor %17524, %17504 : !torch.vtensor<[1],f32>, !torch.vtensor<[1,4,128,128],f16> -> !torch.vtensor<[1,4,128,128],f32>
    %17526 = torch.aten.div.Tensor %17525, %17522 : !torch.vtensor<[1,4,128,128],f32>, !torch.vtensor<[1],f32> -> !torch.vtensor<[1,4,128,128],f32>
    %17527 = torch.aten.sub.Tensor %17523, %17526, %int1 : !torch.vtensor<[1,4,128,128],f32>, !torch.vtensor<[1,4,128,128],f32>, !torch.int -> !torch.vtensor<[1,4,128,128],f32>
    %17528 = torch.prims.convert_element_type %17527, %int5 : !torch.vtensor<[1,4,128,128],f32>, !torch.int -> !torch.vtensor<[1,4,128,128],f16>
    %17529 = torch_c.to_builtin_tensor %17528 : !torch.vtensor<[1,4,128,128],f16> -> tensor<1x4x128x128xf16>
    return %17529 : tensor<1x4x128x128xf16>
  }
  hal.executable.source private @hip_matmul_exe_2048x1280_1280x1280 attributes {objects = #hal.executable.objects<{#executable_target_rocm_hsaco_fb = [#hal.executable.object<{path = "../tensile/output_2048x1280x1280/Cijk_Alik_Bljk_HSS_BH_Bias_AS_SAV_UserArgs_MT128LGssD3D5uUpJpwMOz9bV1KUetBSFPuVbIJbtPQNALVk=.co"}>]}>} {
    hal.executable.export public @Cijk_Alik_Bljk_HSS_BH_Bias_AS_SAV_UserArgs_MT128x80x64_MI16x16x1_SN_LDSB1_AFC1_AFEM1_AFEM1_ASEM1_CLR1_EPS0_GRVWA8_GRVWB4_IU1_K1_LBSPPA256_LBSPPB128_LBSPPM0_LPA16_LPB16_LPM0_LRVW8_LWPMn1_MIAV0_MIWT2_5_MO40_NTn1_NTA0_NTB0_NTD0_NEPBS16_NLCA1_NLCB1_ONLL1_PGR2_PLR1_PKA1_SIA3_SS1_SPO0_SRVW0_SSO0_SVW2_TLDS1_USFGROn1_VWA2_VWB1_WSGRA0_WSGRB0_WG64_4_1 ordinal(0) layout(#pipeline_layout) attributes {hal.interface.bindings = [#hal.interface.binding<0, 0>, #hal.interface.binding<0, 1>, #hal.interface.binding<0, 2>, #hal.interface.binding<0, 3>], rocm.parameter_mapping = "c4:0:0,c4:4:4,c4:8:8,c4:12:12,c4:16:16,c4:20:20,b8:0:0:24,b8:0:1:32,b8:0:2:40,b8:0:3:48,c4:24:56,c4:28:60,c4:32:64,c4:36:68,c4:40:72,c4:44:76,c4:48:80,c4:52:84,c4:56:88,c4:60:92,c4:64:96,c4:68:100,c4:72:104,c4:76:108,c4:80:112,c4:84:116,c4:88:120,c4:92:124,c4:96:128", workgroup_size = [256 : index, 1 : index, 1 : index]} {
    ^bb0(%arg0: !hal.device, %arg1: index):
      %c16 = arith.constant 16 : index
      %c1 = arith.constant 1 : index
      hal.return %c16, %c16, %c1 : index, index, index
    }
  }
  hal.executable.source private @hip_matmul_exe_128x2048_1280x2048 attributes {objects = #hal.executable.objects<{#executable_target_rocm_hsaco_fb = [#hal.executable.object<{path = "../tensile/output_128x1280x2048/Cijk_Alik_Bljk_HSS_BH_Bias_AS_SAV_UserArgs_MT32xWtnU2SRJ074qkQ6v4wfrhiWlW1wonyPBt_w30NplSC4=.co"}>]}>} {
    hal.executable.export public @Cijk_Alik_Bljk_HSS_BH_Bias_AS_SAV_UserArgs_MT32x32x128_MI16x16x1_SN_LDSB0_AFC1_AFEM1_AFEM1_ASEM1_CLR1_EPS0_GRVWA8_GRVWB8_IU1_K1_LBSPPA256_LBSPPB256_LBSPPM0_LPA16_LPB16_LPM0_LRVW8_LWPMn1_MIAV0_MIWT1_1_MO40_NTn1_NTA0_NTB0_NTD0_NEPBS0_NLCA1_NLCB1_ONLL1_PGR2_PLR1_PKA1_SIA3_SS1_SPO0_SRVW0_SSO0_SVW1_TLDS1_USFGROn1_VWA1_VWB1_WSGRA0_WSGRB0_WG32_8_1 ordinal(0) layout(#pipeline_layout) attributes {hal.interface.bindings = [#hal.interface.binding<0, 0>, #hal.interface.binding<0, 1>, #hal.interface.binding<0, 2>, #hal.interface.binding<0, 3>], rocm.parameter_mapping = "c4:0:0,c4:4:4,c4:8:8,c4:12:12,c4:16:16,c4:20:20,b8:0:0:24,b8:0:1:32,b8:0:2:40,b8:0:3:48,c4:24:56,c4:28:60,c4:32:64,c4:36:68,c4:40:72,c4:44:76,c4:48:80,c4:52:84,c4:56:88,c4:60:92,c4:64:96,c4:68:100,c4:72:104,c4:76:108,c4:80:112,c4:84:116,c4:88:120,c4:92:124,c4:96:128", workgroup_size = [256 : index, 1 : index, 1 : index]} {
    ^bb0(%arg0: !hal.device, %arg1: index):
      %c4 = arith.constant 4 : index
      %c40 = arith.constant 40 : index
      %c1 = arith.constant 1 : index
      hal.return %c4, %c40, %c1 : index, index, index
    }
  }
}

{-#
  dialect_resources: {
    builtin: {
      torch_tensor_1_6_torch.int64: "…",
      torch_tensor_30_torch.int64: "…",
      torch_tensor_1000_torch.float32: "…"
    }
  }
#-}
